model/sac_ff_sac_ff/agent1_sac_ff_policy_2000000.pth (torch, 276513 bytes, 6 tensors)

fc1.weight f4 [256, 7]
-0.20250377 0.0862977 -0.13392067 -0.14511725 -0.21079344 -0.0003336699 -0.13466515 0.053127915
-0.0005174002 -0.06810999 0.024170697 0.09911077 -0.03383924 0.01395019 -0.11654213 -0.24995491
0.009725819 -0.14283758 -0.24040857 -0.069343634 -0.19956647 1.6535091 -0.2471211 -0.008531847
-0.08818016 -2.790808 0.059311423 -0.06386797 0.003125571 0.0065771616 0.0016817754 -0.16579477
0.04264555 -0.013488409 -0.024827627 -0.14734401 0.06306692 0.022084165 -0.04964851 0.036565848
-0.19229507 -0.17017919 0.080796845 -0.01963281 -0.042351063 -0.11588846 -0.008868759 -0.001102951
-0.06305822 -1.099783 0.607061 -0.09881639 0.8341119 0.6518458 0.01893864 -0.029656207
-0.13708784 -0.30303758 0.0073288125 -0.13817975 0.0090571 -0.023400452 -0.109593034 -0.046896804
-0.090048775 -0.10055254 0.13843921 0.00036873692 -0.12760697 0.14462629 0.11168314 -0.10744505
-0.02604508 0.07716344 -0.13581145 -0.06629289 -0.14762008 -0.10127127 -0.121403255 0.02347205
-0.08439706 0.10010575 -0.14784825 -0.057347223 0.05910642 -0.019457787 -0.016703287 -0.07170742
0.02572654 0.0003647793 -0.07841965 -0.14449623 -0.12312815 -0.08927254 -0.039567772 0.09064428
-0.09978359 0.12029738 0.21919902 1.4766158 -0.13469577 -4.1871157 0.6801897 0.06755524
-0.07912105 -3.823895 3.8886018 -0.24812879 0.6491344 0.6929169 -0.011604442 -0.0014853086
6.0836973 -2.6858897 0.07056775 0.59519875 0.67588395 -0.02035046 0.0016354207 0.040821858
0.063191436 -0.03406229 0.053166777 -0.11061844 -0.010787355 0.08444212 -5.745027 6.9607882
-3.3255205 1.8097041 1.3853528 -0.0012000279 -0.02854414 -0.081858456 0.022736236 -0.06009381
0.01869667 -0.12510301 -0.0022853834 -0.11997562 0.0089859255 0.049720835 -7.1009716e-05 -0.016109552
0.0057842582 -0.029738879 0.01960537 0.068781495 -0.1309701 0.019367706 0.06713277 -0.17915604
-0.103956915 -0.0028964279 0.0010317576 0.07869027 -0.026464062 -0.008881889 -0.036631506 -0.0773955
0.05195058 -0.04342866 -0.010445476 -0.13417698 -0.18287057 -0.027751982 0.0010958886 -0.06456806
-0.21822043 -0.10961702 -0.19079588 -0.15574263 -0.18919306 -0.0014060421 -0.17513658 -0.15160093
-0.07789494 0.019217204 -0.019396977 -0.16071379 -0.10305659 -0.09336265 0.05002859 -0.0013969641
0.0018065317 0.047340404 -0.1495799 -0.0264333 0.07062031 0.0873689 -0.14689419 0.026671698
-0.17076808 -0.2088069 -0.13153861 -0.040545408 -0.013783181 -0.06615267 0.01666225 -0.0935102
-0.19622882 -0.08487047 -0.043164305 -0.22814615 0.047030672 0.017326972 -0.047995638 0.06601002
-0.16029948 -0.087719835 8.442941 -3.2611046 0.13398007 -0.58480054 -1.343073 0.022580395
0.035528343 -0.05879822 -0.11025422 -0.00566208 -0.12779628 0.024242073 -0.013159453 -0.15889129
0.0467469 -0.0021787928 -0.13567601 -0.084323175 -0.052940067 -0.013640138 0.13863131 -5.3033595
-0.3078543 0.15958323 -4.1047797 -0.41853002 0.0007495552 0.16506661 -0.01617224 -0.15936308
0.021321623 -0.17346057 0.07213974 -0.12199209 0.03694423 -0.10576185 -0.10669676 -0.029705837
-0.052910514 -0.216583 -0.005105484 0.048413772 -0.22603041 -0.15679663 0.025426328 0.053104896
00000000: 265d 4fbe d9bc b03d 8022 09be 9e99 14be
00000010: 3cda 57be 6af0 aeb9 a9e5 09be a89c 593d
00000020: 24a2 07ba 407d 8bbd a001 c63c 96fa ca3d
00000030: 049b 0abd 568f 643c a4ad eebd 2ef4 7fbe
00000040: 0b59 1f3c 0444 12be aa2d 76be 0904 8ebd
00000050: 275b 4cbe 30a6 d33f 500d 7dbe 29c9 0bbc
00000060: cd97 b4bd 999c 32c0 89f0 723d 36cd 82bd
00000070: 61d6 4c3b 3b85 d73b 056f dc3a 1bc6 29be
00000080: 1aad 2e3d 7dfe 5cbc 4f63 cbbc 59e1 16be
00000090: 3b29 813d dae9 b43c 3c5c 4bbd 12c6 153d
000000a0: 00e9 44be 7443 2ebe d178 a53d fdd4 a0bc
000000b0: 4f78 2dbd ee56 edbd 454e 11bc e590 90ba
000000c0: ab24 81bd b0c5 8cbf 5a68 1b3f 3f60 cabd
000000d0: 5c88 553f 5edf 263f 3525 9b3c 93f1 f2bc
000000e0: c160 0cbe be27 9bbe 8926 f03b fe7e 0dbe
000000f0: 3b64 143c 4eb2 bfbc 5072 e0bd dd16 40bd
00000100: 7e6b b8bd 7dee cdbd 02c3 0d3e 0853 c139
00000110: 67ab 02be ea18 143e 21ba e43d 260c dcbd
00000120: 7e5c d5bc de07 9e3d 2812 0bbe 91c4 87bd
00000130: b829 17be 5067 cfbd 45a2 f8bd 7548 c03c
00000140: 5ed8 acbd 3e04 cd3d 8865 17be ece4 6abd
00000150: 9319 723d f065 9fbc 55d5 88bc 57db 92bd
00000160: 77c0 d23c d93f bf39 7b9a a0bd d2f6 13be
00000170: 9d2a fcbd 85d4 b6bd d111 22bd b5a3 b93d
00000180: 575b ccbd 795e f63d b575 603e bf01 bd3f
00000190: b0ed 09be dafc 85c0 ea20 2e3f 675a 8a3d
000001a0: 380a a2bd b2ba 74c0 dade 7840 7915 7ebe
000001b0: ac2d 263f 0163 313f 8f20 3ebc b0ae c2ba
000001c0: a6ad c240 9ee5 2bc0 d385 903d f25e 183f
000001d0: bb06 2d3f 02b6 a6bc 9d5b d63a d234 273d
000001e0: 836a 813d e684 0bbd 68c5 593d ec8b e2bd
000001f0: 72bd 30bc fdef ac3d 43d7 b7c0 c7be de40
00000200: 54d5 54c0 62a4 e73f 3e53 b13f 414a 9dba
00000210: 66d5 e9bc 68a5 a7bd 5841 ba3c ed24 76bd
00000220: c229 993c 011b 00be 5fc6 15bb c7b5 f5bd
00000230: b439 133c 13a8 4b3d 0deb 94b8 2ef8 83bc
00000240: e089 bd3b f39e f3bc 719b a03c 50dd 8c3d
00000250: 071d 06be 06a9 9e3c e87c 893d ae74 37be
00000260: 5de7 d4bd ffd1 3dbb 0a3c 873a 5d28 a13d
00000270: 29cb d8bc 5885 11bc eb0a 16bd 8881 9ebd
00000280: 22ca 543d 40e2 31bd 8023 2bbc b165 09be
00000290: 6c42 3bbe 2058 e3bc eba3 8f3a 423c 84bd
000002a0: 2d75 5fbe e37e e0bd ff5f 43be ff7a 1fbe
000002b0: d3bb 41be f24a b8ba 0157 33be 463d 1bbe
000002c0: 6287 9fbd 666d 9d3c 69e6 9ebc 2892 24be
000002d0: 550f d3bd eb34 bfbd c7ea 4c3d 561a b7ba
000002e0: 25c9 ec3a 03e8 413d 792b 19be a68a d8bc
000002f0: 62a1 903d 77ee b23d 6e6b 16be 9b7e da3c
00000300: d4dd 2ebe 7ad1 55be 0fb2 06be f112 26bd
00000310: dad2 61bc 0d7b 87bd 457f 883c 4782 bfbd
00000320: 35f0 48be 92d0 adbd 0ecd 30bd 259f 69be
00000330: 3ca3 403d 4bf1 8d3c 1397 44bd 4330 873d
00000340: 8c25 24be 75a6 b3bd 4916 0741 f0b5 50c0
00000350: 1232 093e 7db5 15bf d1e9 abbf 85fa b83c
00000360: 2b86 113d 67d6 70bd f7cc e1bd f888 b9bb
00000370: 07dd 02be 5097 c63c bf9a 57bc 66b4 22be
00000380: ad79 3f3d 14ca 0ebb a7ee 0abe a1b1 acbd
00000390: afd7 58bd e37a 5fbc 5ef5 0d3e 1fb5 a9c0
000003a0: 149f 9dbe c969 233e 5b5a 83c0 9149 d6be
000003b0: cc7d 443a 3907 293e a57b 84bc 1330 23be
000003c0: afaa ae3c a69f 31be 00be 933d fdd6 f9bd
000003d0: d552 173d ab99 d8bd d583 dabd a859 f3bc
000003e0: b2b8 58bd efc7 5dbe e74b a7bb 854d 463d
000003f0: 8474 67be 4c8f 20be e04a d03c 8584 593d

fc1.bias f4 [256]
0.1328146 -0.1169762 -0.09342171 0.66561997 -0.28728655 -0.018189268 0.035264213 0.13728172
0.6197414 -0.14397135 -0.2591015 -0.36429572 0.0021868858 0.048974156 -1.1429974 -8.130034
0.071429834 -0.15865767 2.7461247 0.011088201 1.7305303 0.15762635 0.08671948 0.116373785
-0.5055119 0.05601063 0.19761206 -0.0797812 -0.45388407 0.153364 -0.6484814 -0.320469
-0.067865685 -9.438711 -0.12579636 0.31070545 0.15700734 0.022356471 0.21387483 -0.3335396
-0.39607918 17.230648 0.24213514 -0.39738098 -0.23105107 0.1574373 0.0037898722 0.24784547
-0.32208547 -3.9057014 -0.10896353 -0.2851307 8.725434 -0.11903594 -0.3260686 -0.3106685
-0.13676104 -0.21511357 -0.07501913 -0.3090305 -11.72721 -0.4098394 -0.2133675 -0.13825071
8.445869 10.22078 -6.211388 -0.24915655 0.170575 0.1298532 -0.41925564 -0.26283014
-0.20552284 -0.066887416 -0.360347 0.045025967 0.15418735 -17.801426 -0.001401623 -0.27900633
-0.33321124 0.2272465 -0.054145806 -0.37019655 15.513777 -0.55295604 0.214932 -0.21402268
-0.28668565 0.22843364 -0.4778094 -0.35870516 -0.30942008 0.15804133 -0.42644256 0.15424266
-0.2397065 -0.62409747 7.6626077 0.22567418 0.22734067 1.7859057 -0.2911237 -0.116470814
0.33590582 0.21339044 -0.17797504 0.16677317 -0.1212775 -0.4689009 0.1108004 -0.03878375
0.1319797 0.2767097 0.2261509 0.0774014 -0.16908795 -0.16175611 -0.28685305 -13.9618635
0.34934092 -0.15971148 0.10867461 -0.15707938 0.21943143 -0.12620483 -0.29268345 12.324174
-0.20382872 0.011344613 -0.12862976 -0.045671772 0.07721284 -0.17462854 0.7206439 0.23264381
-0.32117707 -13.035772 0.3767449 -0.2234428 -0.15294579 1.254813 0.038933247 -0.21420114
-6.873149 0.06395562 0.0685941 -0.30636403 -4.297049 0.23708758 0.04300207 0.014621317
0.15104406 -0.38180467 -0.25708452 -0.04212121 -0.31450635 0.3512754 -0.24973495 -1.0980687
-2.0328095 -0.040629447 -0.20187123 0.13785659 0.052008502 -0.3438617 0.017051034 0.27231702
-0.030227602 -0.03201851 0.14268719 -0.4621944 -0.13470659 -0.8346928 -0.36982185 0.054008245
0.20304212 0.28444886 0.030500857 -2.2785273 0.09391382 -0.2317705 -0.19276135 -0.31855753
-0.13542804 -0.33199698 -0.36019534 -0.03483185 0.09039986 -0.22012915 0.3561655 0.104784556
0.29973277 -0.037155747 -0.08681941 -0.26375788 5.7725277 -0.12819013 0.1059812 -0.13741149
0.1674864 0.16180763 0.14655638 0.15091857 -0.40383294 0.33737317 -0.13322984 0.27008933
0.33254573 0.008479686 0.14283071 -0.21599631 0.34459618 -0.55644715 6.788361 -0.14050135
0.23151049 0.0006055534 -0.79035693 -0.7737481 -0.07003049 0.1596878 -0.39344633 -0.25046912
-0.035259653 -0.1481955 0.055933822 -0.03465012 -0.08114883 4.102086 -11.357773 -0.27941054
0.22180067 -0.58797914 -0.3662241 -0.3790982 0.051090986 0.29255882 -0.49798077 -0.30580315
0.22990641 -0.18717942 0.09548337 -0.083726615 0.27000776 -0.0049265353 0.18973218 -0.2908337
-0.13591492 -0.15118943 0.288578 0.035541415 -0.28852218 0.10468471 0.22137135 -0.23513435
00000000: 8d00 083e 3891 efbd e253 bfbd 1266 2a3f
00000010: 3917 93be a901 95bc 3571 103d 9493 0c3e
00000020: 5fa7 1e3f 3a6d 13be f4a8 84be f884 babe
00000030: db51 0f3b 2099 483d bd4d 92bf 9f14 02c1
00000040: ce49 923d 2877 22be 82c0 2f40 49ab 353c
00000050: 0482 dd3f cd68 213e fc99 b13d 6155 ee3d
00000060: 3a69 01bf 676b 653d d15a 4a3e 5364 a3bd
00000070: 7e63 e8be 740b 1d3e e102 26bf 8314 a4be
00000080: 2afd 8abd f604 17c1 c3d0 00be c914 9f3e
00000090: 88c6 203e eb24 b73c 0102 5b3e b4c5 aabe
000000a0: e4ca cabe 5ed8 8941 46f2 773e 8575 cbbe
000000b0: a798 6cbe 3e37 213e 815f 783b 34cb 7d3e
000000c0: 63e8 a4be 03f7 79c0 4528 dfbd a7fc 91be
000000d0: 619b 0b41 1dc9 f3bd 77f2 a6be f10f 9fbe
000000e0: 160b 0cbe bb46 5cbe a1a3 99bd 3f39 9ebe
000000f0: a7a2 3bc1 78d6 d1be 037d 5abe 9891 0dbe
00000100: 4822 0741 5188 2341 b1c3 c6c0 e522 7fbe
00000110: 36ab 2e3e 3df8 043e ada8 d6be ac91 86be
00000120: 9474 52be 45fc 88bd 677f b8be 266d 383d
00000130: 4ae3 1d3e 5269 8ec1 aab6 b7ba ebd9 8ebe
00000140: aa9a aabe 4eb3 683e fec7 5dbd 678a bdbe
00000150: 6e38 7841 878e 0dbf 2217 5c3e c328 5bbe
00000160: 76c8 92be 82ea 693e 6fa3 f4be 34a8 b7be
00000170: 4f6c 9ebe 96d5 213e ae56 dabe caf1 1d3e
00000180: 9f75 75be dac4 1fbf 1534 f540 2217 673e
00000190: fecb 683e 8f98 e43f 2a0e 95be 4088 eebd
000001a0: d9fb ab3e 0683 5a3e 173f 36be 96c6 2a3e
000001b0: 5760 f8bd c713 f0be 52eb e23d b6db 1ebd
000001c0: b025 073e e5ac 8d3e 1a94 673e a084 9e3d
000001d0: 6425 2dbe 65a3 25be 67de 92be cb63 5fc1
000001e0: d0dc b23e 688b 23be cb90 de3d 6bd9 20be
000001f0: a2b2 603e d73b 01be 9bda 95be d12f 4541
00000200: 7ab8 50be c1de 393c 85b7 03be 5312 3bbd
00000210: c421 9e3d d3d1 32be 1e7c 383f 2e3a 6e3e
00000220: 5271 a4be 8692 50c1 b5e4 c03e 30ce 64be
00000230: d29d 1cbe b69d a03f 7878 1f3d 8b57 5bbe
00000240: d6f0 dbc0 2afb 823d 107b 8c3d bfdb 9cbe
00000250: 6d81 89c0 16c7 723e f022 303d 408e 6f3c
00000260: 4bab 1a3e e77b c3be 95a0 83be 4a87 2cbd
00000270: fa06 a1be 5fda b33e 85ba 7fbe 848d 8cbf
00000280: 8d19 02c0 106b 26bd 55b7 4ebe 472a 0d3e
00000290: de06 553d a40e b0be 9cae 8b3c 236d 8b3e
000002a0: e09f f7bc d725 03bd 971c 123e bfa4 ecbe
000002b0: 86f0 09be 6dae 55bf 4a59 bdbe c037 5d3d
000002c0: 46ea 4f3e 48a3 913e efdc f93c 64d3 11c0
000002d0: e455 c03d 3f55 6dbe 3b63 45be f919 a3be
000002e0: a6ad 0abe 82fb a9be 866b b8be d8ab 0ebd
000002f0: 9023 b93d 8969 61be 535b b63e 4999 d63d
00000300: 9376 993e a030 18bd 60ce b1bd 460b 87be
00000310: 8cb8 b840 4644 03be ac0c d93d 99b5 0cbe
00000320: 8e81 2b3e e6b0 253e e012 163e 668a 1a3e
00000330: 31c3 cebe 2dbc ac3e 676d 08be 2649 8a3e
00000340: 6f43 aa3e 62ee 0a3c 3742 123e 232e 5dbe
00000350: e96e b03e 5273 0ebf 413a d940 96df 0fbe
00000360: 1611 6d3e 00be 1e3a d554 4abf 5b14 46bf
00000370: 256c 8fbd 3385 233e cc71 c9be 7d3d 80be
00000380: 6d6c 10bd 90c0 17be dd1a 653d 49ed 0dbd
00000390: 5c31 a6bd 4a44 8340 70b9 35c1 e60e 8fbe
000003a0: b71f 633e cd85 16bf ba81 bbbe 2919 c2be
000003b0: c844 513d 45ca 953e 56f7 febe 3b92 9cbe
000003c0: 966c 6b3e f6ab 3fbe c98c c33d dc78 abbd
000003d0: 753e 8a3e c66e a1bb 2749 423e 28e8 94be
000003e0: 482d 0bbe 67d1 1abe 7fc0 933e e093 113d
000003f0: 2eb9 93be f064 d63d 2caf 623e 0fc7 70be

fc2.weight f4 [256, 256]
0.039943054 -0.076294936 0.060518112 0.0893394 0.03125322 0.0075875926 -0.088047154 0.017951492
0.014230062 0.10032281 0.015717989 -0.03150962 0.004573205 -0.099668086 -2.7806768 -1.567204
-0.5861985 0.09409377 -2.2140243 -0.08852269 -0.08432595 -0.12276875 -0.03684442 -0.009719711
-0.096245006 0.0041731177 -0.053770315 -0.018944385 -0.03380653 -0.12563491 -0.30948633 0.06839726
0.05849228 -0.79150695 -0.085057154 -0.09490044 -0.054924767 0.04224789 -0.002830434 -0.026135657
-0.009617188 0.17825831 0.07145558 -0.021305032 -0.07865984 0.0049704066 0.07111874 0.0667956
-0.10328115 -0.48787677 -0.08947507 -0.0155403735 0.6066322 0.08991457 -0.020945987 0.04457591
-0.020994393 -0.026830092 0.045018483 0.030580956 0.15599647 0.010241234 0.08340532 -0.061931334
-0.61328745 0.8690943 -1.5084707 -0.035210572 -0.008313789 -0.047258016 0.09128543 -0.055023868
-0.06714611 -0.03381292 0.05973517 0.0062766373 0.0669969 0.38257438 -0.017644698 0.0649533
-0.06707636 0.011303791 -0.11090098 0.047714148 -0.73797405 0.07313172 0.06896394 0.0043916875
0.05860032 -0.0781842 -0.031117445 -0.035877004 -0.0550775 0.060342383 0.045456946 -0.06154492
0.003841922 0.024822894 -0.37035424 0.10079792 0.036193572 -1.4330425 0.048699085 -0.043318592
-0.21508066 0.0435127 -0.03263077 -0.12312023 -0.00083970703 0.042429272 0.046130173 0.0349729
-0.040444657 -0.059737265 -0.011141468 -0.1059941 0.11733199 0.09160959 -0.097270876 0.0652676
0.014471788 0.06255221 0.028324693 -0.026424794 -0.07235184 0.0007001451 0.017759511 0.98220146
0.059632704 0.0841745 -0.08841295 -0.075821236 0.04149412 -0.03719847 0.008757643 -0.12695368
-0.09152122 -1.3383574 -0.08295599 0.04059553 -0.072401084 -0.7575872 -0.013778031 -0.043572046
-2.660651 0.032477353 0.091307744 -0.0076335594 -0.19068977 -0.006918429 -0.07928848 0.06327829
-0.03808825 -0.034524817 -0.044207763 0.07480961 0.01786734 -0.06414138 -0.032839004 -0.09535329
-0.3424921 0.029808773 0.082384646 -0.052993026 -0.03148094 -0.07081116 -0.01615854 -0.08225514
0.049757138 0.12633654 0.09648835 0.008704483 0.035379626 -0.015101461 0.115963325 -0.041542903
-0.036833532 -0.012172319 -0.03948877 -0.077363335 0.059416533 0.0701945 0.045827612 -0.075439386
0.07919408 -0.026166013 -0.059580702 0.08355855 0.0026929702 0.044882476 -0.02627977 -0.08512209
0.016925283 0.04024189 -0.06771828 -0.09214311 0.25102913 -0.048845414 -0.027520534 -0.03889263
0.0021314481 0.015337031 -0.073498346 -0.088123366 -0.00340033 0.09875004 0.097380556 -0.0519108
0.07225186 -0.017547732 0.09351712 0.016163217 0.089876905 0.02950433 -0.10943713 -0.07373768
0.016905041 0.042396396 -0.07400397 0.07754738 0.076926336 -0.02585091 -0.06696718 0.021593349
0.029808111 0.06845967 -0.13916467 0.004232045 0.0828516 -0.68320256 -0.40659595 0.09754694
-0.07031922 0.051463723 0.0034924133 0.028218485 0.027058918 0.034304515 -0.0493826 0.09018507
0.08039636 0.05261238 -0.08595312 -0.061455287 0.017722037 0.09945963 -0.084372945 -0.09659133
-0.023894088 -0.070301294 0.0028282253 -0.08210746 -0.029521804 -0.07622144 0.0745283 -0.09587938
00000000: 549b 233d 8540 9cbd d7e1 773d 93f7 b63d
00000010: 6003 003d 57a1 f83b 1152 b4bd 020f 933c
00000020: 3525 693c 0c76 cd3d 03c3 803c 3b10 01bd
00000030: d3da 953b c81e ccbd 9cf6 31c0 249a c8bf
00000040: 1b11 16bf 3cb4 c03d 93b2 0dc0 624b b5bd
00000050: 15b3 acbd 2f6e fbbd 2dea 16bd 6c3f 1fbc
00000060: 1a1c c5bd a6be 883b 433e 5cbd 4131 9bbc
00000070: b778 0abd 70a6 00be fe74 9ebe dd13 8c3d
00000080: 9a95 6f3d 33a0 4abf 7232 aebd 295b c2bd
00000090: cbf8 60bd 200c 2d3d cd7e 39bb 721a d6bc
000000a0: 6991 1dbc 5989 363e 4e57 923d e487 aebc
000000b0: 6918 a1bd cbde a23b b4a6 913d 22cc 883d
000000c0: 1185 d3bd fcca f9be b53e b7bd 0d9d 7ebc
000000d0: 3f4c 1b3f 2125 b83d eb96 abbc 3b95 363d
000000e0: 6ffc abbc c8ca dbbc 4d65 383d ea84 fa3c
000000f0: 8abd 1f3e d9ca 273c 69d0 aa3d b6ab 7dbd
00000100: 6800 1dbf f77c 5e3f 9115 c1bf f638 10bd
00000110: 8f36 08bc 9f91 41bd dbf3 ba3d b560 61bd
00000120: e683 89bd 6b7f 0abd deac 743d 40ac cd3b
00000130: ac35 893d cae0 c33e 9d8b 90bc 3c06 853d
00000140: 555f 89bd 8933 393c 0e20 e3bd e96f 433d
00000150: deeb 3cbf 15c6 953d f73c 8d3d 25e8 8f3b
00000160: e406 703d 0a1f a0bd 03ea febc c4f3 12bd
00000170: f298 61bd 9329 773d 1031 3a3d 8716 7cbd
00000180: c1c8 7b3b 6259 cb3c 129f bdbe 246f ce3d
00000190: b63f 143d f06d b7bf b178 473d d66e 31bd
000001a0: 1b3e 5cbe 5f3a 323d d8a7 05bd 7626 fcbd
000001b0: c91f 5cba 51ca 2d3d fef2 3c3d be3f 0f3d
000001c0: 4ca9 25bd 10af 74bd b48a 36bc 6f13 d9bd
000001d0: c14b f03d cf9d bb3d f435 c7bd 05ab 853d
000001e0: 141b 6d3c 601b 803d 3009 e83c cf78 d8bc
000001f0: 342d 94bd f189 373a 657c 913c 8e71 7b3f
00000200: 6c41 743d ae63 ac3d d911 b5bd 2a48 9bbd
00000210: bdf5 293d 6c5d 18bd 387c 0f3c 2500 02be
00000220: 7a6f bbbd 4c4f abbf d5e4 a9bd 8047 263d
00000230: 0547 94bd 3cf1 41bf 40bd 61bc 9a78 32bd
00000240: 1b48 2ac0 f906 053d 8eff ba3d f022 fabb
00000250: 2e44 43be fdb3 e2bb 0062 a2bd 0c98 813d
00000260: 6d02 1cbd e569 0dbd 3313 35bd c835 993d
00000270: 875e 923c 8e5c 83bd 3182 06bd 9648 c3bd
00000280: 205b afbe 8731 f43c 48b9 a83d 370f 59bd
00000290: 28f2 00bd 7105 91bd ea5e 84bc 6275 a8bd
000002a0: 24ce 4b3d 5e5e 013e af9b c53d 3f9d 0e3c
000002b0: 3aea 103d 1e6c 77bc 2e7e ed3d e428 2abd
000002c0: c2de 16bd 686e 47bc fabe 21bd ab70 9ebd
000002d0: c05e 733d 22c2 8f3d bcb5 3b3d f77f 9abd
000002e0: 8130 a23d 1b5a d6bc e50a 74bd bf20 ab3d
000002f0: 8b7c 303b b0d6 373d ac48 d7bc 7e54 aebd
00000300: e4a6 8a3c aed4 243d e2af 8abd 87b5 bcbd
00000310: e486 803e 2112 48bd be72 e1bc e14d 1fbd
00000320: c4af 0b3b 2c48 7b3c 4d86 96bd 067a b4bd
00000330: 12d8 5ebb 763d ca3d 756f c73d 6ba0 54bd
00000340: c8f8 933d 43c0 8fbc e785 bf3d b968 843c
00000350: 6211 b83d 11b3 f13c 9320 e0bd c803 97bd
00000360: 717c 8a3c d8a7 2d3d 658f 97bd 29d1 9e3d
00000370: 8e8b 9d3d 4ac5 d3bc 1726 89bd 89e4 b03c
00000380: 2430 f43c 9534 8c3d 2f81 0ebe f7ac 8a3b
00000390: 1aae a93d 5de6 2ebf 582d d0be b1c6 c73d
000003a0: 8603 90bd a0cb 523d f9e0 643b 742a e73c
000003b0: aaaa dd3c e482 0c3d 6945 4abd f3b2 b83d
000003c0: d9a6 a43d 1480 573d 3008 b0bd 8ab8 7bbd
000003d0: ce2d 913c 7eb1 cb3d b9cb acbd add1 c5bd
000003e0: 89bd c3bc 20fa 8fbd bf59 393b f527 a8bd
000003f0: b6d7 f1bc fd19 9cbd 4ba2 983d 695c c4bd

fc2.bias f4 [256]
-0.78961426 -0.06705162 -0.5693799 -0.11878188 3.168821 -1.3749075 3.8251894 -0.11094452
-0.090583056 -6.562905 -0.057338215 -0.9734851 2.2635324 -7.2175517 3.9365933 -0.9579537
-0.06414451 -0.7330463 6.394124 -2.7509181 -0.22611839 -0.10177414 -0.56232184 -3.687676
0.29213956 4.773889 1.314915 -0.12824926 -0.028745381 4.010624 -0.11021742 7.5209
0.31903496 7.6001873 -0.09011013 2.2355075 0.5506828 -4.5223885 1.0718883 6.424071
-0.14507309 -0.58495915 -0.07079484 0.93790257 -0.07675628 -0.1259664 5.3048635 6.921643e-05
-3.2727165 2.2782094 3.0185378 2.7309813 0.05812478 -0.07566374 -0.103530884 -0.9336411
-0.050031144 3.6564415 -0.039764564 -0.12704147 1.8181007 5.9601626 -6.227457 0.9689391
3.7413723 -0.49681148 -0.10903076 -0.029025089 1.2926807 -11.827664 1.929329 -0.10639753
2.400504 -0.072390154 -1.8599066 2.7868736 3.0435538 1.8439289 0.17071426 3.8803704
-0.12349832 -0.060167175 -0.2706094 -0.10146886 3.6054776 -2.4959917 -4.4888697 -0.09225172
0.73095036 -0.06379798 2.438397 2.0808425 -0.0609551 0.10260187 0.20643526 -0.056205634
0.56642824 -0.16334933 -0.17715429 0.13528752 -2.660079 -2.6181092 7.1529837 5.5558653
-0.123945415 2.433671 -0.15195152 -0.027729305 -0.07187419 0.59954906 0.031427834 8.610402
-2.6178927 2.9414845 0.65041286 -1.9728041 1.054899 13.082782 -0.06365686 -5.156816
-0.2930979 -0.048872836 10.274633 -0.16957378 -0.22292094 -0.07485943 -0.020102015 -6.1986904
-0.099597804 -0.76602846 -4.120328 -0.1776617 0.88362026 -0.13568471 0.0015612877 -0.09721226
-0.023795966 5.9062967 -0.09773438 -0.0530667 -0.19153136 -4.0833774 1.0857011 -0.06884638
-0.17319539 0.54873437 -1.5768241 -0.09596799 -3.3399358 -0.14265381 -0.054264877 1.7497133
-0.10274813 1.4178814 1.0580503 7.4356675 0.6597466 0.5635534 -6.0915513 -0.19287242
-0.97477823 -0.08776621 -0.021688985 0.7479717 -0.01932198 -0.91218174 -6.108395 -0.13721547
-1.5942757 0.10918549 -4.291342 -0.031327 -0.0035579843 -0.1086731 -0.07564802 -0.06589
3.8289185 2.8015697 -5.610721 -0.022073913 -0.1022037 -0.7094804 -0.12231955 0.016653268
-0.41492993 -0.11948544 4.144789 -2.2861724 1.9932429 -0.083014555 -0.04209036 0.3091543
0.299384 -0.149063 -0.072525494 -0.04463004 -0.09725919 -0.17163841 -0.074510224 -2.2956936
-0.14098881 -4.045962 -0.1608245 -0.059653476 0.62008893 11.682909 2.2349699 -0.11993916
-0.94427127 -0.14077283 -0.13428839 -0.14682154 -1.4674833 -0.81268203 2.5152404 3.2555954
0.8511855 -0.0903505 -3.2034838 2.1992745 0.8787212 2.2048876 -1.5464102 -0.08677164
-4.4855137 -6.3264203 0.58062845 -2.716961 -0.1958462 -1.2545503 -0.038927473 -0.116619825
-0.1503296 -0.070671625 -0.11225287 -0.11926552 0.8000403 0.411445 4.3406754 -0.118680194
-0.2720945 -3.8520744 -2.1565838 -0.10642895 1.4924235 -0.08467421 3.514765 -2.9758523
9.263116 1.3301244 4.6423965 4.995164 0.122018725 -2.8695374 2.913341 -0.09898912
00000000: 2924 4abf 5c52 89bd e2c2 11bf ea43 f3bd
00000010: f7cd 4a40 f8fc afbf e7cf 7440 e136 e3bd
00000020: 9c83 b9bd 5103 d2c0 7adb 6abd 5236 79bf
00000030: b7dd 1040 2ff6 e6c0 25f1 7b40 743c 75bf
00000040: 325e 83bd eca8 3bbf aa9c cc40 0b0f 30c0
00000050: 948b 67be f66e d0bd 53f4 0fbf e202 6cc0
00000060: 5193 953e b3c3 9840 224f a83f c653 03be
00000070: 6f7b ebbc 0857 8040 acb9 e1bd 36ab f040
00000080: 8d58 a33e bc34 f340 a98b b8bd 8e12 0f40
00000090: 8cf9 0c3f 68b7 90c0 a333 893f fd91 cd40
000000a0: 0a8e 14be e2bf 15bf e3fc 90bd 621a 703f
000000b0: 6632 9dbd 56fd 00be 71c1 a940 4a28 9138
000000c0: 3074 51c0 2fce 1140 b92f 4140 66c8 2e40
000000d0: 4014 6e3d 97f5 9abd 0008 d4bd 1a03 6fbf
000000e0: 75ed 4cbd 2303 6a40 2be0 22bd 2917 02be
000000f0: 86b7 e83f a7b9 be40 5447 c7c0 650c 783f
00000100: a572 6f40 135e febe 854b dfbd 06c6 edbc
00000110: 9076 a53f 1d3e 3dc1 41f4 f63f f3e6 d9bd
00000120: dca1 1940 4a41 94bd 6b11 eebf 235c 3240
00000130: 96c9 4240 dd05 ec3f b8cf 2e3e fd57 7840
00000140: b0ec fcbd db71 76bd 518d 8abe e8ce cfbd
00000150: 25c0 6640 54be 1fc0 d2a4 8fc0 78ee bcbd
00000160: 901f 3b3f 84a8 82bd b20e 1c40 862c 0540
00000170: 0eac 79bd ee20 d23d c463 533e e137 66bd
00000180: 7101 113f 0c45 27be ef67 35be d088 0a3e
00000190: bc3e 2ac0 1a8f 27c0 3ee5 e440 a6c9 b140
000001a0: 18d7 fdbd 44c1 1b40 2e99 1bbe 9128 e3bc
000001b0: c632 93bd 0c7c 193f 79ba 003d 35c4 0941
000001c0: 8e8b 27c0 4841 3c40 7581 263f d884 fcbf
000001d0: ee06 873f 1353 5141 875e 82bd a304 a5c0
000001e0: ee10 96be e22e 48bd e664 2441 c0a4 2dbe
000001f0: 6345 64be e74f 99bd fbac a4bc ac5b c6c0
00000200: eff9 cbbd 711a 44bf bad9 83c0 f3ec 35be
00000210: f034 623f eff0 0abe 1fa4 cc3a 3917 c7bd
00000220: c2ef c2bc 6200 bd40 f628 c8bd 785c 59bd
00000230: cc20 44be 07ab 82c0 41f8 8a3f 55ff 8cbd
00000240: 225a 31be db79 0c3f 5fd5 c9bf de8a c4bd
00000250: 82c1 55c0 d713 12be d944 5ebd 9bf6 df3f
00000260: 9d6d d2bd 237d b53f 316e 873f fdf0 ed40
00000270: 27e5 283f 0945 103f fded c2c0 5980 45be
00000280: 118b 79bf c5be b3bd 19ad b1bc 137b 3f3f
00000290: 2149 9ebc be84 69bf f977 c3c0 3682 0cbe
000002a0: 3a11 ccbf a49c df3d ac52 89c0 be50 00bd
000002b0: 122d 69bb 0190 debd 59ed 9abd 56f1 86bd
000002c0: 000d 7540 eb4c 3340 078b b3c0 5ad4 b4bc
000002d0: 2c50 d1bd 82a0 35bf ac82 fabd 6f6c 883c
000002e0: b271 d4be c8b4 f4bd 1da2 8440 a650 12c0
000002f0: 9522 ff3f 8903 aabd f166 2cbd 7949 9e3e
00000300: dc48 993e f9a3 18be 3f88 94bd fdcd 36bd
00000310: d42f c7bd fbc1 2fbe d198 98bd a5ec 12c0
00000320: 5f5f 10be 8578 81c0 2daf 24be 3457 74bd
00000330: 26be 1e3f 32ed 3a41 bf09 0f40 aaa2 f5bd
00000340: c3bb 71bf c126 10be e582 09be 6358 16be
00000350: 7ed6 bbbf ee0b 50bf b3f9 2040 ad5b 5040
00000360: 4be7 593f af09 b9bd e105 4dc0 eac0 0c40
00000370: dff3 603f e11c 0d40 c5f0 c5bf 54b5 b1bd
00000380: 5489 8fc0 0972 cac0 11a4 143f b0e2 2dc0
00000390: e88b 48be 1b95 a0bf 6a72 1fbd 60d6 eebd
000003a0: 01f0 19be 49bc 90bd d5e4 e5bd 7b41 f4bd
000003b0: 71cf 4c3f eba8 d23e d0e6 8a40 9a0e f3bd
000003c0: f84f 8bbe 6388 76c0 7805 0ac0 6cf7 d9bd
000003d0: bc07 bf3f ac69 adbd e9f1 6040 5d74 3ec0
000003e0: b935 1441 8441 aa3f 838e 9440 62d8 9f40
000003f0: f4e4 f93d 80a6 37c0 2e74 3a40 cfba cabd

mean_linear.weight f4 [1, 256]
-0.050742462 -0.014321585 0.102818556 -0.030420823 -0.041398555 0.04225594 0.07092072 0.12424534
0.0058286977 -0.024105778 -0.0072084228 -0.078995794 -0.1025457 -0.06131357 -0.13779505 0.053858794
0.008811571 -0.029843496 -0.1019702 -0.10200361 0.051265627 0.011548625 0.088053115 0.051891714
0.072296776 0.032601606 -0.10733346 -0.07333927 0.096060894 -0.047679797 -0.07551007 -0.1424509
0.21135454 -0.03457839 0.011714012 0.124474846 -0.06343196 0.06567098 0.09631558 -0.18585317
-0.04341833 0.17255272 0.034198012 -0.06969065 -0.011298875 0.008158308 -0.032729853 -0.08789892
0.08646042 0.08724578 0.05480935 -0.078895316 0.05958641 0.0008303839 -0.012792446 0.102789246
-0.011187523 -0.06440671 0.009845501 0.005727491 0.039697368 -0.15706396 -0.04123377 -0.034181077
0.049673196 0.096876696 -0.16439606 -0.035085127 -0.026711494 -0.13120374 0.08019983 -0.01339671
-0.090337865 -0.008910395 0.041073438 -0.07562035 -0.058689985 0.092109255 -0.06795314 -0.05634237
-0.0012379066 -0.015134832 0.029604515 0.00926607 -0.04407875 -0.11818493 0.045096975 -0.0020823765
-0.14781877 -0.0006140293 0.04615958 -0.06839875 0.0031969873 0.030277738 -0.07149218 -0.08885536
0.059159588 0.08449638 0.013788663 0.13364981 0.021556212 0.052695498 0.15102194 -0.03280223
-0.003466959 0.05410293 0.009537223 0.0075072986 0.036078107 0.04508455 -0.07803319 -0.0041905856
-0.06342907 0.08005729 -0.07279903 0.17401972 0.07133288 -0.2227342 0.08159025 -0.100937106
0.07665847 -0.109364614 -0.0707351 0.1935702 0.16813792 -0.045358133 0.092650525 -0.09436869
-0.2872023 -0.040827993 0.051865816 -0.018391497 -0.057847295 0.011607978 -0.031085271 -0.09316838
0.16050272 0.188214 -0.019181198 0.008914625 -0.008668323 0.02763231 -0.08514356 -0.04270818
0.0016809324 0.08030574 0.050611082 0.07460431 0.08858521 -0.0028538094 0.070454165 -0.08788073
0.011195393 0.03691265 -0.060052067 -0.06756894 -0.02675343 0.058813807 -0.028946731 -0.0035891803
-0.07187118 -0.033023432 0.6256626 -0.08328612 0.00778862 0.045432232 -0.11644277 -0.0028115527
0.045782167 0.024250466 -0.0654267 -0.00019080285 0.06543155 -0.036530778 -0.051588245 0.04773524
-0.1371435 -0.046149105 0.04197452 0.062203147 -0.010671064 0.050251182 -0.07047361 -0.05627689
0.012150331 0.082561016 0.2923725 0.020336192 0.050810512 0.016792612 -0.029284121 -0.060172554
0.03986164 0.14888507 -0.0027319978 -0.0029551587 0.09894161 0.16073996 0.09163336 0.059376035
0.019982578 0.06388452 -0.104333654 -0.050218627 0.020314507 -0.1384266 0.088688485 -0.02351998
-0.059939984 0.023702584 -0.022723155 -0.095230244 -0.08185197 0.03899631 -0.031483524 -0.054570712
0.062088456 -0.017543118 0.032034848 0.049522992 0.06506622 -0.04643394 -0.036251634 0.08405267
-0.055820007 0.046343703 0.12924558 0.075138554 0.07945115 0.051679216 0.099479005 0.06586685
-0.020594278 -0.011967389 -0.047955375 0.0527332 -0.14539398 0.06890723 -0.061237432 -0.012963717
-0.018306388 0.03109615 0.04614767 -0.26281187 0.0492123 -0.0012775956 -0.044819247 -0.10546571
-0.08948714 0.23076181 0.05302621 -0.023998259 -0.040828783 0.030270552 -0.10341133 -0.018738361
00000000: 54d7 4fbd 15a5 6abc 8992 d23d 1735 f9bc
00000010: 8891 29bd 9114 2d3d e23e 913d 5774 fe3d
00000020: a9fe be3b 7b79 c5bc a234 ecbb 8cc8 a1bd
00000030: 7b03 d2bd f023 7bbd 251a 0dbe 0a9b 5c3d
00000040: 685e 103c 597a f4bc c1d5 d0bd 45e7 d0bd
00000050: e8fb 513d 7236 3d3c 3155 b43d 688c 543d
00000060: 5510 943d 4389 053d a5d1 dbbd e632 96bd
00000070: 93bb c43d e44b 43bd 06a5 9abd a6de 11be
00000080: 536d 583e 12a2 0dbd 21ec 3f3c abec fe3d
00000090: 9ee8 81bd 827e 863d 1a41 c53d 4b50 3ebe
000000a0: 6bd7 31bd a9b1 303e 3713 0c3d f9b9 8ebd
000000b0: eb1e 39bc 6daa 053c bd0f 06bd 5904 b4bd
000000c0: 2912 b13d eaad b23d c57f 603d de93 a1bd
000000d0: e110 743d 1fae 593a 6897 51bc 2b83 d23d
000000e0: df4b 37bc aae7 83bd 064f 213c adad bb3b
000000f0: b599 223d 60d5 20be bee4 28bd 7501 0cbd
00000100: 1f76 4b3d 4a67 c63d 7157 28be 6cb5 0fbd
00000110: 10d2 dabc 465a 06be cf3f a43d e07d 5bbc
00000120: 0f03 b9bd e8fc 11bc 9f3c 283d d8de 9abd
00000130: e964 70bd c7a3 bc3d 042b 8bbd 42c7 66bd
00000140: 4141 a2ba 16f8 77bc 2b85 f23c b7d0 173c
00000150: eb8b 34bd f10a f2bd 9bb7 383d 7b78 08bb
00000160: ce5d 17be cff6 20ba d411 3d3d a514 8cbd
00000170: 8c84 513b 0509 f83c 7e6a 92bd cdf9 b5bd
00000180: 5351 723d 700c ad3d d8e9 613c 7fdb 083e
00000190: a796 b03c 3cd7 573d 7fa5 1a3e a25b 06bd
000001a0: ec35 63bb 099b 5d3d 0342 1c3c c9ff f53b
000001b0: a3c6 133d 94aa 383d ddcf 9fbd 2e51 89bb
000001c0: 1ae7 81bd 14f5 a33d a817 95bd 3a32 323e
000001d0: f916 923d 6f14 64be ca18 a73d 1db8 cebd
000001e0: 1eff 9c3d 8efa dfbd 90dd 90bd 4437 463e
000001f0: 592c 2c3e 73c9 39bd 8fbf bd3d 5f44 c1bd
00000200: 2e0c 93be 413b 27bd 4071 543d c4a9 96bc
00000210: 49f1 6cbd 632f 3e3c 8aa6 febc 10cf bebd
00000220: d35a 243e 2cbb 403e e321 9dbc a60e 123c
00000230: 9505 0ebc 275d e23c bf5f aebd c6ee 2ebd
00000240: bb52 dc3a 5677 a43d 914d 4f3d 25ca 983d
00000250: 2a6c b53d fa06 3bbb 464a 903d d0fa b3bd
00000260: e26c 373c b831 173d 28f9 75bd 9661 8abd
00000270: 022a dbbc bfe6 703d b221 edbc 7438 6bbb
00000280: 3231 93bd 9443 07bd 6d2b 203f ea91 aabd
00000290: ae37 ff3b 2617 3a3d 8c79 eebd 0742 38bb
000002a0: 1586 3b3d eaa8 c63c 6ffe 85bd 4012 48b9
000002b0: fa00 863d 4ca1 15bd 324e 53bd 0786 433d
000002c0: 586f 0cbe d806 3dbd 79ed 2b3d bac8 7e3d
000002d0: b0d5 2ebc 2fd4 4d3d 7854 90bd 9982 66bd
000002e0: 2f12 473c c015 a93d d9b1 953e 1698 a63c
000002f0: af1e 503d a990 893c 41e5 efbc 7f77 76bd
00000300: f645 233d 5475 183e 510b 33bb 56ab 41bb
00000310: e6a1 ca3d 0499 243e 45aa bb3d 4934 733d
00000320: 81b2 a33c e3d5 823d e2ac d5bd 0cb2 4dbd
00000330: 9c6a a63c b4bf 0dbe 4fa2 b53d f9ac c0bc
00000340: a183 75bd ec2b c23c e925 babc 1308 c3bd
00000350: 01a2 a7bd 98ba 1f3d def4 00bd 8a85 5fbd
00000360: 7750 7e3d 96b6 8fbc f936 033d 9fd8 4a3d
00000370: 7041 853d 8431 3ebd 987c 14bd ce23 ac3d
00000380: 85a3 64bd e5d2 3d3d f458 043e 3ee2 993d
00000390: 49b7 a23d 96ad 533d a6bb cb3d 33e5 863d
000003a0: 55b5 a8bc de12 44bc db6c 44bd c5fe 573d
000003b0: 29e2 14be 3c1f 8d3d 1ad4 7abd c565 54bc
000003c0: 47f7 95bc 5abd fe3c 5705 3d3d 478f 86be
000003d0: d692 493d ff74 a7ba 6394 37bd 68fe d7bd
000003e0: 0945 b7bd d34c 6c3e 0332 593d ff97 c4bc
000003f0: 153c 27bd f3f9 f73c 52c9 d3bd 3181 99bc

log_std_linear.weight f4 [1, 256]
-0.010409787 0.0042408304 -0.0008048196 -0.017414209 -0.0047674445 -0.008679508 0.009538567 0.030297672
0.005181698 0.0014686639 -0.039295815 -0.00857174 -0.013336001 -0.0064907623 -0.006705083 -0.008634326
0.014115596 -0.08008569 -0.01085451 -0.021385005 0.0021417588 -0.06801022 0.0057316637 -0.008003687
0.009233278 -0.0014270188 -0.018449813 -0.037776627 -0.09355452 -0.008888294 -0.07506792 0.029347215
0.03184303 -0.01055009 0.020525184 0.013441825 -0.008121469 0.012088709 -0.011051627 0.0044780625
-0.013460619 0.022852162 -0.03351608 -0.003971052 -0.008540476 0.069322586 0.0034533562 -0.02160157
0.004555971 0.0090859905 0.006171271 -0.013898331 0.0025337753 0.004609309 -0.05241647 0.0062042326
0.07905049 -0.001875035 -0.0016920458 -0.031182118 -0.007391623 -0.020340672 -0.0017583303 -0.005252889
0.013170728 0.0034392052 0.10055123 0.04361091 0.0062167905 -0.004834818 0.007944542 -0.009435246
0.00066843146 -0.036305312 0.0024009468 0.0015895093 -0.013916877 0.005037943 -0.006906221 0.0040331725
0.00978684 -0.0043697935 0.0412624 0.07256649 -0.010229708 -0.013083925 -0.00010250361 0.010468762
-0.008458865 -0.014864756 0.011025467 -0.008418129 -0.04691196 0.07679849 0.0009795423 0.05989224
-0.012108002 0.06540871 0.029368784 0.13230395 0.010792371 0.0019704644 0.06256933 0.023077244
0.0128229195 -0.0022246405 -0.0045973505 -0.008039683 -0.06467753 0.0100399805 -0.01062317 -0.11184525
-0.00876013 0.012638124 -0.005704895 0.009242185 0.0062668337 0.010857248 0.07551863 -0.010779571
0.051959448 -0.12561545 -0.00990391 -0.004637609 0.0054595373 0.03146826 0.05376834 -0.0032145013
-0.020180626 -0.0110458 0.0042385636 -0.0133023625 3.3137785e-05 -0.04871469 -0.020586504 0.00028576757
0.1268049 0.0422387 -0.06363672 0.039174266 -0.058659855 0.006709495 -0.0071940823 -0.03607301
0.109247096 0.0017962581 -0.001652534 -0.004345416 0.0031673291 -0.029327722 0.010141498 0.005553355
0.046765752 0.0021130156 -0.0008029698 -0.0023116346 0.009483276 -0.00052879815 0.0025567655 0.01218788
-0.015499619 0.16995358 0.031489894 -0.007865826 0.009759418 0.004371913 -0.007796227 0.020469883
-0.00059136876 -0.03368467 -0.005623797 0.0049820486 0.028579673 0.11755654 -0.053732675 0.02811217
0.00052327756 -0.0040130606 0.0019646892 0.03844099 0.006022408 -0.00424611 0.078218214 -0.0077066887
0.022253599 -0.0022916484 0.0058698724 0.014266383 0.0075444523 0.07633237 -0.020821007 -0.0030786544
-0.0015003525 0.1299769 0.06088074 0.05508271 0.0509894 0.010481826 -0.007082803 0.0027852529
0.020731922 0.019496225 0.0169831 0.056409918 -0.0023251479 0.001325772 -0.004356715 0.032842074
-0.009453429 -0.037471466 0.0428423 0.026332162 -0.0047150133 0.0013331133 0.008527305 -0.0030147333
-0.00570675 -0.051001612 -0.004769214 -0.0083002 0.0057360437 -0.012689447 0.0012390007 -0.11447996
0.00477433 0.010593193 -0.0026687246 0.0020652816 0.027895167 0.0076827295 -0.09637668 0.10689977
-0.071661666 -0.018945498 -0.043626584 0.095960744 -0.011695634 -0.00431155 0.006799998 0.026088404
-0.0377331 0.0045193955 0.003526281 0.2626489 0.0029470278 0.07707925 -0.009634216 -0.009717457
-0.0060599106 0.0057876604 0.0041813776 0.008073573 -0.010761685 0.020318093 -0.022343604 0.018787408
00000000: d08d 2abc aaf6 8a3b 87fa 52ba 3ea8 8ebc
00000010: 3938 9cbb 7f34 0ebc a647 1c3c d332 f83c
00000020: 3ccb a93b 2f80 c03a a6f4 20bd 7c70 0cbc
00000030: 3e7f 5abc 76b0 d4bb 50b6 dbbb fd76 0dbc
00000040: 1a45 673c f703 a4bd 1dd7 31bc 9b2f afbc
00000050: c05c 0c3b f148 8bbd aed0 bb3b e521 03bc
00000060: 2d47 173c ce0a bbba 1024 97bc aabb 1abd
00000070: 8399 bfbd 35a0 11bc 36bd 99bd 9269 f03c
00000080: d66d 023d 49da 2cbc 6e24 a83c 1a3b 5c3c
00000090: e90f 05bc b80f 463c e211 35bc b6bc 923b
000000a0: ee89 5cbc 7534 bb3c 2848 09bd 991f 82bb
000000b0: 5aed 0bbc 00f9 8d3d b451 623b c7f5 b0bc
000000c0: 414a 953b 68dd 143c 6038 ca3b d3b5 63bc
000000d0: b20d 263b b009 973b a7b2 56bd e04c cb3b
000000e0: 39e5 a13d bcc3 f5ba a3c7 ddba a471 ffbc
000000f0: 6e35 f2bb 7ba1 a6bc c677 e6ba 6d20 acbb
00000100: 0aca 573c 4a64 613b ceed cd3d 5ba1 323d
00000110: 38b6 cb3b 656d 9ebb d329 023c 4a96 1abc
00000120: ad39 2f3a e1b4 14bd 3459 1d3b 1557 d03a
00000130: 9d03 64bc 5415 a53b 954d e2bb b428 843b
00000140: fb58 203c 7c30 8fbb c302 293d bd9d 943d
00000150: 819a 27bc f55d 56bc 35f7 d6b8 2c85 2b3c
00000160: 0d97 0abc 4e8b 73bc 29a4 343c 31ec 09bc
00000170: c126 40bd 8748 9d3d fc63 803a 9151 753d
00000180: a460 46bc 00f5 853d ce96 f03c b07a 073e
00000190: 7cd2 303c e822 013b 5924 803d 7d0c bd3c
000001a0: 3917 523c 46cb 11bb 5fa5 96bb e0b8 03bc
000001b0: a775 84bd bb7e 243c ce0c 2ebc 1f0f e5bd
000001c0: a686 0fbc 2210 4f3c 21f0 babb 896c 173c
000001d0: 035a cd3b 99e2 313c 83a9 9a3d cc9c 30bc
000001e0: 6ed3 543d 56a1 00be 0244 22bc 15f7 97bb
000001f0: ebe5 b23b dde4 003d 313c 5c3d 62aa 52bb
00000200: d751 a5bc 71f9 34bc a6e3 8a3b 27f2 59bc
00000210: 6dfd 0a38 0e89 47bd 07a5 a8bc 13d3 9539
00000220: 25d9 013e 7d02 2d3d f853 82bd 3275 203d
00000230: 5145 70bd 53db db3b 56bc ebbb 4bc1 13bd
00000240: f1bc df3d 6c70 eb3a d799 d8ba fe63 8ebb
00000250: f792 4f3b b140 f0bc 8728 263c ebf8 b53b
00000260: 728d 3f3d 857a 0a3b 647e 52ba cb7e 17bb
00000270: be5f 1b3c 0b9f 0aba 688f 273b adaf 473c
00000280: 1df2 7dbc 5008 2e3e 8cfb 003d aadf 00bc
00000290: f7e5 1f3c 4442 8f3b 7e77 ffbb 75b0 a73c
000002a0: 1606 1bba f0f8 09bd d447 b8bb 7440 a33b
000002b0: eb1f ea3c 7cc1 f03d cb16 5cbd 7e4b e63c
000002c0: 902c 093a fe7f 83bb 04c2 003b 4d74 1d3d
000002d0: 9f57 c53b f422 8bbb df30 a03d 6488 fcbb
000002e0: 2e4d b63c 7b2f 16bb 0f58 c03b 8cbd 693c
000002f0: 7437 f73b 2554 9c3d d190 aabc 40c3 49bb
00000300: 7aa7 c4ba aa18 053e 155e 793d 689e 613d
00000310: 43da 503d f7bb 2b3c dc16 e8bb ca88 363b
00000320: fed5 a93c 8cb6 9f3c 2420 8b3c 160e 673d
00000330: 8261 18bb 87c5 ad3a c6c2 8ebb 6985 063d
00000340: 8ee2 1abc ae7b 19bd 687b 2f3d 8cb6 d73c
00000350: 6680 9abb dcbb ae3a 1cb6 0b3c d592 45bb
00000360: b0ff babb 11e7 50bd 1147 9cbb 90fd 07bc
00000370: 6cf5 bb3b 66e7 4fbc f765 a23a 7874 eabd
00000380: fc71 9c3b 128f 2d3c c5e5 2ebb ad59 073b
00000390: 6884 e43c 68bf fb3b 2361 c5bd 44ee da3d
000003a0: 5ac3 92bd 9733 9bbc cab1 32bd 1187 c43d
000003b0: 0b9f 3fbc e747 8dbb 85d2 de3b 59b7 d53c
000003c0: 068e 1abd 7017 943b 2e19 673b eb79 863e
000003d0: ec22 413b badb 9d3d d5d8 1dbc f835 1fbc
000003e0: 3792 c6bb 6aa6 bd3b f003 893b 0547 043c
000003f0: c751 30bc 2172 a63c ef09 b7bc 0de8 993c
