model/sac_ff_sac_ff/agent1_sac_ff_q1_2000000.pth (torch, 275871 bytes, 5 tensors)

fc1.weight f4 [256, 8]
0	0x3da73671	0.08164681
1	0x3e01e79d	0.1268601
2	0xbdf8f021	-0.12155176
3	0xbe070149	-0.13184084
4	0x3da90c6a	0.08254321
5	0xbdebb93c	-0.1150994
6	0xbe06ec96	-0.13176188
7	0x3deae624	0.11469677
8	0xbfd3d28a	-1.6548626
9	0x3deba48c	0.11505994
10	0xbd3721db	-0.04471002
11	0x3ea17ded	0.31541386
12	0x3dd095ca	0.1018482
13	0xbda64c35	-0.08120004
14	0xbe6b79b7	-0.2299565
15	0x3ed51777	0.41619465
16	0xbf97d96c	-1.1863227
17	0xbd314c73	-0.0432858
18	0xbcd15bb0	-0.025556415
19	0xbda0ad47	-0.0784555
20	0xbe93a334	-0.28835452
21	0xbc9bb727	-0.019008232
22	0x3da0b6fc	0.078474015
23	0xbf0b8cfe	-0.5451201
24	0xbf7c6c40	-0.98602676
25	0xbeb9a144	-0.36255848
26	0xbd103d8b	-0.035214942
27	0x3edde2ca	0.4333709
28	0x3d8eba70	0.06969154
29	0xbdc800da	-0.097657874
30	0xbef1b47a	-0.47208005
31	0x3ef98318	0.4873283
32	0x40bd2278	5.9104576
33	0xbd88b618	-0.066753566
34	0xbc9ea5ee	-0.01936623
35	0xbd1e1dff	-0.038602825
36	0xbc13f45d	-0.009030429
37	0xbb10cb1d	-0.0022093721
38	0x3bd876ad	0.006605944
39	0xbf9b1dab	-1.2118429
40	0xbdab52b9	-0.083653875
41	0xbdcc608c	-0.09979352
42	0xbe09a9b5	-0.13443644
43	0xbba2d938	-0.004969742
44	0x3dd7d420	0.105385065
45	0xbe16ca00	-0.14725494
46	0xbd5553b9	-0.052081797
47	0x3de63e3a	0.112423375
48	0x3f6e42fc	0.9307096
49	0xbf25664b	-0.6460921
50	0x3d53943c	0.05165504
51	0x3d07dc1c	0.033168897
52	0x3dbdeaff	0.092733376
53	0xba8ec367	-0.0010891975
54	0xbc4330ce	-0.011913491
55	0x3eaf7cb7	0.34274837
56	0xc0246db5	-2.569196
57	0x4030655b	2.7561862
58	0xbe30a024	-0.17248589
59	0x3f8ec4b2	1.1153777
60	0xbef7b657	-0.48381302
61	0xbc574e88	-0.013141282
62	0xbaa71fc9	-0.0012750562
63	0x40269269	2.6026862
64	0xbf04f876	-0.5194162
65	0x3f23f736	0.6404909
66	0x3d72eb04	0.05930616
67	0xbfeb1c99	-1.8368102
68	0xbe438a24	-0.19095665
69	0x3931d873	0.00016960669
70	0xba756906	-0.0009361658
71	0x3f0ad25f	0.5422725
72	0xbfcd7b34	-1.6053224
73	0x3db2df51	0.087340005
74	0xba0bf3c4	-0.0005338753
75	0xbe0178d4	-0.12643749
76	0xbe3d4fc8	-0.18487465
77	0xbc3791c8	-0.011204191
78	0x3d30542d	0.043049026
79	0x3fd703e1	1.6798059
80	0xbfcc1a7e	-1.5945585
81	0xbe27c86b	-0.16385047
82	0xbc8a0277	-0.016846878
83	0xbd2abbde	-0.04168307
84	0xbd73fb6c	-0.059565946
85	0xbd0befa1	-0.034164075
86	0x3e556c1c	0.20842022
87	0xbeda3e7a	-0.4262579
88	0x3ec2e150	0.38062525
89	0xbe0d1b0f	-0.13779853
90	0x3cc0a0ae	0.023514118
91	0x3e2a3466	0.16621551
92	0x3e03c88f	0.12869476
93	0xbea570ed	-0.32312718
94	0xbcfab790	-0.030605108
95	0x3df5bb77	0.11998647
96	0xbf27c86f	-0.6554021
97	0x3d317a7d	0.043329705
98	0x3b0e7d1c	0.0021742051
99	0x3d98ea9c	0.07466623
100	0x3c540616	0.012940904
101	0xbe048061	-0.12939598
102	0xbd1ede00	-0.038785934
103	0xbf80bb5f	-1.0057181
104	0x3dd40953	0.10353341
105	0xbd936ceb	-0.07198509
106	0xbdffa3b2	-0.12482394
107	0xbdc672fc	-0.096899
108	0xbde60ce0	-0.112329245
109	0xbdf31a57	-0.11870258
110	0xbe0a48ca	-0.1350433
111	0x3e124ed3	0.14287882
112	0x3e8693d2	0.26284653
113	0xbe556b5f	-0.2084174
114	0x3ca0eb5b	0.019643476
115	0x3ed0382f	0.40667865
116	0xbdf03a09	-0.11729819
117	0xbe342d1a	-0.1759533
118	0xbda6854b	-0.08130892
119	0x3e184ec2	0.14873794
120	0x3db98060	0.09057689
121	0x3d91cad9	0.07118768
122	0xbe126cd3	-0.14299326
123	0x3ca509e1	0.020146312
124	0xbdcef185	-0.1010466
125	0xbcb5dc8e	-0.022199895
126	0xbc97c5cf	-0.01852694
127	0xbdbea9f0	-0.09309757
128	0x3fb612a9	1.4224445
129	0xbe318e4b	-0.17339437
130	0xbd919492	-0.07108416
131	0xbe70f817	-0.23532139
132	0x3e87c514	0.26517546
133	0xbd98ef59	-0.07467527
134	0xbe836b62	-0.25667864
135	0xbf81c5c2	-1.0138476
136	0x3e064002	0.13110355
137	0xbd4f651f	-0.050633546
138	0xbca77d2c	-0.020445429
139	0x3d94584e	0.07243405
140	0x3d5f1112	0.05445964
141	0xbc970ee6	-0.018439721
142	0xbdee372b	-0.11631616
143	0x3fedc4c5	1.8575674
144	0xbd3651f5	-0.044511754
145	0xbcaf6cee	-0.021414246
146	0xbe00ebbe	-0.12589929
147	0x3cab0160	0.02087468
148	0xbd74d0e7	-0.059769537
149	0xbd9c5406	-0.07633214
150	0xbda5a11a	-0.08087368
151	0xb9e94dc8	-0.00044499175
152	0x3f4c4955	0.79799396
153	0xbe33aff7	-0.17547594
154	0xbd46c30f	-0.048525866
155	0x3dc80e0a	0.09768303
156	0x3f0e1096	0.5549406
157	0xbe492cd3	-0.19646005
158	0xbe3f962d	-0.18709631
159	0xbec60b8b	-0.38680682
160	0xbe012083	-0.12610058
161	0x3d855341	0.0651002
162	0xbcc26581	-0.023730041
163	0x3d8c1e20	0.068416834
164	0x3bc10036	0.0058899177
165	0xbd8e24e9	-0.06940634
166	0x3e04c61e	0.129662
167	0x3c51409e	0.012771754
168	0xc1306f11	-11.027116
169	0x3fa3794e	1.2771394
170	0xbd516264	-0.051119223
171	0x3e77f811	0.24215724
172	0x3f1f39dd	0.6219767
173	0x39000326	0.00012208204
174	0x3c374d07	0.011187798
175	0xbce83a71	-0.02834818
176	0xc096820e	-4.703376
177	0xc02f3798	-2.7377682
178	0x3e12177a	0.14266768
179	0x3f204778	0.6260905
180	0xbe154b6b	-0.14579551
181	0xbab263ea	-0.0013610099
182	0x3c18dbe8	0.0093297735
183	0x3f4fe9e2	0.8121625
184	0x3fe2d2a8	1.7720537
185	0x3e27871e	0.16360137
186	0xbdcad795	-0.099044
187	0xbe1ab259	-0.15107097
188	0xbe60696e	-0.21915218
189	0xbd1e3535	-0.03862496
190	0xbee526e9	-0.4475625
191	0x3fc2477c	1.5178065
192	0xbffcb87a	-1.9743798
193	0x403c1b03	2.9391487
194	0xbe407cfb	-0.18797676
195	0x3f7e2b18	0.99284506
196	0xbf2d758e	-0.677575
197	0x3b04f951	0.0020290206
198	0xbbe1dbce	-0.006892658
199	0xc067f37d	-3.6242363
200	0xc03850d2	-2.8799329
201	0x3cd65d7b	0.026167622
202	0xbdc89a81	-0.09795094
203	0xbef4503e	-0.4771747
204	0x3f07ed27	0.5309624
205	0xbb781a59	-0.0037857501
206	0xbc41486b	-0.011797051
207	0xc05c7c79	-3.4450972
208	0xc0596db3	-3.3973205
209	0x4060745b	3.5071018
210	0xbe85fabb	-0.26167855
211	0x3fb62797	1.4230832
212	0xbdcaefe6	-0.09909038
213	0xba172b16	-0.0005766613
214	0xbc1bfcaa	-0.009520689
215	0xbf009c2a	-0.5023829
216	0xbf8fa0fd	-1.1221005
217	0xbe092fc6	-0.1339713
218	0x3d08fe34	0.033445552
219	0x3df94f08	0.12173277
220	0xbe1ad02f	-0.15118478
221	0xbe38175d	-0.17977662
222	0xbdd56430	-0.104195
223	0x3fbc278b	1.4699568
224	0xc04e3f70	-3.222622
225	0xbe19e0f7	-0.15027224
226	0xbcb852a8	-0.022500351
227	0xbe554df4	-0.20830518
228	0x3e1fab51	0.15592696
229	0xbd117477	-0.03551146
230	0x3c90aaaf	0.017659513
231	0xbf3b8d46	-0.7326244
232	0xc0113b06	-2.2692275
233	0xbec5bbbc	-0.38619792
234	0xbe87e4fa	-0.26541883
235	0x3e80b5a6	0.25138587
236	0xbdea911e	-0.1145346
237	0xbd0d54be	-0.034504645
238	0x3d905123	0.070467256
239	0xbfaf482b	-1.3693899
240	0x3e3fc99e	0.18729255
241	0xbe0d0e45	-0.13774975
242	0x3c0dd078	0.00865566
243	0xbd83389d	-0.064072825
244	0xbc7367de	-0.014856307
245	0xbdcfeb6a	-0.101523235
246	0xbdd4e2d6	-0.10394828
247	0xbf15af3c	-0.5847051
248	0xbf1aeb76	-0.60515535
249	0x3f605691	0.8763209
250	0xbe515f77	-0.20446573
251	0x3e36360b	0.17794053
252	0xbdc1dc3f	-0.09465837
253	0xbcce9b12	-0.025220428
254	0x3c87a2d4	0.016557135
255	0x3ea438c3	0.32074556

fc1.bias f4 [256]
0	0xbcdd1840	-0.026989102
1	0x3fbe04e8	1.4845247
2	0x4049bf91	3.1523173
3	0x407d986e	3.9624286
4	0xc1b3ae53	-22.46012
5	0x3e576a96	0.21036753
6	0xc1de3edc	-27.780693
7	0x4161523d	14.082578
8	0x411b0f5b	9.691249
9	0x401178b3	2.272992
10	0x40540689	3.3128989
11	0xbda0c63e	-0.07850312
12	0xbd96029c	-0.073247164
13	0xbe2953c7	-0.16535865
14	0xbe9353d6	-0.287749
15	0x3e81e261	0.25368026
16	0xc0179124	-2.3682337
17	0xc0762654	-3.8460894
18	0xbe936c10	-0.28793383
19	0xc03a3547	-2.9095018
20	0xbe4034b6	-0.18770108
21	0xc183cec5	-16.475962
22	0x3fdb47b5	1.7131258
23	0xc01106da	-2.2660432
24	0x41340117	11.250266
25	0x41d49fda	26.578053
26	0xc13a6daf	-11.651778
27	0x3f92e596	1.1476314
28	0x40c4d29d	6.1507096
29	0x402162cb	2.5216548
30	0xbe529c5c	-0.20567459
31	0x400cba4a	2.1988702
32	0xc0cfde32	-6.4958735
33	0xbce2e8c0	-0.027698874
34	0xc05762ff	-3.3654172
35	0x3dcfcb48	0.10146195
36	0xc04d065d	-3.2035134
37	0xc1621614	-14.13039
38	0x41255b11	10.334733
39	0x40429007	3.0400407
40	0xc1012866	-8.072363
41	0x409cf236	4.904567
42	0xc1adf2bf	-21.743528
43	0xc08f6685	-4.4812646
44	0x4023deab	2.5604656
45	0x401fe647	2.49843
46	0xbea9284a	-0.3303855
47	0xc16a4e7f	-14.644164
48	0x41b8dba7	23.107252
49	0x4001c40b	2.0275905
50	0x4099caf7	4.806026
51	0x3e1fc92e	0.15604088
52	0xc0373f49	-2.8632376
53	0xc0f6ba14	-7.7102146
54	0x415bf84a	13.748117
55	0xbe4cdc41	-0.20005895
56	0x3f5a302e	0.85229766
57	0x409b0a48	4.845005
58	0x403184ae	2.7737231
59	0xc08712bf	-4.2210383
60	0x3fe860a6	1.8154495
61	0xbe237820	-0.15963793
62	0xbd4ba94a	-0.049721994
63	0x3c6eba7c	0.0145708285
64	0x408fff92	4.4999475
65	0x418b54ba	17.41637
66	0xbf574392	-0.8408748
67	0xc09d6ee5	-4.919787
68	0xc10c1449	-8.754952
69	0xc0c04195	-6.0080056
70	0x3e093114	0.13397628
71	0xc0038fab	-2.0556438
72	0x3e559bce	0.20860216
73	0x401623c6	2.3459334
74	0x40cae5a7	6.3405337
75	0x401e3fc8	2.472643
76	0x40205306	2.5050673
77	0x400766d5	2.1156514
78	0x3dbbc908	0.09169203
79	0xbfb78774	-1.4338212
80	0x3d1a3268	0.037645727
81	0x400c5dd6	2.1932273
82	0xc03eec7e	-2.9831843
83	0xc0205802	-2.5053716
84	0xbfa66a62	-1.3001215
85	0xc004739f	-2.069557
86	0x3e6560bf	0.22400187
87	0x4138662a	11.524942
88	0x40dc3673	6.8816466
89	0xc0545dc5	-3.3182232
90	0xc0e820c3	-7.253999
91	0x4091f720	4.5614166
92	0x40751e44	3.8299723
93	0x3f7cd83f	0.98767465
94	0xc0aadc1d	-5.3393693
95	0xc14dcf30	-12.863083
96	0xc0baf85f	-5.8428187
97	0x3fcb06f1	1.5861493
98	0xc1017714	-8.091572
99	0xc197c73c	-18.972282
100	0x3e1b3cca	0.15159908
101	0xc10d75e3	-8.841281
102	0x40199aa9	2.4000647
103	0xbda2964c	-0.07938823
104	0xbe347689	-0.17623343
105	0x3feb4b81	1.8382417
106	0xc03c46da	-2.9418244
107	0x3f9b786a	1.2146122
108	0xc16e1170	-14.879257
109	0xc0b4e1c7	-5.6525607
110	0x408c7d81	4.3903203
111	0x3ea6b937	0.32563183
112	0xbe92cc35	-0.28671423
113	0x400c8b2f	2.195995
114	0xc1b3c3ae	-22.470547
115	0x3f5d43e5	0.86431724
116	0x402d69ba	2.709578
117	0x403c7bd2	2.9450574
118	0x404f903b	3.2431781
119	0x3e825313	0.25454006
120	0xc0129dab	-2.2908733
121	0xc05645d2	-3.3480115
122	0xbf262ac4	-0.64909005
123	0xc1385549	-11.520822
124	0x3eab4fc1	0.33459285
125	0x3f345f63	0.7045805
126	0xc1461e3b	-12.3823805
127	0xc034fd45	-2.8279583
128	0x40f1c704	7.555544
129	0xbe8268fc	-0.25470722
130	0x3f0368b0	0.51331615
131	0x40e29268	7.080372
132	0xbfbe28eb	-1.4856237
133	0xbfafc1df	-1.373104
134	0xc19e6f2d	-19.804285
135	0xc1e58f6e	-28.695034
136	0xbe2b220f	-0.16712211
137	0x406f67aa	3.7407022
138	0x404bfaed	3.1871903
139	0x4085807c	4.171934
140	0x4088793d	4.2647996
141	0x402e65b2	2.724957
142	0xbe9cb7f3	-0.30609092
143	0xc0d8d4ad	-6.7759614
144	0xbe8f0516	-0.27933568
145	0x404dcd17	3.2156427
146	0x404352fc	3.05194
147	0x408ee089	4.464909
148	0x3d152650	0.03641349
149	0x41aded26	21.740795
150	0xbeacbc33	-0.33737335
151	0x3fccd24b	1.6001676
152	0xbe933e93	-0.28758678
153	0x3f6199cc	0.881253
154	0x3d189a78	0.037256688
155	0xc107e00a	-8.492197
156	0x4059d306	3.4035048
157	0xc11ba3f1	-9.727525
158	0xbe771516	-0.24129137
159	0x3e2e7d7e	0.17040059
160	0x401e228e	2.470859
161	0xc1dbd31d	-27.478083
162	0x3e625ba1	0.22105266
163	0xc0f65daa	-7.6989336
164	0xbd6091c8	-0.054826528
165	0x4086eb6a	4.216237
166	0x3e654b22	0.22391942
167	0x40893e52	4.2888575
168	0x412edd5e	10.929045
169	0x40383a3e	2.8785548
170	0xc111e7d1	-9.119096
171	0x404bebc0	3.186264
172	0xc003885a	-2.0551972
173	0xc090b379	-4.5219083
174	0x3ec55bfb	0.38546738
175	0xc03d6461	-2.9592516
176	0x3d28a66e	0.041174345
177	0x40436169	3.0528204
178	0xc1502741	-13.009583
179	0xc13b439c	-11.704006
180	0xbe961a61	-0.29317
181	0x3d526900	0.051369667
182	0xbe6b693a	-0.2298936
183	0xc058847b	-3.383086
184	0x3faca590	1.3488026
185	0x41a9c8f1	21.223116
186	0x3eaf5731	0.3424621
187	0xbfb28650	-1.3947239
188	0x3eff6ed6	0.4988925
189	0xbf501e3f	-0.8129615
190	0x3e6bff7e	0.23046681
191	0x3d35e898	0.04441127
192	0xc0b77cd6	-5.733989
193	0x3fb669d8	1.4251051
194	0x3d84b638	0.06480068
195	0x408628d9	4.1924863
196	0xc11f327e	-9.949827
197	0x4134b130	11.293259
198	0x3d2dab60	0.042399764
199	0x3db5302c	0.08847079
200	0x3e9138e3	0.28363714
201	0xc0472599	-3.1116698
202	0xbe9f68cb	-0.31134638
203	0x3bf98580	0.0076147914
204	0xbea12307	-0.31472036
205	0x3eaf91c1	0.3429089
206	0x4083042a	4.0942583
207	0x3d8a2bb0	0.06746614
208	0x4091f076	4.560603
209	0x400d8229	2.2110693
210	0x3fe59c12	1.7938254
211	0xbe3f2b4d	-0.18668862
212	0x403cf39d	2.952369
213	0xc1720129	-15.125283
214	0x405acd24	3.4187708
215	0x401a3fbd	2.4101403
216	0x3eb472a7	0.35243723
217	0xc169b6f5	-14.607167
218	0x4018e4d5	2.3889668
219	0xc0aa459b	-5.3209968
220	0xb910b000	-0.00013798475
221	0x406379c3	3.5543067
222	0xc10112d2	-8.067095
223	0xbf373570	-0.71565914
224	0xbfbf2384	-1.4932714
225	0x3dd88634	0.10572472
226	0xbd7b70e8	-0.061386973
227	0xc09102e1	-4.5316014
228	0xc06b15b9	-3.6732008
229	0x3e6774be	0.22603127
230	0xc00f972a	-2.2436013
231	0xbfe743d8	-1.8067579
232	0xc12f137c	-10.942257
233	0x3fd5232a	1.6651356
234	0xc1f05533	-30.041601
235	0xbff724fe	-1.9308164
236	0xbfd13959	-1.6345626
237	0x400d69d2	2.2095838
238	0x41cfe9ba	25.989124
239	0xc09106b1	-4.532067
240	0x3e9b278b	0.30303606
241	0xbf07633e	-0.52885807
242	0x412e24f2	10.88402
243	0xc0837a7b	-4.108701
244	0xc032fd1f	-2.7966993
245	0xbef26ed7	-0.4735019
246	0xc0053934	-2.0816164
247	0xbff87561	-1.9410821
248	0xbd79cef8	-0.060988396
249	0xbc336fc0	-0.010951936
250	0x3d39ba00	0.0453434
251	0xbe34a342	-0.17640403
252	0xbd4cace8	-0.049969584
253	0x4012d141	2.2940218
254	0xbeaf0b96	-0.34188527
255	0xbd5a6948	-0.05332306

fc2.weight f4 [256, 256]
0	0xbcbb6c0a	-0.022878665
1	0x3e288be4	0.16459614
2	0xbd9ca8d6	-0.076493904
3	0x3f68fcb2	0.9101058
4	0xbd1d7b7e	-0.03844785
5	0x3cfdc32a	0.03097685
6	0xbd9dc25d	-0.077030875
7	0x3e7ecd53	0.24883012
8	0x3da9ce26	0.08291273
9	0xbd92deea	-0.07171424
10	0xbe60bb3b	-0.21946423
11	0xbf87ae28	-1.0600023
12	0xbe870da7	-0.26377603
13	0x3dc57880	0.09642124
14	0xbf053de4	-0.5204756
15	0x3d0a4801	0.033760075
16	0x3dcd2ed2	0.10018696
17	0xbdd6cf44	-0.104887515
18	0xbdb68dca	-0.08913763
19	0x3f224df7	0.63400215
20	0xbb5641ef	-0.0032693108
21	0xbcf22975	-0.029560784
22	0xbe23ffe0	-0.16015577
23	0x3e2304d6	0.15919814
24	0xbc9538bd	-0.018215531
25	0xbe965f1d	-0.2936944
26	0x3f79c0c4	0.9755976
27	0x3ca0ccf1	0.019628974
28	0xbe4c3eb4	-0.19945794
29	0x3f298784	0.66222405
30	0x3d852cb4	0.06502667
31	0xbdf68173	-0.12036409
32	0xbd43516a	-0.047685064
33	0x3d9d868c	0.076916784
34	0x3e3df39c	0.18549961
35	0xbdcd6c69	-0.10030443
36	0x3db00525	0.08594731
37	0x3f4393c5	0.76397353
38	0x3d221f55	0.03958066
39	0x3ddee6b0	0.10883844
40	0xbea75287	-0.3268015
41	0x3d117655	0.03551324
42	0x3d89f743	0.067366146
43	0xbe4eaf35	-0.20184024
44	0xbcecef48	-0.028922692
45	0xbda63320	-0.0811522
46	0x3c7486ea	0.014924744
47	0x3da72b1b	0.081625186
48	0xbcffb784	-0.031215437
49	0xbe3944fb	-0.1809272
50	0xbe3ce5c2	-0.1844702
51	0xbe7a605d	-0.24450822
52	0x3c910059	0.017700361
53	0x3dd3a857	0.10334843
54	0x3d498f76	0.04920908
55	0x3db05e11	0.08611692
56	0xbd45415b	-0.04815803
57	0x3ba3530b	0.0049842647
58	0xbe7d4e2c	-0.24736851
59	0x3e5d774a	0.21627536
60	0xbd7a9ea0	-0.061186433
61	0xbd81ac65	-0.0633171
62	0xbf962e69	-1.1732913
63	0xbd2deec0	-0.042464018
64	0xbbfaab65	-0.0076498264
65	0xbdfca020	-0.12335229
66	0xbe366328	-0.17811263
67	0x3dccc1e4	0.09997919
68	0x3e8f50bc	0.27991283
69	0xbe2f2328	-0.17103255
70	0xbc03c7e9	-0.008043268
71	0x3d12f256	0.03587564
72	0xbd3caad5	-0.046061356
73	0xbf6c224e	-0.92239845
74	0x3fc4ed89	1.538499
75	0xbec09959	-0.37616995
76	0x3b6f28fe	0.003649294
77	0x3dbc0d90	0.09182274
78	0x3d195b3f	0.037440535
79	0x3ea93c1f	0.3305368
80	0x3da9b708	0.082868636
81	0x3c92a28c	0.017899774
82	0x3e6926de	0.22768733
83	0xbf3c1fea	-0.73486197
84	0xbd42b543	-0.047536146
85	0xbf2475cd	-0.6424225
86	0x3dcee079	0.101014085
87	0xbebe6296	-0.3718459
88	0x3d8d9b27	0.069143586
89	0x3e59fda6	0.21288165
90	0xbca6bfb6	-0.020355087
91	0x3d552207	0.052034404
92	0x3c610dbb	0.013736184
93	0x3e40e3ef	0.1883695
94	0x3c2bfbf2	0.01049708
95	0xbd0370f7	-0.032090154
96	0xbe1cf4f0	-0.15327811
97	0xbf6b77c8	-0.91979647
98	0x3ca14b78	0.019689307
99	0x3d83fd37	0.06444781
100	0xbd920987	-0.071307234
101	0x3d83b85d	0.06431649
102	0x3f5b1cd0	0.8559084
103	0x3c50b93a	0.012739474
104	0xbc33da75	-0.010977377
105	0x3ad9d966	0.0016620576
106	0x3edef8d0	0.43549204
107	0xbe2890e7	-0.16461526
108	0x3d3f74ce	0.046742253
109	0x3e603070	0.21893477
110	0x3ef900dc	0.48633468
111	0x3db56725	0.08857564
112	0xbdd55dcb	-0.1041828
113	0x3d1f421c	0.038881406
114	0xbc80e96d	-0.015736306
115	0x3ea81f1b	0.32836232
116	0xbda0b1b2	-0.07846393
117	0xbe502af3	-0.20328884
118	0x3c9e50f8	0.019325718
119	0xbc1868d3	-0.009302336
120	0x3ccd06ae	0.0250276
121	0x3db4e4a0	0.08832669
122	0xbf379ba6	-0.71721876
123	0x3c16c274	0.009201635
124	0x3d6f8003	0.05847169
125	0x3af3e088	0.0018606344
126	0x3dc79e14	0.09746948
127	0x3d4dc213	0.05023391
128	0xbd1e3573	-0.038625192
129	0xbbc88a26	-0.006119984
130	0xbe0fe7b7	-0.14053236
131	0x3e6355e4	0.22200733
132	0xbda2a97c	-0.07942483
133	0xbe050398	-0.12989652
134	0xbe518357	-0.20460258
135	0xbec4d293	-0.38441905
136	0x3cd89ae0	0.026441038
137	0xbb047ada	-0.0020214827
138	0x3e1c453d	0.15260787
139	0x3f857e05	1.0429083
140	0x3dc00aa2	0.09377028
141	0xbd714464	-0.058903113
142	0x3d23ee17	0.040021982
143	0xbdf6b183	-0.120455764
144	0x3d1e9707	0.03871825
145	0xbeec3680	-0.4613533
146	0x3c777c31	0.015105293
147	0x3df52e27	0.119716935
148	0x3da653ba	0.08121438
149	0xbe551729	-0.20809616
150	0xbdd6e542	-0.10492946
151	0xbca7dbc9	-0.020490544
152	0xbbd46c47	-0.006482634
153	0x3d3e0b37	0.046397414
154	0x3c815003	0.015785223
155	0x3d45122a	0.048113026
156	0xbdfe96e0	-0.12431121
157	0xbdef6e53	-0.116909645
158	0xbdd26507	-0.10273176
159	0xbd945cc6	-0.07244258
160	0x3ed8cf91	0.4234586
161	0xbbd68685	-0.0065467977
162	0x3d99466e	0.074841365
163	0xbdb4d996	-0.08830564
164	0x3d2821db	0.041047912
165	0x3d9b06aa	0.075696304
166	0xbf3aed4b	-0.7301833
167	0x3ddbf340	0.10739756
168	0x3c131bc0	0.008978784
169	0xbe4787bc	-0.19485372
170	0xbd9065ca	-0.07050665
171	0xbf95411b	-1.1660494
172	0x3e76f16b	0.24115531
173	0xbeadb8fa	-0.33930188
174	0xbd9ecf9e	-0.077544436
175	0xbe589b05	-0.21152885
176	0xbd2e6d5b	-0.04258476
177	0xbd7c1c4f	-0.061550435
178	0x3e12ce4e	0.14336511
179	0xbd8e29d1	-0.069415696
180	0xbd74162d	-0.05959146
181	0x3da77d30	0.081781745
182	0xbc96f106	-0.018425476
183	0xbea01e53	-0.31273136
184	0x3b113a57	0.0022160017
185	0x3e516157	0.20447288
186	0xbd539a3f	-0.051660772
187	0x3d9ca451	0.07648528
188	0x3e549361	0.20759346
189	0xbf6c0a9b	-0.9220368
190	0xbd179df2	-0.037015863
191	0x3d970baf	0.07375275
192	0xbebd0ed4	-0.36925375
193	0xbe862c2a	-0.2620557
194	0xbd4d764f	-0.050161656
195	0x3f4b9795	0.7952817
196	0x3e65e32c	0.2244994
197	0xbda60c6b	-0.08107837
198	0xbdd9fc99	-0.10643882
199	0x3db3a41d	0.087715365
200	0x3dce0a63	0.10060575
201	0xbea8273e	-0.3284244
202	0x3dab699f	0.08369755
203	0x3ce1334f	0.027490286
204	0x3bdc0806	0.0067148237
205	0xbdb92e57	-0.09042042
206	0x3fbfde91	1.4989797
207	0xbcdc8445	-0.02691854
208	0xbdb8c606	-0.09022145
209	0xbf09d2e1	-0.538374
210	0x3d3afde7	0.045652296
211	0xbce4960d	-0.027903581
212	0xbe9dc80e	-0.30816692
213	0x3ea82e44	0.32847798
214	0x3f9fd0a6	1.248555
215	0xbedc4a10	-0.43025255
216	0xbbf3d71c	-0.0074414145
217	0x3e020b34	0.12699586
218	0x3edb4ea3	0.42833433
219	0x3d98884f	0.07447874
220	0xbdb13e68	-0.08654481
221	0xbe2daa61	-0.16959526
222	0x3f4cf9c5	0.8006862
223	0xbcf7d7f0	-0.030254334
224	0x3e081142	0.13287833
225	0xbb730a4c	-0.0037084995
226	0xbda2d136	-0.0795006
227	0x3e821f6b	0.25414595
228	0xbe85d611	-0.26139882
229	0x3b4fd39f	0.003171183
230	0x3d4a52ac	0.04939525
231	0x3d1a08e8	0.03760615
232	0xbeba976b	-0.36443648
233	0xbe08c005	-0.133545
234	0x3e1e99b4	0.1548832
235	0x3ee0ea3b	0.43928704
236	0xbf3cd824	-0.73767304
237	0xbed7c955	-0.42145792
238	0x3d3288b9	0.04358742
239	0x3e19a090	0.15002656
240	0xbd87d80f	-0.06633007
241	0xbf4095c6	-0.75228536
242	0xbca65bf1	-0.020307513
243	0x3cbca31e	0.023027
244	0x3e9baf8e	0.30407375
245	0xbdc9956f	-0.09842955
246	0x3d708275	0.058718164
247	0xbe63420a	-0.2219316
248	0xbdd89c29	-0.1057666
249	0x3d433a80	0.04766321
250	0xbdbe314e	-0.09286748
251	0xbd8e91bb	-0.0696139
252	0xbc6b9d04	-0.014380697
253	0x3e09f592	0.13472584
254	0x3c7ac810	0.015306488
255	0x3d3db8c3	0.04631878

fc2.bias f4 [256]
0	0x40492637	3.1429574
1	0xbff40ed4	-1.9067025
2	0x40436f14	3.0536547
3	0x3efeb9ab	0.49751028
4	0xbd8eb422	-0.06967951
5	0x3f21ed4e	0.63252723
6	0x406cc480	3.6994934
7	0x40426314	3.0372972
8	0x4045cba8	3.0905552
9	0x401bc00f	2.4335973
10	0xc00f9e00	-2.2440186
11	0xc00b1987	-2.173433
12	0xc0067af7	-2.1012552
13	0x40461850	3.095234
14	0xc0266178	-2.599699
15	0x40562304	3.3458872
16	0x4055e53f	3.342117
17	0xc016917a	-2.3526292
18	0xbd8434dc	-0.064553946
19	0x404aacf5	3.1668065
20	0xc009db19	-2.1539977
21	0x403be1fd	2.9356682
22	0x404944b5	3.1448185
23	0x403c9954	2.9468584
24	0xbf7605cb	-0.9610259
25	0xbff0b007	-1.8803719
26	0x404b65ec	3.1780958
27	0xc00c4b7f	-2.192108
28	0x408ecc62	4.462449
29	0xbfcafcf3	-1.5858444
30	0x40db3ce7	6.8511844
31	0x4034516e	2.81747
32	0xbcbea93e	-0.02327406
33	0xbfa145cc	-1.2599425
34	0xbdb5e81d	-0.08882163
35	0xc00ed7d5	-2.2319233
36	0xc003c6fc	-2.05902
37	0xbddc841c	-0.10767385
38	0xbe95b04a	-0.2923606
39	0xbd86df37	-0.065855436
40	0xbf8e154c	-1.1100249
41	0x4044f55e	3.077476
42	0xbfeca583	-1.848801
43	0x4010d3f6	2.262937
44	0x400821f1	2.1270716
45	0xc004e2c6	-2.0763412
46	0xc009d543	-2.1536415
47	0x404f601e	3.2402415
48	0xbcd95898	-0.026531503
49	0xc076a1fc	-3.8536367
50	0xbfd6a43d	-1.6768872
51	0x400b9daf	2.1814992
52	0xbdb3890f	-0.08766376
53	0xc012664d	-2.287494
54	0x40bed224	5.963152
55	0xbfef28f1	-1.8684369
56	0xbfe90b40	-1.8206558
57	0x3fd331f6	1.6499622
58	0x3fb1c0be	1.3886945
59	0xc047d333	-3.1222656
60	0xbff2089b	-1.8908876
61	0xc00864ce	-2.1311526
62	0x405ca9a9	3.4478552
63	0x40429e69	3.0409186
64	0x3f29876e	0.66222274
65	0x3f97743c	1.1832347
66	0xc00875da	-2.132193
67	0xbd9bbacd	-0.07603989
68	0x3f2b7d43	0.6698801
69	0x405764c6	3.3655257
70	0x3f48c6c1	0.78428274
71	0x404bf900	3.1870728
72	0xc0098e31	-2.1493037
73	0x3f616122	0.8803884
74	0xc0188daf	-2.3836477
75	0x3f873744	1.0563741
76	0xbff46ac1	-1.9095079
77	0xbfd4a999	-1.6614257
78	0xc01deeda	-2.4677033
79	0xbfc6c467	-1.5528687
80	0xbf37d641	-0.718113
81	0xbede830a	-0.4345935
82	0xbe1a3900	-0.15060806
83	0xc09742c5	-4.7269006
84	0xbdaf841c	-0.0857012
85	0xc006bf38	-2.105421
86	0x4069b304	3.6515512
87	0x40078f8a	2.118136
88	0xbfdcb3c6	-1.7242362
89	0xbd441126	-0.047867917
90	0xbf9b3dfb	-1.212829
91	0x3fd1ee5b	1.6400865
92	0x3f91ff57	1.1406049
93	0x3edfe3c7	0.43728468
94	0x403bc851	2.9341013
95	0xbd1705a9	-0.036870632
96	0x40031ba2	2.0485616
97	0x3ef0cd47	0.47031614
98	0x4070751c	3.7571478
99	0x402368a1	2.553261
100	0x40607fec	3.5078077
101	0x3fd51e0b	1.6649793
102	0xc0668ed3	-3.6024673
103	0x3fdc2a33	1.7200378
104	0xbf78d66a	-0.9720217
105	0xbf22e5b0	-0.63631725
106	0xc0017024	-2.0224695
107	0x4085b5df	4.178451
108	0x40523e96	3.28507
109	0xbcb1581a	-0.021648455
110	0xbcf3ddfe	-0.02976894
111	0x404086c8	3.0082264
112	0xc0346c59	-2.819113
113	0x40546940	3.318924
114	0xc010ed47	-2.2644823
115	0x40516576	3.2718177
116	0xbdc32080	-0.09527683
117	0xbc041eab	-0.008063952
118	0x3f35bd64	0.7099211
119	0xbcf7a5a5	-0.030230353
120	0x4048aa07	3.1353776
121	0xc04f1902	-3.2359014
122	0xc030fdbd	-2.765487
123	0xbd448be4	-0.047984973
124	0xbf39497a	-0.7237774
125	0xc000ab8e	-2.0104709
126	0x400b6ecc	2.1786375
127	0x405c0794	3.4379625
128	0x3c8c7fc1	0.017150762
129	0x4036adfe	2.8543696
130	0xc0055b1e	-2.0836864
131	0xc0759e20	-3.8377762
132	0xbf54dcd1	-0.8314944
133	0x404b9405	3.1809094
134	0x3f98c520	1.1935158
135	0x3f271a25	0.6527427
136	0xc00664f6	-2.0999122
137	0xbfa952f6	-1.3228443
138	0x3eea7998	0.45795894
139	0x40574be0	3.364006
140	0x40599c4c	3.4001646
141	0x40477438	3.1164684
142	0xbfc3a260	-1.5283928
143	0xbeba4097	-0.36377403
144	0xbd2d107a	-0.04225204
145	0xc06db9e8	-3.7144718
146	0xbd774c80	-0.06037569
147	0x40853a53	4.1633697
148	0x40965b36	4.698634
149	0xc04f51e0	-3.2393723
150	0xbdd1baad	-0.10240684
151	0xc009a081	-2.1504214
152	0x3e9389e9	0.28816155
153	0xc07bac72	-3.9324002
154	0x3cd218ee	0.025646653
155	0x401b556c	2.4270887
156	0xbe439588	-0.1910001
157	0xc029cc24	-2.6530848
158	0xbf9cfd10	-1.2264729
159	0xc0371779	-2.8608077
160	0x3d567c66	0.05236473
161	0x40803814	4.0068455
162	0x3f9d7698	1.2301817
163	0xbdbd6286	-0.092473075
164	0xbe019cd3	-0.1265748
165	0xc003c756	-2.0590415
166	0x3ecd7abb	0.40132698
167	0xbe0d9977	-0.13828073
168	0xc02ce60d	-2.7015412
169	0xbe3b45a6	-0.18288288
170	0xbbe5176a	-0.0069913166
171	0x40480ec0	3.1259003
172	0xc0655063	-3.5830314
173	0x40383df2	2.8787808
174	0xc08a6f71	-4.3261037
175	0x4004ab3e	2.0729518
176	0x407a5d7b	3.9119556
177	0x3bb12c55	0.005406896
178	0xbfc20051	-1.5156347
179	0x404d6793	3.2094467
180	0xbdd44cb6	-0.10366194
181	0xbffd0673	-1.9767593
182	0x3e1d5304	0.15363699
183	0x3f24a843	0.64319247
184	0x3eb742a5	0.35793033
185	0x40b9d158	5.8068047
186	0x3fe79b78	1.809432
187	0xbdaa820a	-0.08325584
188	0x402732da	2.6124787
189	0x403b575b	2.9272068
190	0x404b30ab	3.1748455
191	0xc08299bd	-4.081267
192	0x4046899e	3.1021495
193	0x40513b4a	3.2692437
194	0xc0037b40	-2.0543976
195	0x3fd4e85f	1.6633414
196	0xc0084dd2	-2.1297498
197	0xbfdbba2f	-1.7166194
198	0xc0082b8a	-2.1276574
199	0xbe1759e9	-0.14780392
200	0xc0095ba5	-2.1462185
201	0x3f40b38c	0.75273967
202	0xbbb75000	-0.0055942535
203	0x4004321d	2.0655587
204	0x3f541925	0.8285087
205	0x4074e56a	3.8265023
206	0x403cf516	2.9524589
207	0xbc057938	-0.008146577
208	0x4051ff29	3.2811987
209	0x40448da1	3.0711443
210	0xbde2ee50	-0.11080611
211	0x3fba783d	1.4567944
212	0x401897e9	2.3842719
213	0xc0082766	-2.1274047
214	0xc04e59c3	-3.2242286
215	0xbce356ff	-0.027751444
216	0xc003995c	-2.0562353
217	0xc008f137	-2.1397226
218	0xc00a7181	-2.1631777
219	0x3f8350e4	1.0259061
220	0x400594c0	2.087204
221	0x402e387d	2.7221978
222	0xbfeb8da9	-1.8402606
223	0xc0201136	-2.5010505
224	0xbdfc50d1	-0.12320102
225	0x40b462ed	5.637076
226	0xbf2e2c64	-0.68036485
227	0xc01bdbcc	-2.4352903
228	0xbf559397	-0.8342833
229	0x40555dfd	3.3338616
230	0xbf604b05	-0.8761447
231	0xbf746436	-0.9546541
232	0x40536d3e	3.3035426
233	0xc004c74e	-2.0746646
234	0x3f8e3bf8	1.1112051
235	0x3f8719b2	1.0554717
236	0x408b2154	4.3478184
237	0x3adc239e	0.0016795283
238	0x3f3efe80	0.74607086
239	0x3f149ab2	0.58048546
240	0x404a2085	3.1582348
241	0x3f51feb3	0.82029265
242	0xbfcd5f84	-1.6044774
243	0xbda4c5b2	-0.0804552
244	0xbf2d86c1	-0.67783743
245	0xc005b272	-2.0890164
246	0x3f5d47f7	0.86437935
247	0x4109844e	8.594801
248	0x3fac4841	1.345955
249	0xbd2236a8	-0.039602906
250	0x4017f63f	2.3744047
251	0xc0774536	-3.8635993
252	0x3cb24873	0.021763062
253	0xbda90693	-0.08253207
254	0xbfebab8d	-1.8411728
255	0x3ea2c101	0.31787875

fc3.weight f4 [1, 256]
0	0xc026d19d	-2.6065438
1	0x3e9985b3	0.29984817
2	0xbe418ad5	-0.18900616
3	0xc03679e3	-2.8511894
4	0xbc5cac74	-0.01346885
5	0x3f5a9f62	0.8539945
6	0xc00cb610	-2.1986122
7	0xbf8d6644	-1.1046834
8	0xbfec00ec	-1.8437781
9	0x400c0cfb	2.1882923
10	0xbfaab075	-1.33351
11	0x3d043647	0.032278325
12	0x3e947d6e	0.29001945
13	0xbfefbb88	-1.8729105
14	0xbf23a5be	-0.6392478
15	0xbfc9fcf3	-1.5780319
16	0xc01d01b4	-2.453229
17	0x3e9c0222	0.30470377
18	0xbc560d0e	-0.013064636
19	0xbfdafccb	-1.7108396
20	0x3f472bdf	0.77801317
21	0x3f205d84	0.62642694
22	0xc00e2772	-2.2211576
23	0x3fd78e38	1.6840277
24	0xbef79f4f	-0.4836373
25	0x3e433134	0.19061738
26	0xbf9f25f2	-1.2433455
27	0xbf908e6b	-1.1293463
28	0xbfa85eac	-1.3153892
29	0x3fb75509	1.4322826
30	0xbff737b5	-1.9313875
31	0x3f96a4d6	1.1769054
32	0xbba31806	-0.004977229
33	0x3f9bf212	1.2183249
34	0xbb4bb018	-0.0031080302
35	0x3dc535b0	0.09629381
36	0x3f6c4e2a	0.9230677
37	0x3dda17a4	0.1064904
38	0xc0077ee1	-2.117119
39	0xbd1fd9e6	-0.039026164
40	0x3ee9d8b3	0.4567314
41	0xbfebeaa0	-1.8430977
42	0x3ee94384	0.45559323
43	0xbfa8c139	-1.3183967
44	0x405969aa	3.3970742
45	0x3dd88857	0.1057288
46	0x3f00a1dc	0.5024698
47	0xc0004b47	-2.0045946
48	0x3c39131d	0.011296061
49	0xbf502033	-0.8129913
50	0x3e4aaa1d	0.19791456
51	0x3fd785c4	1.6837697
52	0xb9fa98ef	-0.0004779766
53	0x3f01f7fa	0.5076901
54	0xbfa5eff7	-1.2963856
55	0x3e7ce21c	0.24695629
56	0xbf61c87c	-0.8819654
57	0x3fd4523c	1.6587596
58	0x3f693db8	0.911098
59	0xbf0dfeca	-0.554669
60	0x3dc9abb3	0.09847202
61	0x3d8e1de2	0.069392934
62	0xc0133247	-2.2999437
63	0xbfa0b037	-1.2553777
64	0x400c6ab8	2.1940136
65	0x3fdfa421	1.7471963
66	0x3e19fc4b	0.15037648
67	0x3d30e67a	0.04318855
68	0xbf551e3b	-0.83249253
69	0xbfa95629	-1.3229419
70	0xbf4ffd2d	-0.8124569
71	0xbfb95945	-1.4480368
72	0x3e54958d	0.20760174
73	0x3f91bd7e	1.1385953
74	0x3f2a2982	0.66469586
75	0xbf2db1db	-0.6784951
76	0xc00b131c	-2.1730413
77	0x4007f66d	2.1244156
78	0x3e40153e	0.18758103
79	0x3e85e484	0.26150906
80	0x3f4b7597	0.794763
81	0x406792ab	3.618327
82	0xbd1b379a	-0.037894823
83	0xbfad45c4	-1.3536916
84	0xbdcc6363	-0.09979894
85	0x3dd7b202	0.10531999
86	0xc0102927	-2.2525117
87	0x3f8ef30b	1.1167921
88	0x3d8b61e5	0.06805781
89	0x3b7ca4de	0.0038550417
90	0x3ee8c7e9	0.4546502
91	0x407e8d60	3.9773788
92	0xc02c6e53	-2.6942337
93	0xbfd30d60	-1.6488457
94	0xbfbd2e89	-1.4779826
95	0x3f01f0e9	0.50758225
96	0xbf4665f5	-0.77499324
97	0x3f1fc518	0.62410116
98	0x3f8aa892	1.0832694
99	0xbf61ac3c	-0.88153434
100	0xbec0e506	-0.3767473
101	0xbff6f87f	-1.9294585
102	0x3f1d3979	0.6141582
103	0xbea004c1	-0.31253627
104	0x3f35bc11	0.7099009
105	0xbf48447f	-0.78229517
106	0x3dc4b559	0.09604902
107	0xbf9ef1a1	-1.2417489
108	0xbeae6bdd	-0.34066668
109	0xbcd6950f	-0.026194124
110	0xbcfa0f35	-0.03052483
111	0xbfb09f3a	-1.3798592
112	0xbecfc361	-0.4057875
113	0xbfc4b400	-1.5367432
114	0x3e653d5d	0.2238669
115	0xbf9c63e1	-1.2217981
116	0xbb9a8e99	-0.004716706
117	0xbc17af67	-0.009258128
118	0x3f2eacab	0.6823222
119	0xbc69d928	-0.0142729655
120	0xbff099ed	-1.8796974
121	0x3f843ba3	1.03307
122	0xc0020947	-2.0318162
123	0x3d909787	0.070601515
124	0xc005bc10	-2.0896034
125	0x3e20b4d3	0.15693979
126	0xbf02ed4d	-0.5114334
127	0xbffda932	-1.9817259
128	0x3b9319d4	0.004489163
129	0xbf4208ba	-0.75794566
130	0x3e664fa0	0.22491312
131	0x3e9ad274	0.30238688
132	0x3f49056a	0.78523886
133	0xbf6e2767	-0.93028873
134	0xc07c56c0	-3.9427948
135	0xbf3e0ef8	-0.7424159
136	0x3d64bdf2	0.05584521
137	0x401642d1	2.3478281
138	0xbfefdcfb	-1.8739313
139	0xbfed1fd9	-1.8525344
140	0xbfe9599f	-1.8230475
141	0x400dbeab	2.2147624
142	0x3f87f2a4	1.0620923
143	0x3f74ae49	0.9557844
144	0x3c06dd66	0.008231496
145	0x3e84940d	0.25894204
146	0xbd60172a	-0.05470959
147	0xbf82fa00	-1.0232544
148	0xbf4ab99d	-0.79189473
149	0x3e83bedc	0.25731552
150	0xbb898dd1	-0.004197814
151	0x3f9c50b3	1.2212127
152	0xc0345ab1	-2.8180354
153	0xc03f42e6	-2.9884582
154	0xbdc831ce	-0.097751245
155	0xbf2bc1f7	-0.6709284
156	0xbf824d28	-1.0179796
157	0xc02a840c	-2.6643095
158	0xbf422a6f	-0.75846
159	0xbf919771	-1.1374341
160	0x3fb27c08	1.3944101
161	0xc02040f7	-2.5039651
162	0x3fa2d596	1.2721431
163	0xbbbd4197	-0.005775641
164	0x3d19d94b	0.037560742
165	0xbe6127c9	-0.21987833
166	0xc0495baa	-3.1462197
167	0xbae2aaac	-0.0017293296
168	0x3fa98292	1.3242972
169	0x3fdd779c	1.7302127
170	0x3d79796c	0.060906813
171	0xbfab8dfb	-1.3402704
172	0x3ed88f84	0.42296994
173	0x3f87c765	1.0607725
174	0x3f331b25	0.69963294
175	0xbf12be9e	-0.5732211
176	0xbfaa4b80	-1.3304291
177	0xbfc17ac7	-1.5115594
178	0x3e891a79	0.2677801
179	0xbe356c2f	-0.1771705
180	0x3c03a42e	0.008034749
181	0x3df5421e	0.119755015
182	0x3f96d001	1.1782228
183	0x3f7205c4	0.9454005
184	0xbf922774	-1.141829
185	0x3f5a7b3b	0.85344285
186	0x3ede8273	0.434589
187	0x3b3610a1	0.0027780908
188	0xbfd73860	-1.6814079
189	0xbfcf5c2f	-1.6200007
190	0xbffac530	-1.9591427
191	0x3ee90f04	0.4551927
192	0xc0079fb6	-2.119123
193	0xbfaf046c	-1.3673224
194	0x3e63845e	0.22218463
195	0x40000e9f	2.0008924
196	0xbf8afda2	-1.0858653
197	0x3e46abc9	0.19401468
198	0x3ed533a8	0.41640973
199	0x3d5ad65c	0.053427085
200	0x3d26edc5	0.0407541
201	0xbfafbbf5	-1.3729235
202	0xbd046dab	-0.03233115
203	0x3ffc45a4	1.9708753
204	0xbf736989	-0.9508291
205	0xc043a670	-3.0570335
206	0xbfbf089c	-1.4924502
207	0x3d96ac86	0.07357125
208	0xc00c32c0	-2.1905975
209	0xc05d1e61	-3.4549792
210	0x3d8287dd	0.0637357
211	0xbedd4e32	-0.4322372
212	0xc003fc6a	-2.0622811
213	0x3e90a3d3	0.28249988
214	0xbea21389	-0.3165553
215	0xbdd927d8	-0.10603303
216	0x3e328b32	0.17435911
217	0x3dfecaab	0.124409996
218	0x4077a687	3.869539
219	0xbfe65391	-1.7994252
220	0x3ef1c024	0.47216904
221	0xbeccb065	-0.39978328
222	0x3f036cdf	0.51338
223	0x3e9cf805	0.30657974
224	0xbbd43916	-0.0064765317
225	0xbfb760c0	-1.4326401
226	0x3ff22664	1.8917966
227	0x40088ced	2.1336014
228	0x3f4407a0	0.76574135
229	0xbfd48ae5	-1.6604887
230	0x3eaab68a	0.3334239
231	0x3f8f72ef	1.120695
232	0xbf87e3ba	-1.0616372
233	0x3e0ecb6b	0.13944785
234	0x3f15fb1c	0.5858629
235	0x3f57d92c	0.84315753
236	0xc02128ed	-2.518123
237	0x3b9df56a	0.0048205154
238	0xbf879c89	-1.0594646
239	0xc0563480	-3.3469543
240	0xbfee76c5	-1.8629996
241	0xc0157aed	-2.3356278
242	0x40198ec4	2.3993387
243	0xbdd3070c	-0.103040785
244	0xc015a120	-2.3379593
245	0x3ddfad89	0.10921771
246	0xbfc46e45	-1.5346152
247	0xbfbebd1b	-1.490146
248	0xbeefb891	-0.468205
249	0xbc812f95	-0.01576976
250	0xbf46453d	-0.774494
251	0x3e9944e6	0.29935378
252	0xbcaf99e3	-0.021435684
253	0x40356371	2.8341944
254	0x3f01c545	0.50691634
255	0x3f1b0f80	0.60570526
