model/sac_ff_sac_ff/agent2_sac_ff_policy_2000000.pth (torch, 276513 bytes, 6 tensors)

fc1.weight f4 [256, 7]
0	0xbe72e939	-0.2372178
1	0xbbba7118	-0.0056897514
2	0xbe4ec4ec	-0.20192307
3	0x3db402a5	0.08789567
4	0xbcda5b89	-0.026654975
5	0xbbed05f5	-0.007233376
6	0x3c9138a2	0.0177272
7	0xbdec61b5	-0.11542074
8	0xbe01cde9	-0.12676205
9	0xbe095b7d	-0.13413806
10	0x3db6ca0d	0.08925257
11	0x3d26ecf0	0.040753305
12	0xbdf53ca5	-0.11974458
13	0x3df4c343	0.11951306
14	0xbd14399e	-0.03618776
15	0x3e0065d6	0.12538847
16	0x3bd38d15	0.0064560273
17	0xbd8c12c6	-0.06839518
18	0xbdb53515	-0.08848015
19	0xbde49034	-0.11160317
20	0xbe1ea10a	-0.15491119
21	0xbe11654c	-0.14198798
22	0xbcecee57	-0.028922243
23	0x3c8ea19a	0.017411042
24	0xbc4da1e1	-0.012550802
25	0x3d2939d7	0.041314926
26	0xbdfee959	-0.12446851
27	0xbe09af38	-0.13445747
28	0x3d3af562	0.04564417
29	0x3dfb6c45	0.1227651
30	0xbdce7337	-0.10080569
31	0xbb60794b	-0.0034251984
32	0xbd38788b	-0.045036834
33	0xbd6ec739	-0.058295462
34	0x3e11381a	0.14181557
35	0xbe129de7	-0.14318047
36	0xbe49eddb	-0.19719641
37	0x3cc22560	0.023699462
38	0xbe4329d5	-0.19058926
39	0xbe7d207b	-0.24719422
40	0xbe22d4c1	-0.15901472
41	0xbe5d813a	-0.21631327
42	0xbd0ac5ad	-0.033879925
43	0x3d701beb	0.058620375
44	0x3b5b4b03	0.0033461459
45	0x3d3f8c27	0.04676452
46	0x3b967300	0.004591346
47	0xbd8e3830	-0.06944311
48	0xbd6cfdaf	-0.05785912
49	0xbdf8c8ed	-0.121476986
50	0xbd317cbf	-0.043331858
51	0xbd02b0ad	-0.031906772
52	0xbe062572	-0.13100222
53	0xbe110e22	-0.14165547
54	0x3a8da196	0.0010805603
55	0xbe156ec2	-0.14593032
56	0xbe3f3d7f	-0.18675803
57	0xbe006570	-0.12538695
58	0x3ce104bd	0.02746808
59	0xbe5ac615	-0.21364625
60	0x3d682b6a	0.056682028
61	0xbe19526f	-0.14972852
62	0xbdd9dcbc	-0.10637805
63	0x3d957a59	0.072987266
64	0xc03335f2	-2.8001676
65	0x3d9efeb7	0.07763427
66	0x3ed279cf	0.41108558
67	0x3f9a3357	1.2046918
68	0x3b09ea13	0.002104406
69	0xbb6a872b	-0.0035786133
70	0xbd69975d	-0.057029117
71	0x3dd7aa3c	0.105305165
72	0xbdc8cab1	-0.09804285
73	0x3c91c7c7	0.017795457
74	0xbd9f3af0	-0.07774913
75	0xbc484321	-0.012223036
76	0x3db15c86	0.086602256
77	0x3bd35534	0.006449366
78	0xbdd9e347	-0.10639053
79	0xbd9981c3	-0.07495453
80	0xbdbce760	-0.09223819
81	0x3d58f4bb	0.05296777
82	0xbc5964c4	-0.013268653
83	0x3cd27146	0.025688779
84	0x3da50051	0.08056701
85	0xbbe0eceb	-0.0068641803
86	0xbda8afc1	-0.082366474
87	0xbde7ffea	-0.113281086
88	0xbdd46fbe	-0.10372876
89	0xbca95cc3	-0.020674115
90	0xbd52985f	-0.051414844
91	0xbe7f4221	-0.2492757
92	0xbe8df8c3	-0.27728853
93	0x3c32ecf5	0.010920753
94	0xbe1b5445	-0.15168865
95	0xbdd00ae6	-0.10158329
96	0xbd9c5122	-0.07632662
97	0xbe4e04a2	-0.20118955
98	0xbd410f26	-0.047133587
99	0xbe470292	-0.19434574
100	0x3ca48347	0.02008213
101	0x3d483304	0.048876777
102	0xbe093f06	-0.13402948
103	0xbda89372	-0.08231248
104	0xbcdb07d6	-0.026737135
105	0xbe2322fb	-0.15931313
106	0xbe4ec1fe	-0.2019119
107	0x3c6a68bc	0.014307197
108	0xbe1c7e17	-0.15282474
109	0xbdbae80b	-0.0912629
110	0xbd51531d	-0.051104654
111	0xbd933f0a	-0.07189758
112	0xbce4294e	-0.027851727
113	0xbe5972cd	-0.212352
114	0x3c9877fb	0.018611899
115	0x3bd1c581	0.006401718
116	0xbdfe34ae	-0.124123916
117	0xbdc4a450	-0.096016526
118	0x3d99e454	0.07514253
119	0xbe374591	-0.17897631
120	0xbd98a23f	-0.07452821
121	0x3cc9ff7a	0.024657954
122	0xbdc51ebb	-0.09625002
123	0xbe353790	-0.17696977
124	0xbe6ba083	-0.23010449
125	0x3d016783	0.031592857
126	0xbe6d247e	-0.23158452
127	0x3b85c798	0.0040826313
128	0x3ce84a32	0.028355692
129	0xbd5bb580	-0.05363989
130	0xbd60423a	-0.05475066
131	0xbe4f59b7	-0.20249067
132	0xbd8b8cd7	-0.068139724
133	0xbe26866b	-0.16262214
134	0xbe296676	-0.16542992
135	0x3cbf75eb	0.023371657
136	0xbdb7d832	-0.08976783
137	0xbe00c422	-0.12574819
138	0xbdff2a2c	-0.124592155
139	0xbe130bdc	-0.14359993
140	0xbd2c166d	-0.042013574
141	0xbb98184d	-0.0046415688
142	0xbe39de9d	-0.18151326
143	0xbe72ab38	-0.23698127
144	0x3c82cf6f	0.015968053
145	0x3b02299d	0.001986123
146	0xbc952144	-0.018204339
147	0xbda6f11f	-0.08151459
148	0xbe3e4edd	-0.18584771
149	0x3cd32f94	0.025779523
150	0xbe119f62	-0.14220956
151	0x3d12d3db	0.035846572
152	0xbdfee75d	-0.12446473
153	0x3c424176	0.011856427
154	0xbd42ddf5	-0.047574956
155	0x3d47a56d	0.048741747
156	0xbd1ddf85	-0.038543243
157	0xbde5ad00	-0.11214638
158	0xbd38e5cb	-0.045141023
159	0xbe0c702d	-0.13714667
160	0x3e11136c	0.14167565
161	0x3d1d6cab	0.038433712
162	0xbda50f00	-0.08059502
163	0xbe1701e3	-0.14746813
164	0x3db90c40	0.090355396
165	0x3cd25f6d	0.025680268
166	0xbc7d0e54	-0.015445311
167	0xbb9b4ec4	-0.004739614
168	0xbde1658e	-0.11005698
169	0x3d979879	0.07402129
170	0xbd2664ce	-0.04062348
171	0xbdb41440	-0.08792925
172	0x3cd29c1c	0.025709204
173	0xbdfa25c0	-0.122142315
174	0xbde7f5e5	-0.113261975
175	0xbd948857	-0.07252567
176	0xbe525dbb	-0.20543568
177	0x3d246007	0.04013064
178	0xbe42276b	-0.1896035
179	0xbe24f0c0	-0.16107464
180	0xbe562d25	-0.20915659
181	0xbd3dc9ab	-0.046334904
182	0x3e15ac9f	0.14616631
183	0x3dcfdbb7	0.10149329
184	0xbdd73e3d	-0.10509918
185	0xbd80b779	-0.06284995
186	0xbd515abf	-0.051111933
187	0xbd993bdd	-0.07482121
188	0x3cd280cf	0.025696186
189	0xbe2eef60	-0.17083502
190	0xbc726d84	-0.014796618
191	0xbbf8d4e0	-0.007593736
192	0xbbcc51be	-0.0062353304
193	0xbdb4a85f	-0.08821177
194	0xbc9b19a4	-0.018933125
195	0x3cbf23d9	0.023332523
196	0x3df2aa66	0.11848907
197	0xbe281e3d	-0.16417785
198	0x3c925b36	0.017865758
199	0x3dec4dda	0.115382865
200	0xbe31cbc6	-0.1736289
201	0xbe30dedb	-0.17272513
202	0xbd999524	-0.074991494
203	0x3df11d6f	0.11773192
204	0x3d0c5ba6	0.03426709
205	0xbdb2257a	-0.08698554
206	0x3d2a4bb1	0.04157609
207	0x3d827734	0.063703924
208	0xbdcce13a	-0.10003896
209	0x3db39c16	0.087700054
210	0x4066bc72	3.6052518
211	0xbe3c0aba	-0.18363467
212	0xbe7a713c	-0.24457258
213	0x3f801434	1.0006166
214	0x3f47b181	0.78005224
215	0xbeaa58e5	-0.33270946
216	0xbd8bede1	-0.06832481
217	0xbe8efa4c	-0.27925336
218	0x3cf0ece1	0.029409828
219	0xbd85dd79	-0.06536383
220	0x402f0c84	2.735139
221	0xbf9bfb95	-1.2186152
222	0x3adeba2e	0.0016992742
223	0xbcdfb154	-0.027306236
224	0x3dc91660	0.09818721
225	0xbd269ac3	-0.040674936
226	0xbd919558	-0.07108563
227	0xbd4b5980	-0.0496459
228	0x3e00a284	0.12561995
229	0xbd6ff748	-0.058585435
230	0x3dd945e7	0.10609036
231	0x3c904e6a	0.017615516
232	0x3c3cd94d	0.011526418
233	0xbd8d60e7	-0.06903248
234	0x3db58b42	0.08864452
235	0xbe0c0d4c	-0.13676947
236	0xbc1a0c1a	-0.009402299
237	0xbd42e5da	-0.047582485
238	0xbd4f17da	-0.050559856
239	0x3d6886ec	0.056769297
240	0x3c58d965	0.013235425
241	0xbdf0bcec	-0.11754784
242	0xbde29d99	-0.110652156
243	0xbdf73a37	-0.120716505
244	0x3cd65e56	0.02616803
245	0x3d242da6	0.040082596
246	0x3dee7702	0.11643793
247	0xbd05d61b	-0.03267489
248	0xbdc76f41	-0.09738017
249	0xbda43e85	-0.08019737
250	0xbe0d7938	-0.13815773
251	0xbdd52be2	-0.104087606
252	0x3cd6c8d8	0.026218817
253	0x3da7dc79	0.08196349
254	0xbdd49ea5	-0.103818215
255	0xbe119ac2	-0.14219192

fc1.bias f4 [256]
0	0xbd8f4b72	-0.06996812
1	0x3e35b746	0.17745695
2	0x3e05691c	0.13028377
3	0x3e6f31cb	0.23358838
4	0x3e0fdfae	0.14050171
5	0x3c9ac0a8	0.018890694
6	0xbe982bd0	-0.29720926
7	0x3e85ad09	0.26108578
8	0xbd1231d5	-0.035692055
9	0xc0ea243b	-7.3169227
10	0x3e2834af	0.16426347
11	0x3df2ac19	0.11849231
12	0xbe8dff74	-0.27733958
13	0x3e39eee2	0.18157533
14	0x3d14e40e	0.036350302
15	0x3e885fe3	0.26635656
16	0x3e07343c	0.1320352
17	0xbe16bd12	-0.14720562
18	0xbeccd794	-0.40008223
19	0xbe9878e7	-0.2977974
20	0x3db6851e	0.08912109
21	0x3e877c8e	0.26462215
22	0x3e6e9e6a	0.23302618
23	0x3d16933d	0.03676151
24	0xbe8be56f	-0.2732348
25	0x3e8d2dad	0.2757391
26	0xbd38eab0	-0.04514569
27	0xbed76075	-0.42065778
28	0xbe9b3158	-0.30311084
29	0x3e3a5c62	0.18199304
30	0xbcba51e9	-0.022744136
31	0xc0943ffe	-4.6328115
32	0x3e9d3b01	0.3070908
33	0xbd14e796	-0.03635367
34	0xbe9458ef	-0.289741
35	0x3ea9978d	0.33123437
36	0x3eaed5c5	0.34147468
37	0xbda4b354	-0.080420166
38	0xbe4133a1	-0.18867351
39	0xbe893e1f	-0.26805207
40	0x3e8b784f	0.27240226
41	0x3dcfb96c	0.10142788
42	0xbe3c0994	-0.18363029
43	0xbe0f927d	-0.14020725
44	0x3d8b6f33	0.06808319
45	0x3e264b56	0.16239676
46	0x40ef7bd7	7.483867
47	0xbd0e4857	-0.034736957
48	0xbe51070d	-0.20412846
49	0xbed648a8	-0.41852307
50	0xbda55c6c	-0.08074269
51	0xbed7b170	-0.42127562
52	0xbf00f2cd	-0.50370485
53	0xbe0e5c55	-0.1390241
54	0x3d7aa7d8	0.061195225
55	0x3ea0cfca	0.3140853
56	0xbc6f6754	-0.014612038
57	0xbe88681b	-0.26641926
58	0xbdeb5d9c	-0.11492464
59	0x3d6d2910	0.05790049
60	0xc11fb18d	-9.980847
61	0xbdea4e59	-0.11440725
62	0xbebadac4	-0.3649503
63	0x3e834abd	0.25642958
64	0xbec6ebab	-0.38851675
65	0xbd8cbe11	-0.0687219
66	0x3dde7072	0.10861291
67	0xbc7abb86	-0.015303498
68	0x3e12b7da	0.14327946
69	0xbe096eca	-0.13421169
70	0x3d3f45f6	0.04669758
71	0x3e47910a	0.19488922
72	0xbdd4005c	-0.10351631
73	0x3d3f7d0c	0.046750113
74	0xbe91e050	-0.2849145
75	0xbea5e0c9	-0.3239806
76	0x3e181e6b	0.14855354
77	0xc08306cf	-4.094581
78	0xbdb6a23f	-0.08917665
79	0x3c89e3b8	0.016832218
80	0xbe001585	-0.12508209
81	0x3e0095db	0.12557165
82	0xbe8c5845	-0.27411094
83	0x3d6b0ffa	0.057388283
84	0x3e858f3b	0.2608584
85	0xbdf411a4	-0.11917427
86	0xbeb51ef3	-0.35375175
87	0xbebd4826	-0.36969107
88	0x3e1e8082	0.1547871
89	0xbd233f79	-0.039855454
90	0x3e5e689e	0.21719596
91	0xbe885d51	-0.26633695
92	0x3e5eb502	0.21748737
93	0x3d324036	0.043518268
94	0x3de49414	0.11161056
95	0xbe79b523	-0.24385504
96	0xbed7194a	-0.42011482
97	0x3d34bccc	0.044125363
98	0x3ea620d0	0.3244691
99	0xbe4072d4	-0.18793803
100	0xbec7fe50	-0.39061213
101	0xbc935814	-0.017986335
102	0x3dbc8f78	0.09207052
103	0xbd837b48	-0.064199984
104	0xbeb919b5	-0.36152425
105	0x3b0ae557	0.0021193826
106	0x3e651445	0.22371013
107	0x3e0305bf	0.1279516
108	0xbd7d7c82	-0.061886318
109	0xbe70ce4a	-0.23516193
110	0xbe356461	-0.17714073
111	0xbca0eaf4	-0.019643284
112	0x3b804be4	0.003915297
113	0xbe58a7da	-0.2115778
114	0x3e96225a	0.29323083
115	0x3e8dc4df	0.27689263
116	0xc02a6486	-2.6623855
117	0x3e3bf19e	0.18353888
118	0xc1432799	-12.197167
119	0xbeeb5c7e	-0.45969003
120	0xbdc77181	-0.09738446
121	0x3d8b0974	0.067889124
122	0xbee059e2	-0.43818575
123	0x3e689ed7	0.22716843
124	0xbee6e323	-0.45095167
125	0x3d5b3f5e	0.05352723
126	0x3de511d9	0.11185045
127	0x3ec13d39	0.37742022
128	0x3da33dfd	0.07970808
129	0xbc8bb5a2	-0.017054383
130	0x3eb56a39	0.35432604
131	0xbecc63dd	-0.3991994
132	0xbd3aa9a5	-0.045571942
133	0xbea7d45e	-0.3277921
134	0xbe56a0be	-0.20959756
135	0xbd640ed0	-0.05567819
136	0x3e4f0eeb	0.20220535
137	0x3df8f3cc	0.121558756
138	0xbec605a6	-0.38676184
139	0x3e97a75f	0.29619882
140	0xbe4217b9	-0.18954362
141	0xbe77afb2	-0.24188116
142	0x3e55c79e	0.20876929
143	0x3bea905e	0.007158323
144	0xbe45b7fc	-0.19308466
145	0xbe18142f	-0.1485145
146	0xbeaff260	-0.34364605
147	0xbe6bcd83	-0.23027615
148	0xbe892968	-0.26789403
149	0xbed69131	-0.41907647
150	0xc0fe71a6	-7.951373
151	0x3e9e1f79	0.30883387
152	0x3e043a52	0.12912872
153	0xbe3fe30d	-0.18738957
154	0xbeb7f1f6	-0.3592679
155	0xbdf2717d	-0.118380524
156	0x3e6cec85	0.231371
157	0xbea970ed	-0.33093968
158	0xbed3e960	-0.41388988
159	0xbc044580	-0.008073211
160	0x3dca2df9	0.0987205
161	0xbe2119ac	-0.1573245
162	0xbdbfb8c7	-0.09361415
163	0xbd3a6903	-0.045510303
164	0x3ea909c3	0.3301526
165	0x3e7613a7	0.24030934
166	0x3e2edcd2	0.17076424
167	0x3d965668	0.073406994
168	0x3e1ad5c1	0.15120603
169	0xbed3a100	-0.4133377
170	0xbe882ada	-0.26595193
171	0xbe88fec3	-0.26756868
172	0xbe94069a	-0.28911287
173	0x3d1c5efd	0.038176525
174	0x3eb456f3	0.35222587
175	0xbefb215f	-0.49048898
176	0xbed145a6	-0.4087345
177	0x3e106934	0.14102632
178	0x3e8c29dd	0.2737569
179	0xc020e140	-2.5137482
180	0x3e6334f2	0.22188166
181	0x3e6cc9e9	0.23123898
182	0x3e2690ae	0.16266128
183	0xbd970590	-0.07374108
184	0x3e5a62be	0.2132673
185	0x3cfc6410	0.030809432
186	0x3dcc2123	0.09967258
187	0x3e20135a	0.15632382
188	0x3e832676	0.2561528
189	0x3e8bf138	0.27332473
190	0xbe5f410d	-0.21802159
191	0x3e57fefe	0.21093366
192	0x3e4e9f56	0.2017797
193	0xbea3a8c5	-0.31964698
194	0xbe69756b	-0.22798698
195	0xbe460a95	-0.19339974
196	0xbea0a97d	-0.3137931
197	0x3ea50075	0.3222691
198	0xc1906f2b	-18.054281
199	0xbdd14804	-0.10218814
200	0x3e9c85c1	0.30570796
201	0x3dcbb134	0.09945908
202	0xbc7e3740	-0.015516102
203	0x3e8e85b7	0.2783639
204	0xbecbf0de	-0.39832205
205	0x3d77aee3	0.06046952
206	0x40bd08f7	5.9073443
207	0x3c33ce65	0.010974501
208	0x3e45b133	0.19305877
209	0xbe70ed6f	-0.23528074
210	0x40aaff0e	5.3436346
211	0xbe3638b7	-0.17795072
212	0xbec37be7	-0.38180467
213	0xbe427612	-0.18990353
214	0x3d8dbd06	0.06920819
215	0xbe190bb5	-0.14945872
216	0x3eb17e98	0.34666896
217	0x3e85d73e	0.2614078
218	0x40cd0103	6.4063735
219	0xbf622e57	-0.8835196
220	0x3e88c795	0.2671477
221	0xbebecb6a	-0.37264568
222	0xbe7a6cc4	-0.24455553
223	0xbeebeac8	-0.4607756
224	0xbebb0413	-0.36526546
225	0xbeef804d	-0.46777573
226	0xbeb776d2	-0.3583284
227	0x3de5517c	0.111971825
228	0xbec64f8b	-0.3873256
229	0x3e981acf	0.29707953
230	0x3db24c5f	0.08705973
231	0xbed9ca21	-0.42537025
232	0xbe1c64bd	-0.15272804
233	0x3c2af107	0.010433442
234	0xbc4d0e60	-0.012515634
235	0x4091d2ad	4.5569673
236	0xbdc559b9	-0.09636254
237	0xbd87c961	-0.06630207
238	0x3e9ae5a7	0.30253336
239	0xbe18a371	-0.14906098
240	0xbebb310a	-0.3656085
241	0x3e88a666	0.26689452
242	0xbdb22c0d	-0.08699808
243	0xbebcaad8	-0.36849093
244	0x3d487612	0.048940726
245	0xbe4e7809	-0.20162977
246	0x41ac0e0b	21.506857
247	0x3d1c7903	0.038201343
248	0x3e6e8d1a	0.23296013
249	0xbefb082c	-0.49029672
250	0xbeadb8df	-0.33930108
251	0x3e5b0096	0.21386942
252	0x3e8c91e7	0.27455065
253	0x408da29f	4.426101
254	0x416374f9	14.216058
255	0xbd4b3050	-0.04960662

fc2.weight f4 [256, 256]
0	0xbd1ef70e	-0.03880983
1	0xbd9a3cfc	-0.07531163
2	0xbc31a6cf	-0.010842993
3	0x3aaaf8f8	0.0013044169
4	0x3c767880	0.015043378
5	0xbda57301	-0.08078576
6	0xbd933674	-0.071881205
7	0xbdc136e0	-0.09434295
8	0xbd809c78	-0.06279844
9	0xbd810d52	-0.06301369
10	0xbd58dac1	-0.052942995
11	0xbc2c426c	-0.010513883
12	0x3d342685	0.043982048
13	0x3d9a5123	0.07535007
14	0x3d3efcdd	0.046627868
15	0xbd02fc27	-0.031978752
16	0x3cce9d28	0.025221422
17	0x3d51f309	0.051257167
18	0xbcaa23ca	-0.020769019
19	0xba71db9e	-0.0009226146
20	0xbdd1dfd5	-0.10247771
21	0xbd04226a	-0.032259382
22	0x3d961140	0.07327509
23	0xbd85bac0	-0.0652976
24	0xbd88fb17	-0.066885166
25	0xbe233697	-0.15938793
26	0x3d848e49	0.06472451
27	0xbba598e2	-0.0050536254
28	0x3d4497d6	0.047996365
29	0x3d18e115	0.03732403
30	0x3a35e7c1	0.0006939136
31	0xbd2e1235	-0.042497832
32	0x3d5a825a	0.05334697
33	0x3c917bc2	0.017759208
34	0xbcd3a1d4	-0.025834002
35	0x3d6d0002	0.057861336
36	0xbdcc4c38	-0.09975475
37	0x3bd73d68	0.0065685995
38	0xbb732584	-0.0037101218
39	0xbc1ab357	-0.009442172
40	0x3d42d8cc	0.047570035
41	0x3cb0b430	0.021570295
42	0x3d55f8c8	0.05223921
43	0xbd4ca194	-0.04995878
44	0xbcfe4264	-0.031037517
45	0xbd8c9a22	-0.06865336
46	0xbdd88f84	-0.105742484
47	0x3d9fd314	0.07803932
48	0xbd56ff16	-0.052489363
49	0x3d9568d4	0.07295385
50	0xbd98f2bc	-0.07468173
51	0xbce914d1	-0.028452309
52	0x3b6de514	0.0036299871
53	0x3db940e8	0.09045583
54	0xbd238725	-0.039923806
55	0x3d5ade9a	0.053434946
56	0x3c1a3fab	0.009414594
57	0xbcf0cb7d	-0.029393906
58	0x3d1b9158	0.037980407
59	0x3c88e305	0.016709814
60	0xb83f2b34	-4.5578185e-05
61	0xbd67790e	-0.05651193
62	0xbc1e2641	-0.009652675
63	0xbceece3b	-0.029151073
64	0x3d6c50e7	0.057694342
65	0xbd4f3c29	-0.050594483
66	0x3b9150d3	0.004434684
67	0xbd4bed1d	-0.049786676
68	0xbdbb2998	-0.09138793
69	0xbd74387e	-0.059624188
70	0x39347e89	0.00017213276
71	0xbd9d68e3	-0.07686021
72	0x3cd5361e	0.026026782
73	0x3d8c5146	0.06851439
74	0xbd3ccabb	-0.046091776
75	0xbdcddf66	-0.100523755
76	0x3dc56bf9	0.09639735
77	0xbc7bd90c	-0.015371572
78	0x3db5f34b	0.08884295
79	0x3cdccd08	0.026953235
80	0xbca99db7	-0.020705087
81	0x3cc802e1	0.024415435
82	0xbdf3209d	-0.11871455
83	0xbc82e1f8	-0.01597689
84	0x3da957d4	0.08268705
85	0x3dae95aa	0.0852464
86	0xbd86870f	-0.06568729
87	0xbdcbfe0d	-0.09960566
88	0xbdb33b08	-0.08751494
89	0x3d8fa27e	0.07013415
90	0x3d93e0c2	0.072206035
91	0x3d05a2e1	0.032626037
92	0xbcf3d668	-0.029765323
93	0xbe18666c	-0.14882821
94	0x3d9249d5	0.071429886
95	0x3cfc1950	0.030773789
96	0x3db6d7da	0.08927889
97	0x3c34f524	0.011044774
98	0xbdb51870	-0.08842552
99	0x3d78bea1	0.060728673
100	0x3d16d2ed	0.03682225
101	0xbe0ba826	-0.13638362
102	0x3d8fe6a6	0.070264146
103	0x3aa091e5	0.0012250511
104	0xbcd0d26f	-0.025490968
105	0x3a972e81	0.0011534245
106	0xbd33f7e2	-0.04393757
107	0x3db707f7	0.08937066
108	0xbbccfd09	-0.00625575
109	0x3d13365e	0.03594052
110	0x3db6c1b9	0.089236684
111	0xbd6a4f18	-0.057204336
112	0x3ccf275b	0.02528732
113	0xbdaf4030	-0.08557165
114	0xbde33d07	-0.110956244
115	0xbdb0ac5a	-0.086266235
116	0xbdcb22e4	-0.09918764
117	0x3dce7c0d	0.100822546
118	0xbdfb574e	-0.122725114
119	0x3dadfb7d	0.08495233
120	0x3d94d6a2	0.072675005
121	0x3d0abfbc	0.03387426
122	0xbd362ba7	-0.044475224
123	0x3dc1a772	0.09455766
124	0x3d0c0cb4	0.034191802
125	0x3db060d2	0.08612217
126	0xbc941841	-0.018077971
127	0xbc8ed61c	-0.01743608
128	0xbd60f11f	-0.05491745
129	0x3d3ebf66	0.04656925
130	0xbcd3631d	-0.025804097
131	0x3d2d50eb	0.042313498
132	0xbd76ef52	-0.060286827
133	0x3d3155e0	0.043294787
134	0x3d6e8943	0.05823637
135	0xbdb68e94	-0.08913913
136	0x3cee8afd	0.02911901
137	0xbdbe767e	-0.09299944
138	0x3bdf0858	0.0068064146
139	0xbac3fb3b	-0.0014952192
140	0xbd4a30c1	-0.0493629
141	0xbccb904b	-0.024849078
142	0xbd66f97d	-0.056390274
143	0x3cb41cdf	0.021986423
144	0xbdd342b1	-0.10315455
145	0x3da5eef4	0.08102217
146	0xbd8fb581	-0.07017041
147	0x3cddf7c0	0.027095675
148	0xbd909ec7	-0.070615344
149	0x3d7aee7c	0.061262593
150	0xbd367daa	-0.044553436
151	0xbdcd2cd9	-0.1001832
152	0xbdd7ee78	-0.10543531
153	0xbdb0da40	-0.08635378
154	0xbdc09d4a	-0.094050005
155	0xbdd097cf	-0.10185205
156	0xbd89d364	-0.06729773
157	0x3d00a200	0.031404495
158	0x3ccf5c17	0.025312467
159	0xbdb1a564	-0.08674124
160	0x3d9536b1	0.07285822
161	0x3d79c0f5	0.060975034
162	0xbd84e08b	-0.06488141
163	0xbdef0233	-0.11670341
164	0xbd7e9d6f	-0.06216186
165	0xbdc2d2d1	-0.09512866
166	0xbd2f4a64	-0.042795554
167	0x3d2ab411	0.04167563
168	0xbd83ed3f	-0.064417355
169	0xbd352bf2	-0.044231363
170	0xbd1842dd	-0.03717314
171	0x3d918ce6	0.07106952
172	0x3d8270da	0.06369181
173	0x3d1305b1	0.0358941
174	0x3d4e8efc	0.05042933
175	0xbc22249e	-0.0098964255
176	0xbd9536a1	-0.0728581
177	0xbdcf66cc	-0.10127029
178	0x3b2151dc	0.0024615442
179	0xbd9f9d01	-0.07793618
180	0x3d88b300	0.066747665
181	0x3cc8d8d9	0.024517464
182	0x3c5958b6	0.013265779
183	0x3dc81258	0.09769124
184	0x3c22d4ba	0.009938413
185	0x3ce1ffed	0.027587855
186	0xbdd97ac7	-0.10619121
187	0xbde2db19	-0.11076946
188	0x3d297e9e	0.041380517
189	0xbc12341e	-0.0089235585
190	0xbd8fbd8f	-0.07018577
191	0x3d6596d4	0.056052044
192	0xbb9731de	-0.004614099
193	0x3c26bc04	0.010176662
194	0x3d7efa1c	0.06225024
195	0x3c26c149	0.010177919
196	0x3db4d4c4	0.08829644
197	0xbbee18ec	-0.0072661545
198	0xbe00f4cf	-0.12593387
199	0xbdbc66ec	-0.09199318
200	0x3cf891fa	0.030343045
201	0xbd910c15	-0.070823826
202	0x3dc1e092	0.094666615
203	0x3c8b92d4	0.017037787
204	0x3da551d2	0.080722466
205	0x3db2c84a	0.08729608
206	0xbe023da4	-0.12718827
207	0xbc956fd3	-0.018241799
208	0x3ce84e64	0.028357692
209	0x3d64ebc7	0.055888917
210	0x3d2bd1c0	0.04194808
211	0xbdb7789b	-0.089585505
212	0x3da31a3f	0.079639904
213	0x3d9a3f08	0.075315535
214	0xbca72bbf	-0.020406602
215	0x3cd539b2	0.026028488
216	0xbda08172	-0.0783719
217	0x3dc223cc	0.09479484
218	0x3c0abf90	0.008468524
219	0x3d11adfb	0.03556631
220	0x3da78851	0.08180297
221	0xbd05dfe6	-0.03268423
222	0xbd1f518e	-0.038896136
223	0xbcc82cae	-0.024435367
224	0x3dcba2ed	0.09943185
225	0xbd169a04	-0.036767974
226	0xbd0c75e0	-0.0342921
227	0x3c9f72b3	0.019463873
228	0xbdd3ebae	-0.10347687
229	0xbc9ef2e1	-0.019402923
230	0x3d7abc1b	0.061214548
231	0xbc808ec7	-0.015693082
232	0x3c2805ea	0.010255316
233	0x3dc89194	0.09793392
234	0x3d854382	0.06507017
235	0xbdf7c076	-0.12097256
236	0xbdae7dd5	-0.08520094
237	0xbd893161	-0.066988714
238	0xbdb4cfd3	-0.08828702
239	0xbd9adacb	-0.07561263
240	0xbd80446d	-0.06263051
241	0xbd5271a3	-0.051377904
242	0xbcc7908d	-0.02436092
243	0xbcd493a6	-0.02594931
244	0xbd731e04	-0.059354797
245	0x3d520ef1	0.05128378
246	0xbdb9a37a	-0.09064384
247	0x3d903591	0.07041467
248	0xbcf6f6e8	-0.030147031
249	0x3cb494eb	0.022043666
250	0x3d8f604b	0.07000788
251	0xbd82db15	-0.06389443
252	0x3d73dad3	0.05953486
253	0xbde2ac73	-0.11068048
254	0x3d33c10c	0.043885276
255	0xb9a6b167	-0.00031794162

fc2.bias f4 [256]
0	0xbd4612eb	-0.048357885
1	0xbe446d26	-0.19182262
2	0xbdbac3dd	-0.09119389
3	0xbd727e3f	-0.05920243
4	0xbe04a7b8	-0.12954605
5	0xbd2265ac	-0.039647743
6	0xbf53a4dd	-0.82673436
7	0xbe216cc6	-0.1576415
8	0xbd03d879	-0.032188866
9	0xc020414c	-2.5039854
10	0xc085cbc5	-4.181124
11	0x40bd4540	5.9147034
12	0x400b393c	2.1753683
13	0xc15891b6	-13.535574
14	0xc06497e3	-3.5717704
15	0xbe0e0b44	-0.13871485
16	0xbe50fcdb	-0.20408957
17	0xbdf33fbc	-0.11877391
18	0xbd607168	-0.054795653
19	0xbf0a39e2	-0.5399457
20	0xbe334e34	-0.17510301
21	0xbf6897db	-0.90856713
22	0xbf25eef0	-0.64817715
23	0xbd0d7fc0	-0.03454566
24	0xbd51fbd2	-0.051265545
25	0xbfc93461	-1.571911
26	0x40a56030	5.1679916
27	0x3fbe722b	1.4878591
28	0x41208bc5	10.034123
29	0x3f952854	1.1652932
30	0x40b131fa	5.5373507
31	0xbe947ff3	-0.29003868
32	0x40b206b3	5.563318
33	0xbd963543	-0.073343776
34	0xbdfde650	-0.12397444
35	0x40b3bbb7	5.6166644
36	0xbd70ea63	-0.05881728
37	0x40bb2a70	5.8489304
38	0x402deaa2	2.7174459
39	0xbdb9396f	-0.09044158
40	0x3e9e5f97	0.30932304
41	0x3fa52dde	1.2904623
42	0xbe3a8dd7	-0.1821817
43	0xbdd3ebfb	-0.10347744
44	0xbd8100a2	-0.06298949
45	0x3eb7f739	0.35930803
46	0xbf29e804	-0.6636965
47	0x3dfec8da	0.12440653
48	0x40f1becc	7.5545406
49	0xbda52606	-0.08063893
50	0xbf49691e	-0.7867602
51	0xbf002b96	-0.50066507
52	0xbd5ca4c1	-0.05386806
53	0xbf508af0	-0.81462
54	0x40f480de	7.640731
55	0xbd00e26b	-0.03146593
56	0xbe137596	-0.14400324
57	0xc0652f49	-3.581011
58	0xbe20997b	-0.15683548
59	0xbe689846	-0.22714338
60	0x3f91f950	1.1404209
61	0x3c9037f2	0.017604802
62	0xbe1bd9c5	-0.15219791
63	0xbdd7f62c	-0.105450004
64	0x410cbeda	8.796595
65	0xbf52a7b6	-0.82287157
66	0x3d991a6a	0.07475741
67	0xbdb9b6f6	-0.090681
68	0xc01dea00	-2.4674072
69	0x40518031	3.2734492
70	0xbf8c6304	-1.0967717
71	0xbd90dab4	-0.07072964
72	0xc105d173	-8.363635
73	0xc0cf5a82	-6.4797983
74	0x40a9a03a	5.300809
75	0xbeed0254	-0.4629084
76	0x40545f4b	3.3183162
77	0x3f67646a	0.90387595
78	0xbd9a7d4f	-0.07543432
79	0x4016525c	2.3487768
80	0x3ea55416	0.32290715
81	0x3da3b27e	0.07993029
82	0x3fff8dac	1.996511
83	0xbe6762b8	-0.22596252
84	0x3e9268b1	0.28595498
85	0x40433afe	3.0504756
86	0x3f0e90a9	0.55689484
87	0xbcb2dd23	-0.021833962
88	0xbf77132d	-0.96513635
89	0xc010aad0	-2.2604256
90	0x3e6b0da4	0.22954422
91	0xbe1be32f	-0.15223382
92	0xbf85e3cd	-1.0460144
93	0xbdd1e769	-0.10249216
94	0xbbbe292d	-0.0058032484
95	0x3fb5e244	1.4209676
96	0xbdbfa8cb	-0.093583666
97	0xbd8a0291	-0.06738771
98	0xbe21073d	-0.15725417
99	0xbe2afcc6	-0.16697988
100	0xbe91ba1b	-0.284623
101	0xbe31f36f	-0.17378019
102	0x3f3bb5aa	0.7332407
103	0x3ff311bc	1.8989787
104	0x4029ee97	2.6551874
105	0x3fd5ed58	1.6713057
106	0xbb957fdd	-0.0045623616
107	0xbe29afc5	-0.16570957
108	0xbfc2cc37	-1.5218571
109	0xbe1642b0	-0.14673877
110	0xbd5ad3ad	-0.053424526
111	0xbe66866b	-0.22512214
112	0xc0646353	-3.5685623
113	0xbea17460	-0.315341
114	0xbd7e6385	-0.062106628
115	0x41236533	10.212207
116	0x402d221e	2.7052073
117	0x40165dd5	2.349477
118	0x3f50da5d	0.81583196
119	0xbd96c781	-0.07362271
120	0xbd89a866	-0.067215726
121	0xbccf6b14	-0.025319614
122	0xbe8fc003	-0.2807618
123	0x3f6f740c	0.9353645
124	0x3f6e7cf8	0.9315944
125	0xbd3ac4bc	-0.045597777
126	0xbdb967f7	-0.09053033
127	0xbd82265e	-0.06354974
128	0xbd0c90c8	-0.03431776
129	0xbd2bc1ad	-0.04193275
130	0xbd5dca49	-0.054147992
131	0xbdd5c053	-0.104370736
132	0x3fb6bdbc	1.4276652
133	0x40bacfcd	5.8378663
134	0xbf8653d8	-1.0494337
135	0xc0450fd2	-3.0790906
136	0xbcb17ca4	-0.021665879
137	0xbfeb00c5	-1.835961
138	0xbd815a50	-0.06316054
139	0x3f55174e	0.83238685
140	0xbfa5db04	-1.2957463
141	0xc0b6b138	-5.709133
142	0xbfd8d732	-1.6940672
143	0x40166540	2.3499298
144	0xbed3c710	-0.4136281
145	0xc077c543	-3.871415
146	0xbd861965	-0.06547812
147	0xc0a3d56f	-5.119804
148	0xbd9f99b6	-0.0779299
149	0xbdabfac6	-0.083974406
150	0x3e0c6621	0.13710834
151	0x3f8dfcc1	1.1092759
152	0xc14d9b37	-12.850394
153	0xbe28602f	-0.16442941
154	0xbccd2999	-0.02504425
155	0xbd44c966	-0.04804363
156	0x40bf492f	5.9776835
157	0xbf8de400	-1.1085205
158	0x4115647f	9.337035
159	0xc0a0bc1d	-5.022963
160	0xbe487849	-0.19577135
161	0x3e9a724a	0.3016532
162	0xbdec99c5	-0.11552767
163	0x3f3aeb69	0.7301546
164	0x405c0eeb	3.4384105
165	0xc03983a3	-2.8986595
166	0x4090a03d	4.5195603
167	0x3ceb02e6	0.028687906
168	0xbdff1dc8	-0.12456852
169	0x3fb4aecc	1.4115844
170	0xbf5f7e09	-0.8730169
171	0x3fcce6f0	1.6007977
172	0x3ecbb7eb	0.39788756
173	0x3c383987	0.011244184
174	0xbd844a3f	-0.06459474
175	0xbd20ecc9	-0.039288316
176	0xbdcd0e74	-0.10012522
177	0x3cf003c4	0.02929867
178	0xbff6dc80	-1.9286041
179	0x3e982087	0.29712316
180	0xbea0d1a7	-0.31409952
181	0x4008d1e1	2.13781
182	0xbd1ace97	-0.037794676
183	0xbfaa212d	-1.3291374
184	0xc032ddbb	-2.7947834
185	0xbd0fc728	-0.03510204
186	0x409407ac	4.6259365
187	0x401a6581	2.4124453
188	0xbfcd5421	-1.6041299
189	0xbe43c8f9	-0.19119634
190	0x3e92a2a7	0.2863972
191	0x3fbdeada	1.4837296
192	0x3fc8a9e6	1.5676849
193	0xbe7d3589	-0.24727453
194	0xbc5922fd	-0.013252971
195	0x41092ffc	8.574215
196	0x40766ed9	3.8505156
197	0x3ead52f4	0.3385235
198	0xbe548687	-0.20754443
199	0x403f3587	2.987642
200	0xbdc20a5a	-0.09474631
201	0xbd37cda0	-0.044873834
202	0xbd8ba850	-0.068192124
203	0xbe4f678f	-0.20254348
204	0xc02991c6	-2.6495223
205	0x3fc614cb	1.5475096
206	0x4014072f	2.3129385
207	0xbe1b2a24	-0.15152794
208	0x405a45a8	3.4105015
209	0xbd63b6a0	-0.055594087
210	0xbda892af	-0.08231103
211	0xbcc189a0	-0.023625195
212	0xc0180cb9	-2.3757765
213	0x410ed6f2	8.927477
214	0xbda02a43	-0.07820561
215	0xbe18ad2a	-0.14909807
216	0x3e8e20c9	0.27759388
217	0xbe5d8132	-0.21631315
218	0xbe0f60a5	-0.1400171
219	0x3e97e5c6	0.2966749
220	0xbe0a930a	-0.13532653
221	0x3f83e8be	1.0305402
222	0xbe0c59b7	-0.13706098
223	0xbe831835	-0.25604406
224	0x3e6f655c	0.2337851
225	0xbe3b7601	-0.18306734
226	0x3f1df77c	0.61705756
227	0x4094aaac	4.645834
228	0xbdc72dba	-0.097255185
229	0xc07b9bd7	-3.9313867
230	0xbfa39e09	-1.2782604
231	0x3f47cff7	0.78051704
232	0xc050624d	-3.2559998
233	0x3e0269e9	0.12735714
234	0xbe99f1d4	-0.30067313
235	0xbf24bb84	-0.64348626
236	0xbe38311f	-0.17987488
237	0x4067345e	3.6125712
238	0x4006ca0c	2.106082
239	0xbdc73e10	-0.09728634
240	0xbfd572e0	-1.6675682
241	0xbeb29120	-0.34876347
242	0x3e825b0d	0.2546009
243	0xbd419c02	-0.04726792
244	0xbdd05ace	-0.101735696
245	0x411cfa59	9.81112
246	0xbde18b14	-0.11012855
247	0xc0befee2	-5.9686136
248	0xc0fe7354	-7.951578
249	0xbd71d2be	-0.05903887
250	0x3fc66415	1.5499293
251	0xbd3416f5	-0.043967206
252	0x3f51488d	0.8175133
253	0xbdb3603b	-0.08758589
254	0xbd9dbecd	-0.07702408
255	0x3f839f2b	1.0282949

mean_linear.weight f4 [1, 256]
0	0x3d79e195	0.061006147
1	0xbd73bdf1	-0.059507314
2	0xbcc10236	-0.023560625
3	0xbc974d2d	-0.018469417
4	0xbc445ab9	-0.011984521
5	0xbd880fe8	-0.06643659
6	0x3d86817f	0.06567668
7	0x3fb3a122	1.4033549
8	0x3ce0c174	0.027435996
9	0x3d90eb71	0.07076157
10	0xbd1d7d48	-0.038449556
11	0x3d64d9e1	0.055871848
12	0xbdf3afd7	-0.11898773
13	0x3e455e25	0.19274195
14	0xbdcf6e77	-0.10128491
15	0xbd866238	-0.065617025
16	0x3c82515c	0.015907936
17	0xbcee7769	-0.029109674
18	0xbd0fb0df	-0.035080787
19	0xbd888ac1	-0.0666709
20	0xbca8debe	-0.020614024
21	0x3d317148	0.043320924
22	0xbc014ba0	-0.007891566
23	0xbbaf9ef2	-0.005359524
24	0xbce39cf9	-0.027784811
25	0x3d81d4c5	0.06339411
26	0x3dc22afb	0.09480854
27	0xbd238b4f	-0.039927777
28	0xbee2be79	-0.44285944
29	0xbd88cfda	-0.066802695
30	0xbe1712ff	-0.1475334
31	0x3d9ef38c	0.07761297
32	0xbd4c8df8	-0.04994008
33	0xbc180eba	-0.009280855
34	0x3d241bfd	0.040065754
35	0x3da17bf6	0.07884972
36	0xbc52fcc3	-0.012877646
37	0x3d89592d	0.06706462
38	0xbe033e81	-0.12816812
39	0x3cec7e5a	0.028868843
40	0xbd8c3530	-0.06846082
41	0x3d001102	0.03126622
42	0x3e251a22	0.1612325
43	0x3c947618	0.018122718
44	0xbba00164	-0.0048829783
45	0x3e10eecd	0.14153595
46	0x39f6bc8b	0.00047061252
47	0xbd5d01c3	-0.05395676
48	0x3dee858e	0.11646567
49	0xbbfb8e0f	-0.007676847
50	0xbce7a126	-0.028275084
51	0x3d197c4f	0.037472066
52	0xbcc1d8c2	-0.023662928
53	0xbe267e08	-0.16259015
54	0x3e72ea25	0.23722132
55	0xbc7dde3d	-0.01549488
56	0xbe04b89a	-0.12961045
57	0xbd9b0f21	-0.07571245
58	0xbbf989e3	-0.0076153143
59	0xbe043f91	-0.12914874
60	0xbcf9734d	-0.030450488
61	0x3d8f5236	0.06998102
62	0xbc8b9df8	-0.017043099
63	0x3d295e13	0.04134948
64	0xbe0891d0	-0.13336873
65	0x3d9d8afd	0.076925255
66	0x3d7034ff	0.05864429
67	0xbd6f5ba5	-0.05843701
68	0x3d244b4d	0.040110875
69	0xbd71f111	-0.05906779
70	0x3d345ae1	0.04403198
71	0x3e4dce23	0.20098166
72	0x3dd942c0	0.10608435
73	0x3db2bbdc	0.087272376
74	0x3d9a1656	0.075237915
75	0x3d6203d8	0.055179447
76	0x3d40dad6	0.0470837
77	0x3e257485	0.1615773
78	0xbb728fb7	-0.003701193
79	0xbd29341e	-0.04130947
80	0xbe71587a	-0.23568907
81	0x3dda5d4e	0.10662328
82	0xbd4ce548	-0.050023347
83	0xbd0bb5ed	-0.034109045
84	0xbd6d9517	-0.05800351
85	0x3dbd58dc	0.09245464
86	0xbd92d03e	-0.07168625
87	0x3c2469b9	0.010034972
88	0x3cdc6f0f	0.026908426
89	0x3d45a2c5	0.048250932
90	0x3dddca0a	0.108295515
91	0xbaf3e3c6	-0.001860731
92	0x3d425e99	0.047453497
93	0x3da5d25e	0.08096765
94	0xbb8f58be	-0.0043745926
95	0xbdd301c6	-0.10303073
96	0xbc29c5a1	-0.01036206
97	0x3cbf925e	0.023385223
98	0x3c0bc55b	0.00853094
99	0xbcd64a6f	-0.02615854
100	0xbebbf7be	-0.3671245
101	0x3bd59727	0.006518263
102	0xbc872e1c	-0.016501479
103	0xbd965016	-0.07339494
104	0x3db502db	0.08838435
105	0xbd121cec	-0.035672113
106	0x3c208245	0.009796684
107	0x3a8c273f	0.0010692849
108	0xbd30eb02	-0.04319287
109	0xbdf34704	-0.118787795
110	0x3d55559b	0.052083593
111	0x3e1c44aa	0.15260568
112	0x3cdd03cd	0.026979351
113	0xbd84d802	-0.06486513
114	0x3d0de18c	0.034638926
115	0x3dacceeb	0.08437904
116	0x3de96037	0.11395305
117	0x3e169e0a	0.14708725
118	0xbe5fb452	-0.2184613
119	0xbaedf260	-0.0018153898
120	0xbcd8a392	-0.026445184
121	0x393f2780	0.00018229894
122	0xbe3bdf40	-0.18346882
123	0xbde2ecb2	-0.11080302
124	0xbce8d490	-0.02842167
125	0x3c70305e	0.014659969
126	0x3d0322c6	0.032015584
127	0xbd85499b	-0.0650818
128	0x3d8f21e6	0.069888875
129	0x3c5a0fba	0.013309414
130	0x3cfc8be6	0.030828428
131	0xbc6d82b2	-0.014496492
132	0x3d9df300	0.07712364
133	0xbd1ba1f7	-0.03799626
134	0x3d89f647	0.06736427
135	0x3d85a6ab	0.0652593
136	0x3d0c63c6	0.03427484
137	0x3ce44975	0.027867058
138	0xba56f5aa	-0.0008200059
139	0xbd3c0cf0	-0.045910776
140	0xbd2d1d25	-0.042264123
141	0x3e0f7826	0.14010677
142	0xbd5e0c6e	-0.054211073
143	0xbdaea4ee	-0.085275516
144	0xbe594b40	-0.21220112
145	0xbe0898c8	-0.13339531
146	0xbb6d0bf0	-0.0036170445
147	0xbd80b599	-0.06284637
148	0xbbd8cf42	-0.006616504
149	0x3d101d61	0.035184268
150	0xbd6291bb	-0.05531476
151	0x3e0cd10e	0.13751623
152	0xbe5e309a	-0.21698228
153	0x3e24512b	0.16046588
154	0xbd7e2bb3	-0.062053394
155	0xbe51155c	-0.20418304
156	0xbd9e7c74	-0.07738581
157	0x3e037b70	0.12840056
158	0x3dabdb3c	0.08391425
159	0xbd9c6213	-0.07635894
160	0xbd5fe02e	-0.054657154
161	0x3d59a928	0.053139836
162	0xbda10498	-0.07862204
163	0x3daa79f9	0.08324046
164	0xbd5e4e3e	-0.054273836
165	0x3c884c09	0.016637819
166	0xbd72e6e6	-0.059302233
167	0xbdaf38b2	-0.08555736
168	0xbcc80715	-0.02441744
169	0xbd8fee5b	-0.070278846
170	0x3d821d5e	0.063532576
171	0x3d405ce2	0.04696358
172	0xbd313fd9	-0.04327378
173	0x3c8da7a3	0.01729185
174	0x3be68db5	0.0070359358
175	0xbe2585f6	-0.16164383
176	0x3d5f009a	0.054443933
177	0xbb33cec1	-0.0027436467
178	0xbda83551	-0.08213294
179	0x3d1f574f	0.038901623
180	0x3d2a2b2c	0.04154508
181	0x3f2266c1	0.6343804
182	0x3bb23794	0.0054387543
183	0xbdbf5eb2	-0.093442336
184	0x3cff87d3	0.031192696
185	0x3dc8d417	0.09806078
186	0x3d633e66	0.05547943
187	0xbd5dd099	-0.054154012
188	0x3d2ad00e	0.041702323
189	0xbba8b99a	-0.0051490786
190	0x3dcc1a45	0.09965948
191	0x3ce2fe16	0.027709048
192	0xbd50f61a	-0.05101595
193	0xbdf944fc	-0.12171361
194	0x3d900e97	0.07034033
195	0xbd508f1d	-0.050917733
196	0xbd908f70	-0.070586085
197	0x3da32e0e	0.079677686
198	0x3e896d7e	0.26841348
199	0xbd964934	-0.07338181
200	0x3c9575e3	0.01824469
201	0xbc0740e6	-0.008255219
202	0xbdc6baac	-0.097035736
203	0x3d52e836	0.051490985
204	0x3db73db2	0.08947314
205	0xbe08049a	-0.13283005
206	0xbdc02689	-0.0938235
207	0xbc3795b8	-0.011205129
208	0x3d52aa05	0.051431675
209	0x3c9f584d	0.019451285
210	0xbbce6be3	-0.006299482
211	0x3b5f9d7f	0.0034120975
212	0x3e08ea04	0.1337052
213	0xbcf56d55	-0.02995936
214	0xbc24914a	-0.010044405
215	0xbdec84f5	-0.11548797
216	0xbc9b6619	-0.018969582
217	0x3e0039e5	0.12522085
218	0x3d3253d4	0.043536976
219	0x3dc43aba	0.09581514
220	0xbb870350	-0.004120268
221	0x3d91c21b	0.07117101
222	0xbe580445	-0.21095379
223	0xbe3230d5	-0.1740144
224	0x3d593ef0	0.053038538
225	0x3bb38b62	0.005479262
226	0xbd0c6e46	-0.034284852
227	0x3d5d759e	0.054067247
228	0x3d60ae2f	0.054853614
229	0xbd8f98bd	-0.070115544
230	0x3d8268cb	0.06367644
231	0x3da4d550	0.08048499
232	0x3d908a5a	0.070576385
233	0xbeb01f8a	-0.34399062
234	0xbde02f2e	-0.10946499
235	0x3db274c5	0.08713678
236	0x3cb6d7e5	0.022319743
237	0x3dc162c2	0.09442665
238	0xbd30a0be	-0.043122046
239	0x3d7c9102	0.061661728
240	0xbcb96b24	-0.022634096
241	0xbcc94cf7	-0.024572833
242	0xbd85b18a	-0.065280035
243	0x3df567d1	0.11982692
244	0x3c01f633	0.007932234
245	0xbe85bec6	-0.2612211
246	0xbaebf88d	-0.0018003151
247	0xbd550e24	-0.05201544
248	0xbe1e87f0	-0.15481544
249	0xbcb8bd17	-0.022551103
250	0x3cf58b74	0.029973723
251	0x3db210a8	0.08694583
252	0x3d8ecc0b	0.06972512
253	0xbc371752	-0.011174994
254	0x3ca1f141	0.01976836
255	0xbd423d36	-0.047421657

log_std_linear.weight f4 [1, 256]
0	0xbc9acc3b	-0.018896213
1	0xb81443a0	-3.534893e-05
2	0xbd154438	-0.03644201
3	0x3be6c991	0.0070430716
4	0x3d86cbf2	0.06581868
5	0xbdc7895f	-0.09742998
6	0x3ca8aa6a	0.020589072
7	0x3db9a067	0.090637974
8	0x3d97bf2f	0.07409512
9	0x3bd01386	0.0063499836
10	0xbc9b1b01	-0.018933775
11	0x3bda2a6c	0.006657889
12	0xbc3e028d	-0.011597288
13	0x3be3fdfc	0.0069577675
14	0xbc7c3f72	-0.015395986
15	0xbed8d54c	-0.42350233
16	0x3cabb484	0.0209601
17	0xbdaa089f	-0.083024256
18	0xbc09c0ea	-0.008407811
19	0xbc9a1be0	-0.01881212
20	0x3d2f7e94	0.042845324
21	0x3b34867c	0.002754598
22	0x3d05b3db	0.032642227
23	0xbbaa0406	-0.005188468
24	0x3d6f378a	0.058402576
25	0x3b17c265	0.002315664
26	0x3d070d61	0.032971743
27	0xbccbe6d0	-0.024890333
28	0xbd097299	-0.033556554
29	0x3c00ec6d	0.007868868
30	0xbc4dac77	-0.012553326
31	0x3dae02bf	0.084966175
32	0xbbe8a96e	-0.0071002757
33	0x3dbc644d	0.09198818
34	0xbcfb5909	-0.030682104
35	0x3c107693	0.008817333
36	0xbdb4be67	-0.08825379
37	0x3c993e1a	0.01870637
38	0xbcf1baef	-0.029508082
39	0xbcf946d3	-0.03042928
40	0xbb6eba13	-0.0036426827
41	0x3c620827	0.013795889
42	0x3d097820	0.033561826
43	0x3ccab9b2	0.02474675
44	0x3e03893a	0.12845317
45	0x3e668af8	0.2251395
46	0x3c5eaec2	0.01359147
47	0x3bff145c	0.0077844094
48	0x3c90dd50	0.017683655
49	0x3db59c9e	0.08867763
50	0x3cb4dd43	0.022078162
51	0xbbd5fdf1	-0.0065305163
52	0x3d9cdb44	0.07659009
53	0x3b9b64cd	0.004742241
54	0x3d4c3ab2	0.049860664
55	0xbbd8458d	-0.006600088
56	0xbdc04ea2	-0.09389998
57	0xbcea652d	-0.028612697
58	0x3ca7d792	0.020488534
59	0x3cc4ec17	0.024038358
60	0xbba3442f	-0.0049824934
61	0xbb4b1783	-0.0030989356
62	0xbd11b5da	-0.035573818
63	0xbdc86479	-0.09784789
64	0xbc16214c	-0.009163212
65	0x3bde4547	0.006783161
66	0x3c17aa55	0.009256919
67	0x3d84e6eb	0.064893566
68	0x3c419d86	0.011817342
69	0xbc8bec55	-0.017080465
70	0x3cd1dbda	0.025617529
71	0x3c62ce2c	0.0138431005
72	0x3c8e6247	0.017380847
73	0x3c577f17	0.013152859
74	0x3c837461	0.016046705
75	0x3dd25f75	0.10272113
76	0x3b97f530	0.004637383
77	0x3c9b5750	0.018962532
78	0x3d1638d4	0.03667529
79	0xbc34da86	-0.011038428
80	0xbc73a88e	-0.01487173
81	0x3df4dddf	0.11956381
82	0xbcbc1e63	-0.022963708
83	0x3a9b30df	0.0011840126
84	0x3bba0cc3	0.005677791
85	0x3bc8686f	0.006115965
86	0xbc399a8d	-0.011328352
87	0xbd809202	-0.06277849
88	0x3c03ce3e	0.008044777
89	0x3cd460cb	0.02592506
90	0x3d1fab7d	0.038981903
91	0xbae61ec4	-0.0017556776
92	0x3b002630	0.0019554012
93	0x3e0b0aec	0.13578385
94	0xb9f9a3fc	-0.0004761516
95	0x3bc48db0	0.005998336
96	0x39e79be4	0.000441759
97	0x3aed520d	0.0018106118
98	0x3c201b5e	0.00977215
99	0xbd871f37	-0.06597751
100	0xbb8fec9c	-0.0043922197
101	0xbcee6177	-0.02909921
102	0x3b25f329	0.0025321937
103	0xbbb307b1	-0.0054635634
104	0x3c2c8287	0.010529167
105	0xbc3c69aa	-0.011499802
106	0xbd5de0ae	-0.05416935
107	0xbcce366c	-0.025172435
108	0x3b2ae853	0.0026078417
109	0x3cb54eff	0.022132395
110	0x3c2a225f	0.010384171
111	0x3d2410f9	0.04005525
112	0x3b7c9f8b	0.0038547243
113	0x3cdda68b	0.027056953
114	0xbd5c70a2	-0.053818353
115	0xbb4a0866	-0.003082776
116	0x3c625ce4	0.013816092
117	0xbcf09816	-0.029369395
118	0x3d108961	0.035287265
119	0x3c532368	0.0128868595
120	0x3cedf7fc	0.029048912
121	0xbd989923	-0.074510835
122	0x3c0421bd	0.008064684
123	0xbcd7a38c	-0.026323102
124	0xba5452a3	-0.0008099472
125	0x3d35bbb2	0.044368453
126	0x3cda329a	0.026635457
127	0xbc487390	-0.0122345835
128	0x3ba0be02	0.004905463
129	0xbceaa039	-0.028640853
130	0xbd6eb3e1	-0.058277015
131	0x3b24038f	0.0025026535
132	0x3bbde246	0.005794796
133	0xbac45596	-0.001497912
134	0x3baa3431	0.00519421
135	0x3cdc75cb	0.026911637
136	0x3dd484d1	0.10376895
137	0x3d0c1cf5	0.034207303
138	0xbc402867	-0.011728383
139	0x3bee5658	0.0072734766
140	0x3c002ef5	0.007823695
141	0x3c9fd5fe	0.01951122
142	0xbc1b0661	-0.00946197
143	0xbc3e4297	-0.011612556
144	0x3e0aa388	0.13538945
145	0xbbefd209	-0.0073187393
146	0x3ce56c8a	0.028005857
147	0xbb951bba	-0.0045504244
148	0x3d35c6fa	0.044379212
149	0xbd8eb8db	-0.06968852
150	0xbbe96bac	-0.007123431
151	0x3cc3e493	0.023912704
152	0xbcd827cb	-0.026386162
153	0x3d089a54	0.033350304
154	0xbd0987e5	-0.033576865
155	0xbcd84bfa	-0.026403416
156	0xbc99f512	-0.018793616
157	0xbcc99295	-0.024606029
158	0x3d049e68	0.03237763
159	0xbd23c709	-0.039984737
160	0xbad16be2	-0.0015977586
161	0x3c157d03	0.009124043
162	0xbcfb1bfd	-0.030652994
163	0x39fab16a	0.000478159
164	0xbb9067d1	-0.004406907
165	0x39a23af3	0.00030942968
166	0x3beb3c7d	0.0071788416
167	0x3c8622d9	0.016374039
168	0xbace4996	-0.0015738483
169	0xbcc7ea01	-0.024403574
170	0x3c8f0c8b	0.017462036
171	0x3c19e53d	0.009393034
172	0x3bbaafbc	0.0056972187
173	0x3d649cbe	0.055813543
174	0x3c45e60c	0.012078773
175	0xbcd5998d	-0.026074195
176	0x3bcf1761	0.0063199257
177	0xbc3766e6	-0.0111939665
178	0xbb583cd6	-0.0032995245
179	0x3c2e701c	0.010646846
180	0x3b9ecd86	0.0048462776
181	0x3ee49627	0.44645807
182	0xbdc2686f	-0.094925754
183	0xbc986591	-0.018603118
184	0xbb70c1c9	-0.0036736599
185	0x3cbbf3c7	0.02294339
186	0x3c4ee955	0.012628873
187	0x3c7388ee	0.01486419
188	0x3c70758e	0.014676465
189	0xbc94c31c	-0.018159442
190	0x3c3dd58b	0.011586557
191	0x3bd6b5b5	0.006552423
192	0x38ee7579	0.00011370605
193	0xbba0708e	-0.00489623
194	0xbd9cdf8d	-0.076598264
195	0xbc35ed32	-0.011103915
196	0xbc397a55	-0.01132067
197	0x3c6db99e	0.014509587
198	0x3e2d75a3	0.16939406
199	0xbb85ab49	-0.0040792567
200	0x3d58fc74	0.052975133
201	0xbd9fd5ee	-0.07804476
202	0x3e0794a4	0.13240296
203	0xbc664a14	-0.014055748
204	0x3c1e50fe	0.009662865
205	0x3aeb4c7a	0.0017951869
206	0xbc9108f3	-0.017704463
207	0x3c510813	0.012758273
208	0x3c83a96f	0.016072003
209	0x3c7a4fa8	0.015277781
210	0xbb576f63	-0.0032872788
211	0x3d3f2bfd	0.04667281
212	0x3af0047f	0.0018311887
213	0xbdd015fd	-0.10160444
214	0xbcfe3613	-0.031031644
215	0xbcfe8633	-0.03106985
216	0xbc7b2137	-0.015327743
217	0x3e452c48	0.19255173
218	0xbd90c0a7	-0.070679955
219	0x3c9c18e6	0.019054841
220	0x3ace028b	0.0015717311
221	0xbb76a8a0	-0.003763713
222	0xbd83fc71	-0.06444634
223	0x3d197947	0.037469175
224	0x3b833c64	0.004005002
225	0x3c78a186	0.015175229
226	0xbbe087dd	-0.0068521337
227	0x3bc10b34	0.005891228
228	0xbd57fa08	-0.052728683
229	0xbc3da32e	-0.01157455
230	0x3c8981e1	0.016785564
231	0xbb42ebbb	-0.0029742557
232	0x3be0095e	0.006837054
233	0x3e012e63	0.12615351
234	0x3cb8f282	0.022576574
235	0xbbb5e2c4	-0.005550714
236	0x3d7b8926	0.06141009
237	0x3d0b0745	0.03394248
238	0x3b3b18b8	0.002854867
239	0xbd2e7bba	-0.042598464
240	0xbc296bcb	-0.010340641
241	0x3c5bf8c1	0.013426007
242	0x3b17cb26	0.0023161857
243	0xbbec5380	-0.0072121024
244	0x3c1b9017	0.009494803
245	0xbd50dbf7	-0.050991025
246	0x3d4754ab	0.04866473
247	0xbc46fb20	-0.012144834
248	0xbcbdadaf	-0.023154108
249	0x3d65cb02	0.056101806
250	0x3c206aa2	0.009791048
251	0x3d0fc2e6	0.03509798
252	0x3cb31cb4	0.021864273
253	0xbdadfabf	-0.08495092
254	0x3d2e90f0	0.042618692
255	0xbc3254e3	-0.010884496
