model/sac_ff_sac_ff/agent2_sac_ff_q2_2000000.pth (torch, 275871 bytes, 5 tensors)

fc1.weight f4 [256, 8]
0	0xbd0c71c9	-0.0342882
1	0x3e15c8d4	0.14627391
2	0xbe0d769c	-0.13814777
3	0xbdac653f	-0.08417749
4	0x3dcabec9	0.09899671
5	0xbd540338	-0.051760882
6	0xbd51b4c4	-0.051197782
7	0xbcab8362	-0.020936672
8	0x3b52bc38	0.0032155644
9	0xbe03bd42	-0.12865165
10	0xbd55b899	-0.052178
11	0xbb4e9ad2	-0.0031525386
12	0x3d77b17a	0.06047199
13	0xbda4a24d	-0.08038769
14	0x3d03a283	0.032137405
15	0x3cd49753	0.025951063
16	0xc00cc22a	-2.1993508
17	0xbd33431d	-0.043765176
18	0xbd9ad5a2	-0.075602785
19	0x3d7cb25a	0.061693527
20	0x3e3a4884	0.18191725
21	0xbd6b417e	-0.057435505
22	0xbe6edaba	-0.23325625
23	0x3e799d2b	0.24376361
24	0xbfd78812	-1.68384
25	0x3ebd78d0	0.37006235
26	0xbc8fb08b	-0.017540237
27	0xbda3881a	-0.07984944
28	0x3ec42b1d	0.38314143
29	0xbc603899	-0.013685369
30	0x3be3ee8a	0.0069559263
31	0x40a085d1	5.016335
32	0x3d80f7ed	0.06297288
33	0x3d85fa9f	0.06541943
34	0xbce96a1a	-0.028492976
35	0xbcee095e	-0.029057201
36	0x3da4402b	0.080200516
37	0xbdb80131	-0.08984602
38	0xbcd46151	-0.02592531
39	0x3e0c6ee5	0.13714178
40	0xbfa69fca	-1.3017514
41	0x3e5260c8	0.20544732
42	0xbcac9f7c	-0.021072142
43	0x3e304f18	0.17217672
44	0xbe2705cc	-0.16310805
45	0xbc9f89cf	-0.019474892
46	0x3b516887	0.0031953172
47	0x3f4abfb2	0.79198754
48	0xbe05ddd2	-0.13072899
49	0xbc871451	-0.01648918
50	0xbd8f15bc	-0.069865674
51	0x3dc98191	0.09839166
52	0x3d6ead46	0.058270715
53	0xbe087482	-0.13325694
54	0xbd81dcec	-0.06340966
55	0x3d802f9e	0.06259082
56	0xbd77405d	-0.060364116
57	0x3e4585cf	0.19289325
58	0xba80cfbd	-0.0009827536
59	0xbecaa85d	-0.39581576
60	0xbe5f11fd	-0.21784206
61	0xbd984b43	-0.0743623
62	0x3e2043e2	0.15650895
63	0xbfcab322	-1.5835917
64	0xc0114cb9	-2.2703078
65	0xbf13c99a	-0.57729495
66	0xbcaeaaf2	-0.021321747
67	0xbec8d712	-0.39226586
68	0xbf32275b	-0.695913
69	0xbcf47c6e	-0.029844489
70	0x3eabaf87	0.33532354
71	0xbe5be794	-0.21475059
72	0x3df0feff	0.11767387
73	0xbe010b66	-0.12602004
74	0x3ca335ca	0.01992311
75	0x3ddeb1dc	0.10873768
76	0xbd9502cf	-0.07275926
77	0xbe20dd41	-0.15709402
78	0x3dc9f77a	0.098616555
79	0xbe419a61	-0.18906547
80	0xc0807913	-4.0147796
81	0x403d86cc	2.9613523
82	0xbe444809	-0.19168104
83	0xbfa7adec	-1.3099952
84	0x3fa4948d	1.2857834
85	0x383b047b	4.4588447e-05
86	0xbb5cd1d9	-0.0033694415
87	0x3e2342cb	0.15943448
88	0xc02fa9e9	-2.7447455
89	0xbf5c726d	-0.861121
90	0x3d4ad90e	0.049523406
91	0x3e87c490	0.26517153
92	0xbcd9bfcc	-0.026580714
93	0xbc05821f	-0.008148699
94	0x3e180fae	0.14849731
95	0x4055901e	3.3369212
96	0xbdd0611f	-0.101747744
97	0x3d59846f	0.053104814
98	0x3983284e	0.00025016296
99	0x3d8fad0a	0.070154265
100	0x3e14ca01	0.14530183
101	0xbddb9098	-0.107209384
102	0xbe02c3bb	-0.12769978
103	0xbd98d1b0	-0.0746187
104	0xbf6430bf	-0.8913688
105	0x3ecd7a1b	0.40132222
106	0xbd3292a2	-0.04359687
107	0xbf594e04	-0.8488467
108	0x4005c539	2.0901625
109	0xbc47d952	-0.012197809
110	0xbcb63adb	-0.022244861
111	0x410f9f5e	8.976408
112	0x3f801c26	1.000859
113	0xbed55585	-0.4166681
114	0xbac1de48	-0.0014790976
115	0x3d6a0261	0.057131175
116	0x3c7f25bc	0.015572961
117	0xbd8bd09b	-0.06826898
118	0x3d1001bd	0.035157908
119	0xbf1ca5dd	-0.6119059
120	0x3c4e59d8	0.012594663
121	0xbdbbeee4	-0.09176424
122	0xbd4366eb	-0.047705572
123	0x3e13b564	0.14424664
124	0xbdbf234d	-0.09332905
125	0xbe1911cd	-0.14948197
126	0x3d9be240	0.07611513
127	0xbdd67bc4	-0.10472825
128	0x40818797	4.0478015
129	0x3f6b35af	0.9187879
130	0xbd3e7895	-0.046501715
131	0xbff76607	-1.9328011
132	0x3f43ff97	0.76561874
133	0xbca9556a	-0.020670611
134	0x3c6df76e	0.014524324
135	0x3f9f165d	1.24287
136	0x3fa71b6f	1.3055247
137	0xbe81fcbb	-0.2538813
138	0x3c14719f	0.0090602925
139	0x3f9d8742	1.2306902
140	0xbf2a93e8	-0.6663194
141	0xbd17df6a	-0.0370783
142	0x3aac9192	0.0013165942
143	0x405979da	3.3980622
144	0x400b49ec	2.1763868
145	0x3e1adf7b	0.15124314
146	0xbc5785ac	-0.013154428
147	0xbe9b28c7	-0.30304548
148	0xbe01536a	-0.12629476
149	0xbdc8115f	-0.09768938
150	0xbdce7733	-0.10081329
151	0xbfa75fee	-1.307615
152	0xbfc621f2	-1.5479109
153	0xbd2dc7d2	-0.04242689
154	0xbd95683c	-0.07295272
155	0x3f14db82	0.5814744
156	0x3dfa55b4	0.12223378
157	0xbe011230	-0.12604594
158	0xbf29f2da	-0.6638619
159	0x3fb49e9d	1.4110905
160	0xbd4cb9b1	-0.049981777
161	0x3c9730d3	0.018455898
162	0xbdcdf084	-0.1005564
163	0x3da2b69f	0.079449885
164	0xbbb45e81	-0.00550443
165	0xbd2a936b	-0.041644495
166	0xbd1e7211	-0.038683
167	0x3dfdc9eb	0.123920284
168	0x3d7a7afc	0.061152443
169	0x3d2e3ab9	0.04253647
170	0xbe186ac1	-0.14884473
171	0x3d80ef40	0.06295633
172	0xbc84ce2d	-0.016211594
173	0xbe06aefc	-0.13152689
174	0xbca3c743	-0.019992476
175	0x3e16240d	0.1466219
176	0xbe0550fe	-0.13019177
177	0x3f0f0546	0.5586742
178	0xbcff4706	-0.031161796
179	0x3e41c675	0.18923362
180	0x3f059714	0.5218365
181	0xbc9e858f	-0.019350795
182	0xbd2d972e	-0.042380504
183	0x3fef7a6f	1.8709239
184	0xbe00940c	-0.12556475
185	0x3d4008d7	0.04688343
186	0xbcdad014	-0.026710548
187	0x3dc2b92f	0.09507977
188	0xbe143c37	-0.14476095
189	0xbcc8695c	-0.024464302
190	0x3d7f2fb1	0.06230134
191	0xbe0c2b21	-0.13688327
192	0xc0516ffb	-3.2724597
193	0xbee0290c	-0.43781316
194	0xbea91266	-0.3302185
195	0xbe4a0e8a	-0.19732109
196	0xbe5beb74	-0.21476537
197	0xbcd2c250	-0.025727421
198	0x3e91c759	0.28472403
199	0xbfbb97a0	-1.4655647
200	0xbfa542bd	-1.2910992
201	0x3e56730b	0.20942323
202	0xbc4bf586	-0.012448674
203	0x3d6d8bab	0.057994526
204	0xbe8544ae	-0.2602896
205	0xbd27131b	-0.040789705
206	0x3e3e9791	0.18612505
207	0xbe54e6bb	-0.20791142
208	0xbe1d7acb	-0.15378873
209	0x3e46b5af	0.19405244
210	0xbd4e55d8	-0.050374836
211	0x3e6a3de8	0.22875178
212	0x3e8b0e14	0.27159178
213	0xbe3dcc77	-0.18535028
214	0x3e9dfe55	0.30858102
215	0x3def2bd1	0.11678279
216	0x3f246f0a	0.6423193
217	0x3f108498	0.5645232
218	0x3ccc7e99	0.02496271
219	0xc0ba0528	-5.8131294
220	0x3ed60015	0.41796938
221	0xb96f9315	-0.00022847608
222	0xbe038a03	-0.12845616
223	0xbe9d4330	-0.30715322
224	0x40a0c279	5.0237393
225	0xbe90e19f	-0.28297135
226	0x3c30cb4c	0.010790657
227	0x3ff8a3fb	1.9425043
228	0xc02697f4	-2.6030245
229	0xbc495313	-0.012287873
230	0x3c664efb	0.014056916
231	0xbf16403b	-0.5869176
232	0x3f10eeec	0.56614566
233	0xbf02bff8	-0.5107417
234	0xbdd84e56	-0.105618164
235	0x3ea4055d	0.32035342
236	0x3c916d6c	0.017752372
237	0xbd3b1dd2	-0.045682736
238	0xbe5f501d	-0.21807905
239	0x3feb945d	1.8404652
240	0xbd425eed	-0.04745381
241	0x3caf762e	0.021418657
242	0x3bc8a965	0.006123709
243	0x3dcb8d22	0.09939028
244	0xbe15a517	-0.14613758
245	0xbdf76261	-0.12079311
246	0x3dbbe36d	0.091742374
247	0xbc9462a4	-0.018113442
248	0xbf1231c7	-0.57107204
249	0x3e864da9	0.26231125
250	0xbe92733f	-0.2860355
251	0xbd1970bb	-0.037461024
252	0xbd19a800	-0.037513733
253	0x3afe6597	0.0019408938
254	0x3c402789	0.011728176
255	0xbe9337bb	-0.28753456

fc1.bias f4 [256]
0	0x3e3c29ea	0.18375364
1	0xbe9d3f14	-0.30712187
2	0x40776611	3.8656046
3	0x41a6511b	20.789602
4	0x3e534636	0.20632252
5	0x408daf0a	4.427617
6	0x3a971100	0.0011525452
7	0x40241b80	2.5641785
8	0x403bbd4d	2.933429
9	0x3ea44a38	0.32087874
10	0x3eafd533	0.34342346
11	0x41af57fe	21.917965
12	0xbe4e5217	-0.20148502
13	0xc1728aaf	-15.158858
14	0xbdf50651	-0.119640954
15	0x3e892f73	0.26794013
16	0xbf98643a	-1.1905587
17	0xc18ad1a3	-17.352362
18	0xc00add48	-2.169756
19	0x409d70fd	4.9200425
20	0x3e8ccde5	0.27500835
21	0xbdcb9bb8	-0.0994181
22	0x41adf987	21.74684
23	0x3e530912	0.20608929
24	0x405a8739	3.4145033
25	0x409f8927	4.985492
26	0x40397574	2.8977938
27	0xbaa61626	-0.0012671396
28	0xc11ca3e0	-9.790009
29	0xbe87e5d7	-0.2654254
30	0xbe817699	-0.25285795
31	0x3f2a5336	0.6653322
32	0xbe0a7a99	-0.1352333
33	0x41977cb4	18.93589
34	0xbe329725	-0.1744047
35	0x3e857901	0.2606888
36	0xc0d09258	-6.517864
37	0xbedab0a5	-0.42712894
38	0xbe8b2395	-0.27175584
39	0x409ad99e	4.8390646
40	0x4092d7f3	4.588861
41	0xc045e010	-3.0918007
42	0x4102bf96	8.171774
43	0x4127e36a	10.493021
44	0x410a662b	8.649943
45	0xc0b2984f	-5.5810924
46	0x3e932a15	0.28743044
47	0xc1ac53d4	-21.540932
48	0x41467f2c	12.406048
49	0x40914e1a	4.540784
50	0x41472c52	12.44832
51	0xc0b265a3	-5.574907
52	0xbe8dfc37	-0.27731487
53	0xc130e836	-11.056692
54	0x3e540d3e	0.20708176
55	0x3e7eb94e	0.24875376
56	0x40861f24	4.1913013
57	0xc0edef79	-7.4354825
58	0xbe40bde1	-0.18822433
59	0xbddf27e2	-0.10896279
60	0x4065a780	3.5883484
61	0xbf4b35ff	-0.79379267
62	0x3fe66310	1.7998981
63	0xc09dabf4	-4.9272404
64	0x41220f49	10.128732
65	0x40a92ce2	5.286729
66	0x40044da4	2.0672388
67	0x40841bd5	4.1283975
68	0xbe5c49f1	-0.21512581
69	0x414e909a	12.910303
70	0x40a28b4d	5.0795045
71	0xc1aedf55	-21.859049
72	0x41a34f50	20.413727
73	0x3e114fba	0.1419057
74	0xc11a3a37	-9.639213
75	0x4098d4c9	4.7759748
76	0x40419843	3.0249183
77	0x3f776c9f	0.9665012
78	0x40d5edfd	6.6853013
79	0x3c2ef020	0.010677367
80	0x413e39c8	11.889107
81	0xc0e8c965	-7.2745843
82	0xbfe10956	-1.7580974
83	0x3f286f3b	0.65794724
84	0xc1055585	-8.333379
85	0xbea28c63	-0.31747732
86	0xc0fddd64	-7.933275
87	0xbe6768b8	-0.22598541
88	0xbe22421a	-0.15845528
89	0x409c6d52	4.888345
90	0x40c2e99e	6.0910177
91	0xc07e4b9c	-3.9733648
92	0xbfe8b862	-1.8181269
93	0x413f4361	11.95395
94	0x40a2ec52	5.0913477
95	0xc009e672	-2.1546903
96	0x4065a8cd	3.5884278
97	0xc082c7e8	-4.0869026
98	0xc0dd11a9	-6.908406
99	0x3f9f0171	1.2422315
100	0x4004866c	2.0707045
101	0x3d8c9c64	0.06865767
102	0x3fa25252	1.2681372
103	0xc0416a31	-3.0221064
104	0xbff63174	-1.9233842
105	0x3e620076	0.22070488
106	0xc13be512	-11.743425
107	0x3e8f8f79	0.28039148
108	0x40b17732	5.5458
109	0x40d96567	6.793628
110	0xc0a55dfb	-5.167722
111	0xc1154f61	-9.33188
112	0xbfefdc83	-1.873917
113	0x3f337d45	0.7011302
114	0x408bd791	4.3700643
115	0x40c07cd7	6.0152392
116	0xbf7d2f8f	-0.98900694
117	0xc1c7394d	-24.902979
118	0x3f8a2618	1.0792875
119	0xbe192bf4	-0.14958173
120	0xc0a4956f	-5.1432414
121	0x403dec3f	2.9675443
122	0xc1ace37f	-21.611082
123	0xc12a7105	-10.652593
124	0xc11014e8	-9.005104
125	0x3e77bbda	0.24192753
126	0x3abef700	0.0014569461
127	0x40593954	3.394124
128	0xc11fd856	-9.990316
129	0xbf88b858	-1.0681257
130	0xbdecb70c	-0.11558351
131	0xc049e6a0	-3.1547012
132	0x408ade72	4.339654
133	0xc0acbf8e	-5.398383
134	0xc132670f	-11.150161
135	0xbfd48c48	-1.660531
136	0x40a32747	5.0985446
137	0x3c0e1bf1	0.008673654
138	0x3d9da37c	0.07697198
139	0xc1012acd	-8.072949
140	0x3eae7683	0.34074792
141	0xbe8996f7	-0.2687299
142	0xc03230f3	-2.7842376
143	0x4071718a	3.7725549
144	0xbeb154c0	-0.34634972
145	0x3e0e253e	0.13881394
146	0x401bbcef	2.4334066
147	0xc1926609	-18.299822
148	0xbb13e800	-0.0022568703
149	0xc0dea4e1	-6.957627
150	0x3ef1918b	0.47181353
151	0xbe43025b	-0.19043867
152	0x40801743	4.0028396
153	0xbdc59128	-0.09646827
154	0x3e682f6e	0.22674343
155	0xc028c8e0	-2.6372604
156	0xc11df034	-9.871143
157	0xc1b9e5bd	-23.237177
158	0x3ea8d8a9	0.329778
159	0x3feff154	1.8745522
160	0xbfff844e	-1.9962251
161	0xc1b7a6a2	-22.956364
162	0x3e60742a	0.21919313
163	0xc169a09a	-14.601709
164	0xbf4eb07a	-0.8073803
165	0xbdfaf1d2	-0.12253155
166	0xc055964a	-3.337298
167	0x40b267ab	5.575155
168	0xc1db5707	-27.417494
169	0xbe3cec5e	-0.18449542
170	0x402a31e1	2.6592944
171	0xbe00cad8	-0.12577379
172	0x40924289	4.570622
173	0x4078b6f7	3.8861673
174	0x4026fc47	2.6091478
175	0xc1025823	-8.146518
176	0xbe45dbec	-0.19322175
177	0xbf8727da	-1.0559037
178	0xbe849ad4	-0.25899374
179	0x3e5a0d32	0.21294096
180	0xbfb7072c	-1.4299064
181	0xc0daa41d	-6.8325334
182	0xc0a17445	-5.045443
183	0x40d4d9a9	6.65157
184	0xbcd5f310	-0.026116878
185	0xbdf2729c	-0.11838266
186	0x3e0c89fe	0.13724515
187	0xc1a3b1b9	-20.461779
188	0x3e8adbef	0.2712092
189	0x409486de	4.6414633
190	0x40a36bed	5.1069245
191	0xc0536f42	-3.3036656
192	0x408c6ae5	4.3880486
193	0x3e860541	0.26175883
194	0xc0fb5a2a	-7.8547564
195	0xbf98f064	-1.1948361
196	0x41ad791d	21.684137
197	0xc107b366	-8.481298
198	0x3f455c7c	0.77094245
199	0xc11a1c2d	-9.631879
200	0xc11a1972	-9.631212
201	0x3dd3b1e0	0.10336661
202	0xc0ae403f	-5.4453425
203	0x3e0b1949	0.13583864
204	0xc09bf553	-4.873697
205	0xc12493ae	-10.286055
206	0xc098f0a6	-4.779376
207	0xbf7a97aa	-0.9788767
208	0x416013c0	14.004822
209	0xbc9820b0	-0.018570274
210	0xc04d5490	-3.2082863
211	0xc0caba61	-6.3352513
212	0xbca5ba60	-0.020230472
213	0x408d5551	4.4166646
214	0x3e411dd2	0.18859032
215	0x4099962c	4.7995815
216	0x3df9a154	0.12188974
217	0xc102fb2c	-8.186321
218	0x4051bf87	3.277315
219	0xc07eaff1	-3.9794886
220	0xc0d207f2	-6.56347
221	0xc05651c9	-3.3487418
222	0x400147ac	2.0199995
223	0xbcde8690	-0.027163774
224	0xc0d74ddd	-6.728255
225	0x4099e8b1	4.8096547
226	0x415ce7f7	13.806632
227	0x3db356cc	0.087567896
228	0x40e6099c	7.188673
229	0xc120d244	-10.051334
230	0xbdd048e8	-0.10170156
231	0xbf68b149	-0.90895516
232	0x40b7fc85	5.749575
233	0x40818f90	4.0487747
234	0x3ea3df37	0.32006237
235	0xbf38d4fd	-0.72199994
236	0x406a63fc	3.6623526
237	0x4084d134	4.1505375
238	0x41568b0c	13.408947
239	0xbee5e37c	-0.4490012
240	0x4104cb05	8.299565
241	0xc169d38d	-14.614148
242	0x3ea6e3e1	0.32595733
243	0xc05b20e2	-3.423882
244	0x409ceb21	4.9037023
245	0x403aa8bf	2.9165494
246	0x407f2d32	3.9871335
247	0xc0516ba0	-3.272194
248	0x41412940	12.072571
249	0xbe030509	-0.1279489
250	0xc1008d2e	-8.034468
251	0xc03d849d	-2.961219
252	0x3dc7ecf8	0.09761995
253	0xbfa3bd6d	-1.2792183
254	0xbd7f1010	-0.062271178
255	0x3cbb7450	0.02288261

fc2.weight f4 [256, 256]
0	0x3d9399d6	0.07207076
1	0xbd355621	-0.044271592
2	0x3b7ce58e	0.0038588974
3	0xbe005c49	-0.12535204
4	0xbd9c6065	-0.07635573
5	0x3bbabee3	0.005699025
6	0x3dc9d247	0.0985456
7	0x3cc25c1b	0.02372556
8	0xbf99fb2c	-1.2029777
9	0xbdd7f334	-0.10544434
10	0x3e127690	0.1430304
11	0xbd1f49b6	-0.038888656
12	0xbc913b9b	-0.017728617
13	0xbdc18996	-0.094500706
14	0x3dbaf806	0.09129338
15	0xbcc097de	-0.023509916
16	0x3daffbb4	0.085929304
17	0xbdbf7f9d	-0.09350512
18	0x3e1f132a	0.15534654
19	0xbf8e8bf2	-1.1136458
20	0x3db992af	0.09061181
21	0xbdd8c158	-0.105837524
22	0x3e3e5995	0.1858886
23	0x3daddf8c	0.08489904
24	0x3eb82edc	0.3597325
25	0x3d7a3cc0	0.061093092
26	0x3dac868e	0.08424102
27	0x3ebc2a0c	0.3675083
28	0xbd14f46e	-0.03636592
29	0x3f906866	1.128186
30	0xbdaea166	-0.08526878
31	0xbe01d442	-0.12678626
32	0x3d97b4b6	0.07407515
33	0x3e089263	0.13337092
34	0x3ff654bd	1.924461
35	0x3d6b8e30	0.057508647
36	0x3e51a683	0.20473675
37	0x3e33602b	0.17517154
38	0x3c8443ea	0.016145665
39	0xbca27a78	-0.019833788
40	0x3a3d4460	0.00072199665
41	0x3e2be109	0.16785063
42	0x3e39e3db	0.18153326
43	0xbc0fd04b	-0.008777688
44	0xbec04a1a	-0.37556535
45	0x3d7ae422	0.06125272
46	0x3dba7c19	0.09105701
47	0xbcbc9a90	-0.02302292
48	0xbd4eb7fc	-0.05046843
49	0x3d4aaceb	0.049481314
50	0x3cf6c744	0.030124314
51	0xbd86d807	-0.06584173
52	0xbca9927c	-0.020699732
53	0x3daf6e38	0.085659444
54	0x3d71a204	0.0589924
55	0x3dc53df1	0.09630955
56	0xbdd88d17	-0.10573786
57	0x3cf417cd	0.029796505
58	0x3d806e2e	0.06271015
59	0x3dcc1fc1	0.09966994
60	0xbd9c3b47	-0.07628494
61	0x3bd2da26	0.0064346967
62	0xbd4fa174	-0.050691083
63	0x3d100c65	0.03516807
64	0x3d430e9a	0.047621347
65	0x3eb91c8f	0.361546
66	0x3eaaac7b	0.33334717
67	0x3e3bcb55	0.18339284
68	0xbdc015b3	-0.09379139
69	0x3c4efcd1	0.012633518
70	0x3bf6e850	0.007535018
71	0x3e608416	0.21925387
72	0xbe33a10c	-0.17541903
73	0x3db9c712	0.09071173
74	0x3e285173	0.1643732
75	0xbda0ba5c	-0.07848045
76	0xbedfa21c	-0.43678367
77	0x3c980b04	0.01855994
78	0x3c144ca8	0.009051479
79	0xbd6ae591	-0.057347838
80	0x3dcd6291	0.10028566
81	0xbd163cc0	-0.03667903
82	0x3d789589	0.060689483
83	0x3d60aa41	0.054849867
84	0xbccb258b	-0.024798175
85	0xbcad0b48	-0.021123543
86	0x3dea8a60	0.11452174
87	0x3ddae485	0.10688118
88	0x3d92cc8e	0.07167922
89	0x3d3880ca	0.045044698
90	0xbe045be2	-0.12925676
91	0x3eb8c4d2	0.36087662
92	0xbe6f121b	-0.2334675
93	0x3e4963a8	0.19666922
94	0x3d0260a2	0.031830437
95	0x3b24be4a	0.0025137835
96	0xbde204fd	-0.11036108
97	0x3d85c3e7	0.06531506
98	0x3b29d3eb	0.0025913666
99	0x3ee2777e	0.4423179
100	0xbd41543b	-0.04719947
101	0xbd3562c2	-0.044283636
102	0xbd0d09c8	-0.034433156
103	0xba086631	-0.0005203216
104	0x3d877122	0.06613375
105	0xbd67ac5b	-0.056560855
106	0x3e43c7ae	0.1911914
107	0x3db890fa	0.09012027
108	0x3d822aee	0.063558444
109	0xbdfaa580	-0.12238598
110	0x3e84d674	0.25944865
111	0xbe86d494	-0.2633406
112	0x3e0e6a0e	0.13907644
113	0x3d00652b	0.03134648
114	0x3d9baaa6	0.07600908
115	0xbd8b6b16	-0.068075344
116	0x3deff7b4	0.117171675
117	0xbe3113a4	-0.17292649
118	0x3de4c116	0.11169641
119	0xbdb26f0a	-0.08712585
120	0x3e111033	0.14166336
121	0x3dc76461	0.09735943
122	0xbbbdecdc	-0.005796058
123	0x3ec8ca38	0.3921678
124	0x3b3a925c	0.0028468585
125	0xbd590dd5	-0.052991707
126	0x3d6a800e	0.05725103
127	0xbf507e34	-0.8144257
128	0xbe184279	-0.14869107
129	0x3f6eb493	0.93244284
130	0x3d402c1a	0.04691706
131	0x3e0ef25e	0.13959643
132	0x3d8b5a0a	0.06804283
133	0x3dd31023	0.10305812
134	0xbd54995c	-0.051904067
135	0xbea12985	-0.3147699
136	0xbeb6fa14	-0.3573767
137	0xbe9f6b0f	-0.31136367
138	0x3dc261ac	0.09491286
139	0x3b527f7a	0.003211944
140	0xbdc9cd2e	-0.09853588
141	0x3d1a8d96	0.037732683
142	0x3c72f3e3	0.014828655
143	0x3d214cc5	0.039379854
144	0xbcd743c8	-0.026277438
145	0xbd080943	-0.033211958
146	0x3e34544e	0.17610285
147	0x3d82502d	0.063629486
148	0x3cf84818	0.030307814
149	0x3ed95087	0.4244425
150	0x3d7f89a9	0.062387142
151	0xbd8b3542	-0.067972675
152	0x3ca5b2f0	0.020226926
153	0x3d1871f9	0.037218068
154	0x3dc14bf1	0.09438313
155	0x3e32ee0a	0.17473617
156	0x3d508d74	0.05091615
157	0x3d121799	0.035667036
158	0x3dcc92e0	0.09988952
159	0x3d26d33b	0.04072879
160	0x3e0e10bb	0.1387357
161	0x3e0caa97	0.1373695
162	0x3d44d7d3	0.04805739
163	0xbeda23ce	-0.42605442
164	0xbecb299b	-0.3968018
165	0x3dc280e3	0.094972394
166	0xbda7f0bf	-0.082002155
167	0x3da9a15e	0.082827315
168	0xbd66b877	-0.056328263
169	0x3dd8c2ee	0.10584055
170	0xbd8cb263	-0.06869962
171	0xbede7018	-0.43444896
172	0x3e1b7bc6	0.15183935
173	0xbd1191ce	-0.03553944
174	0x3c6bf51e	0.014401702
175	0x3e308643	0.17238717
176	0xbdf2ec55	-0.11861483
177	0x3faeea54	1.3665261
178	0x3c7c0560	0.015382141
179	0xbd75d024	-0.06001295
180	0x3e3f7b8d	0.18699475
181	0xbe1206c8	-0.142604
182	0xbd8090a2	-0.062775865
183	0x3e632190	0.22180772
184	0xbd58c6e1	-0.05292404
185	0x3d6370b0	0.05552739
186	0x3d8e618e	0.06952201
187	0xbe197efa	-0.14989844
188	0x3d14dd6c	0.036343977
189	0xbfb97f1d	-1.4491917
190	0x3d9b4562	0.07581593
191	0xbdcc4fd4	-0.099761635
192	0xbf8940c5	-1.0722891
193	0x3cbaea95	0.022816936
194	0xbe89ab5a	-0.26888543
195	0xbd591af4	-0.05300422
196	0x3e162cd5	0.1466554
197	0x3f061fbb	0.52392167
198	0x3d6a00b5	0.05712958
199	0xbde36fab	-0.11105283
200	0x3e550640	0.20803165
201	0x3ca1c4d2	0.019747172
202	0x3dbb7ef3	0.09155073
203	0x3e840639	0.25785998
204	0x3e00c3e6	0.1257473
205	0xbd097657	-0.033560123
206	0x3d8102f0	0.062993884
207	0x3f448699	0.7676788
208	0x3e41ad49	0.1891376
209	0x3d9391c4	0.07205537
210	0x3dcb426e	0.0992478
211	0xbdba8c28	-0.09108764
212	0xbd264479	-0.040592644
213	0xbf1e9f4c	-0.6196182
214	0xbd8d040c	-0.068855375
215	0x3d2020d2	0.0390938
216	0xbd0adbec	-0.03390114
217	0x3c8da707	0.017291559
218	0x3d690cec	0.05689709
219	0x3f100e7b	0.56272095
220	0x3bfb716b	0.0076734326
221	0x3c7c3302	0.015393021
222	0xbe57141b	-0.21003763
223	0xbc05bc79	-0.008162611
224	0xbe0fe6ec	-0.14052933
225	0xbfb4af6e	-1.4116037
226	0x3e21e741	0.15810873
227	0xbc778917	-0.015108368
228	0xbd15dcf8	-0.036587685
229	0x3f46827a	0.7754284
230	0xbc6e8155	-0.014557202
231	0x3c24c9ca	0.010057876
232	0x3dc0c3f6	0.094123766
233	0x3dd36d41	0.10323573
234	0x3cbc05e1	0.022952022
235	0x3f6ea76d	0.9322422
236	0xbf90be95	-1.1308161
237	0xbdeb9d6f	-0.115046374
238	0xbeb035ad	-0.3441595
239	0x3e114250	0.14185452
240	0x3cfef4de	0.031122621
241	0xbbe8b919	-0.0071021435
242	0x3d29ff85	0.041503448
243	0xbd983518	-0.07432002
244	0xbd947fb6	-0.072509214
245	0xbf8991fa	-1.0747674
246	0xbd989d07	-0.074518256
247	0x3d2d1867	0.0422596
248	0x3f0adc04	0.5424197
249	0x3cbaadf6	0.02278803
250	0xbdfacdbc	-0.12246272
251	0x3a862633	0.0010234773
252	0xbd6a8c06	-0.057262443
253	0xbd31d0e4	-0.043412104
254	0x3d977757	0.07395809
255	0xbd9e0667	-0.07716065

fc2.bias f4 [256]
0	0xbfbaaeb2	-1.4584563
1	0x3fd6030e	1.6719682
2	0xbf91a856	-1.1379497
3	0xbf86f6b0	-1.0544033
4	0xbff7c184	-1.9355931
5	0xbf9bad0b	-1.2162184
6	0xbd3c499a	-0.04596863
7	0xbfac5dcd	-1.3466126
8	0x40650095	3.5781605
9	0x406a965b	3.665427
10	0xbd78909e	-0.060684793
11	0xc081e9e0	-4.059799
12	0x3fa8e770	1.3195629
13	0xbf1dfdb5	-0.6171525
14	0xbfa4b459	-1.2867538
15	0x410152b5	8.082692
16	0x40731b60	3.7985458
17	0x4080c707	4.0242953
18	0xbfb26fd2	-1.3940375
19	0xbfd95eea	-1.698209
20	0x3fd9547b	1.6978906
21	0x3f0ebcfd	0.55757123
22	0xbf99e2ed	-1.2022377
23	0xbfa693c4	-1.3013844
24	0x3dcf2eb1	0.101163276
25	0xbf969184	-1.1763158
26	0xbcf2615b	-0.029587438
27	0x3cf8df5c	0.030379944
28	0x3fb79454	1.4342141
29	0xbc0724de	-0.008248536
30	0xc067e986	-3.6236281
31	0xbf8f4231	-1.1192075
32	0x3fc78cb0	1.558981
33	0x3f722eb3	0.9460251
34	0xbd9da206	-0.07696919
35	0x3f6047b0	0.87609386
36	0xbdc89445	-0.09793905
37	0x3c8630b9	0.016380655
38	0x4077caa3	3.871743
39	0xc0130075	-2.296903
40	0xbfa79aff	-1.3094176
41	0xc0854510	-4.1646805
42	0xbd7dc397	-0.061954107
43	0xbdc146b0	-0.09437311
44	0xbf151453	-0.5823414
45	0x4066a377	3.603727
46	0x3f9901e0	1.1953697
47	0x4061df54	3.5292559
48	0xbcd759c3	-0.026287919
49	0x4037feeb	2.874934
50	0xbff27f03	-1.8945011
51	0xc003b5f4	-2.0579805
52	0xbd415553	-0.047200512
53	0xbec9e9b5	-0.39436117
54	0x401bdd8f	2.4353979
55	0x3fd86a44	1.690743
56	0xbd487a6c	-0.048944876
57	0x3faa87b9	1.3322669
58	0x3fbdf540	1.4840469
59	0xbfe79b6c	-1.8094306
60	0xbdec9c7c	-0.115532845
61	0xbd3ce638	-0.04611799
62	0xbf3b89bc	-0.7325704
63	0x40a06e3f	5.013458
64	0xbfaec6bf	-1.3654402
65	0x3fac3405	1.3453375
66	0xbd4ae7a7	-0.049537327
67	0xbf991059	-1.1958114
68	0x3e0450bd	0.12921424
69	0x3fbbc50b	1.4669508
70	0x4024f4e7	2.5774477
71	0xbe820ce2	-0.25400454
72	0x401f42f5	2.4884617
73	0x3fa63397	1.2984494
74	0xbf9a0e4d	-1.2035614
75	0x40727a89	3.788729
76	0x3fdcd5b2	1.7252715
77	0xbdb57421	-0.088600405
78	0x3f8f60d4	1.1201425
79	0x3f3db533	0.74104613
80	0x3fd77e34	1.6835389
81	0xbdcf9380	-0.10135555
82	0xbe3582cc	-0.17725676
83	0xbfae146c	-1.3599982
84	0xbd994ec0	-0.074857235
85	0xbd9250af	-0.071442954
86	0xbffb38de	-1.962673
87	0x401ecc5e	2.4812236
88	0x40086ef4	2.131772
89	0x3f2218e2	0.6331922
90	0x3e2596bd	0.16170783
91	0x3dd4d36d	0.10391889
92	0x3f5b06f1	0.85557467
93	0x3f954883	1.1662754
94	0xc001d262	-2.0284657
95	0x402b12b7	2.6730173
96	0xbdd54ffc	-0.104156464
97	0xbfa57ca7	-1.2928666
98	0xbf609f4e	-0.8774308
99	0x40737c33	3.8044555
100	0xbc8e488a	-0.017368574
101	0xbf983c1d	-1.1893345
102	0x40011868	2.0171146
103	0x406cd401	3.7004397
104	0xbfa33ae3	-1.2752346
105	0x4038f402	2.889893
106	0x4080787a	4.0147066
107	0xbcf62ee7	-0.030051662
108	0x406faeeb	3.7450511
109	0x406a52d9	3.6613066
110	0x40731583	3.798188
111	0xbe4c4b7c	-0.1995067
112	0xbdc36b0a	-0.095419005
113	0xbe73bba0	-0.23802042
114	0xc00f9b87	-2.2438676
115	0x406dba24	3.7144861
116	0xbf8e43f7	-1.1114491
117	0xbf849ee7	-1.0360993
118	0xbf0d95c6	-0.5530666
119	0x3efb499b	0.49079594
120	0x3fb22c60	1.3919792
121	0xbf9ce292	-1.2256644
122	0xbe115a29	-0.1419455
123	0xbfaf9382	-1.3716891
124	0x40011249	2.016741
125	0xbfba3181	-1.4546357
126	0xbfa05c25	-1.252812
127	0x3e4287d6	0.1899713
128	0xbd89ad24	-0.06722477
129	0x3f211246	0.6291851
130	0x3f404291	0.7510157
131	0x3c73baea	0.014876107
132	0x406b989a	3.681189
133	0x3f7c3f4a	0.9853407
134	0xbf9c08b6	-1.2190158
135	0xbf9d4eaa	-1.2289631
136	0xbf76df18	-0.96434164
137	0x4048a89c	3.135291
138	0xbfa21d03	-1.2665104
139	0x40802091	4.0039754
140	0x4067f70e	3.624454
141	0x3f8597a5	1.0436903
142	0x3f4ae833	0.7926056
143	0xbe008186	-0.1254941
144	0x406e86d7	3.72698
145	0xbdaa3952	-0.08311714
146	0x3ca4f84a	0.020137925
147	0xbf5bbb6d	-0.85832864
148	0xbd544ed3	-0.051832985
149	0xc05c49f9	-3.442015
150	0xbf3ee329	-0.7456537
151	0x3f12fa00	0.5741272
152	0xbf997d99	-1.1991454
153	0xbbac17fc	-0.0052518826
154	0xbc801440	-0.015634656
155	0x3fa14c17	1.2601346
156	0xbc9ebc92	-0.019377027
157	0xbfa4015b	-1.2812914
158	0xbd5aab9a	-0.05338631
159	0x406a9949	3.6656058
160	0x407c73ff	3.9445798
161	0xbfe5fdd1	-1.7968084
162	0xbfc393e4	-1.5279508
163	0x407aa3cb	3.9162471
164	0xbd316a6d	-0.043314386
165	0xbf98aa67	-1.1927003
166	0x3fdd214d	1.7275788
167	0xbf9c9e28	-1.2235765
168	0xbd935fd9	-0.07196016
169	0x407fccf7	3.996885
170	0xbf40022b	-0.7500331
171	0x4063d079	3.5595992
172	0xbcf0bccb	-0.029386899
173	0x3fc69441	1.5513994
174	0x404c7226	3.194467
175	0x4073ec83	3.8113105
176	0x3fdf4e20	1.7445717
177	0x4081de4b	4.0583854
178	0xbf976d15	-1.1830164
179	0xbf9a368c	-1.2047896
180	0xbe802e4a	-0.25035316
181	0x3f70d12f	0.9406919
182	0xbf978f39	-1.1840583
183	0xbf80affc	-1.0053706
184	0xbf41db3b	-0.75725144
185	0xc03b7d4e	-2.929523
186	0x3f43fa3d	0.7655371
187	0xbf9bcace	-1.2171266
188	0x407430e0	3.815483
189	0x402577c5	2.5854352
190	0x400a1f92	2.158177
191	0x3fefe13f	1.8740615
192	0xbfa12312	-1.2588828
193	0x3fd1f204	1.6401982
194	0x406f4c7e	3.7390437
195	0x4032eea5	2.7958157
196	0x3fe655d0	1.7994938
197	0xbe476c93	-0.19475012
198	0xbda1d50e	-0.07901965
199	0xbfa0a7f3	-1.2551254
200	0x3fc1d88c	1.514421
201	0xbf9d97c9	-1.2311946
202	0x3fb20a86	1.3909461
203	0xc021e90d	-2.5298493
204	0x4079ca96	3.9029899
205	0x409420c4	4.6289997
206	0x40817547	4.045566
207	0xbf6c7d36	-0.92378557
208	0x403f98e9	2.993708
209	0xc080d50e	-4.0260077
210	0xbf8fdbd7	-1.1238965
211	0x406e1bae	3.7204394
212	0xbfe20322	-1.7657206
213	0xbfbce2b6	-1.4756687
214	0x3fc895ef	1.5670756
215	0xbd9ae407	-0.07563024
216	0x407e72a6	3.9757476
217	0xbf9929bf	-1.1965865
218	0x3f6fa43d	0.9360998
219	0xbf938d6c	-1.1527534
220	0xbd96848f	-0.07349502
221	0x40739883	3.8061836
222	0x3feebf17	1.8652066
223	0xbde0ae5d	-0.10970757
224	0x407dc4d8	3.9651394
225	0xbfa2df02	-1.2724307
226	0xbf5a0a68	-0.8517213
227	0xbcba648f	-0.022753028
228	0x3fe889a9	1.816701
229	0x406a4090	3.6601906
230	0x3ee22bd9	0.44174078
231	0x40776db6	3.8660712
232	0xc0344d94	-2.817235
233	0xbf90a846	-1.1301353
234	0x40751560	3.8294296
235	0xbfa34a14	-1.2756982
236	0xbbaa5c4f	-0.0051989923
237	0x3fafe2a3	1.3741039
238	0xbebeb6f0	-0.37248945
239	0x3d8d5acd	0.069020845
240	0x40127a31	2.288708
241	0x40628de9	3.5399115
242	0x3ea750e4	0.32678902
243	0xbf4519aa	-0.76992285
244	0x4023b0eb	2.5576732
245	0x40767d33	3.8513916
246	0x3ef97c7a	0.4872778
247	0xbf95b975	-1.1697222
248	0xbf9ecbda	-1.240596
249	0x3f407c0d	0.75189286
250	0x3daf4f6b	0.0856007
251	0x3f3a216d	0.72707254
252	0xc041d3a1	-3.0285418
253	0x3f51258c	0.81697917
254	0x3fb4ec66	1.4134643
255	0x407518e0	3.8296432

fc3.weight f4 [1, 256]
0	0x3e502de9	0.20330013
1	0xbce94b53	-0.0284783
2	0x3eab64c7	0.33475325
3	0x3e601c6d	0.21885844
4	0x3fbd464d	1.4787079
5	0x3e88cd21	0.26719
6	0xbbd320e5	-0.0064431303
7	0x3dd96cf5	0.10616485
8	0xc0919f40	-4.5506897
9	0xc0193bc0	-2.3942719
10	0x3d43350b	0.047658008
11	0x3f598408	0.8496709
12	0x3f047c6a	0.5175234
13	0x3fd15619	1.63544
14	0x3e0c297f	0.13687705
15	0xbfb7b535	-1.4352175
16	0xc06057e4	-3.5053644
17	0xbfbe4933	-1.4866089
18	0x3e5743a0	0.2102189
19	0x3e00d7a0	0.12582254
20	0xbea8dd62	-0.32981402
21	0xbf40f2d3	-0.7537052
22	0x3e4c3b0f	0.19944404
23	0x3dc0c803	0.09413149
24	0xbfb0c80b	-1.3811048
25	0x3ded202a	0.115784004
26	0xbcdd15e8	-0.026987985
27	0x401f21bc	2.486434
28	0xbf27dbec	-0.6556995
29	0xbdaa6c3b	-0.083214246
30	0x403346f9	2.8012068
31	0x3e217de4	0.1577068
32	0x3efe8f94	0.49718916
33	0xbe4635b0	-0.19356418
34	0x3f9b12e2	1.2115138
35	0xbf75b492	-0.95978653
36	0xbd4cb248	-0.04997471
37	0x3ca3c9b5	0.019993642
38	0xbff0e05a	-1.8818467
39	0x3e9fd010	0.31213427
40	0x3db7b80a	0.089706495
41	0x3f91f4de	1.1402853
42	0x3f6dbd77	0.92867225
43	0xbd90c351	-0.07068504
44	0x3fcc1ad3	1.5945686
45	0xbfa00dbe	-1.2504194
46	0xbff241b8	-1.8926306
47	0xbf926e1b	-1.1439852
48	0xbd8b70b1	-0.068086036
49	0x3f2d7783	0.67760485
50	0xbffbf3aa	-1.9683735
51	0xbf9b77ad	-1.2145897
52	0xbb3740a8	-0.0027962122
53	0xbf375a45	-0.71622115
54	0xbfc5a570	-1.5441113
55	0xbfc43704	-1.532929
56	0x3d3ca3ef	0.046054777
57	0xbf0005f5	-0.5000909
58	0xbf93c7b9	-1.1545326
59	0x3f7a57f1	0.9779044
60	0x3c8d71d9	0.0172662
61	0xbd5837bd	-0.05278753
62	0x3eb29ba1	0.3488436
63	0xbf159f91	-0.58446604
64	0x3d6f7917	0.05846509
65	0x3e76c335	0.24097903
66	0xbb610ed8	-0.0034341123
67	0x3e2f862a	0.17141023
68	0x3f3b75fe	0.73226917
69	0xbf5586e5	-0.8340896
70	0x3efbf9cd	0.4921402
71	0x3f8bc658	1.0919905
72	0x3f20e4f7	0.6284937
73	0xbebe8548	-0.3721106
74	0x3e348ebc	0.17632574
75	0xc0256786	-2.5844436
76	0xbf9966b7	-1.1984471
77	0x3f5365fc	0.8257749
78	0x3f485cb4	0.78266454
79	0x3efa9352	0.4894052
80	0x3f48ea52	0.78482544
81	0x3bce1732	0.006289386
82	0x3fa28396	1.2696407
83	0x3d62e81e	0.055397145
84	0xba7ae6ce	-0.0009571136
85	0x3d93ddfd	0.07220075
86	0xbf6f80a9	-0.93555695
87	0x3e6177dd	0.2201838
88	0xbe724466	-0.23658904
89	0x3f7c3149	0.98512703
90	0x3b906090	0.0044060424
91	0x3fe4f7a5	1.7888075
92	0x3f81362d	1.0094658
93	0x3f9b6fca	1.214349
94	0x3e84d171	0.2594104
95	0xbf673542	-0.9031564
96	0xbc0d908e	-0.008640422
97	0x3e281552	0.16414383
98	0xbdabf4ca	-0.08396299
99	0xc0217cdd	-2.523246
100	0x3d8e20b6	0.06939833
101	0x3e0269f5	0.12735732
102	0xbfba8bae	-1.4573877
103	0xc02fe645	-2.7484295
104	0x3e40dd9f	0.18834542
105	0xbf44570f	-0.7669534
106	0xc02e01cc	-2.7188597
107	0xbbf99d0b	-0.007617598
108	0xc00016e4	-2.0013971
109	0xc0418a42	-3.0240636
110	0xc0336f9a	-2.8036866
111	0x3f05c1d4	0.52248883
112	0x3b60c021	0.0034294205
113	0x4094d322	4.650773
114	0x3f61a15f	0.8813686
115	0xc0428894	-3.039586
116	0x3e9286ac	0.2861837
117	0x3eb851dc	0.35999954
118	0xc0250c66	-2.5788817
119	0x3f067bb1	0.5253249
120	0xbe0893de	-0.13337657
121	0x3e8ef314	0.2791983
122	0x3da48dfd	0.080348946
123	0x3cf0dc3b	0.02940189
124	0x3f0686e5	0.5254958
125	0xbccf71d9	-0.025322841
126	0x3d8a74c6	0.06760554
127	0x4014abef	2.322994
128	0xbd002145	-0.03128173
129	0xc008a31a	-2.134955
130	0x3f00519b	0.5012452
131	0xbdc3e80a	-0.09565742
132	0xbfcf6b67	-1.6204652
133	0xbf3e8380	-0.74419403
134	0x3e82c598	0.25541377
135	0x3e49c2cf	0.1970322
136	0x3e0ab0e7	0.13544045
137	0xbf21dc9f	-0.63227266
138	0x3e8d6561	0.27616408
139	0xc0410b3b	-3.0163105
140	0xc02bebcd	-2.6862671
141	0xbf41e30f	-0.7573709
142	0xc01c1731	-2.4389155
143	0x3d1639a7	0.036676075
144	0xc041585a	-3.0210176
145	0x3ba96822	0.0051698843
146	0xbda84e53	-0.08218064
147	0xc01351e4	-2.3018732
148	0x3ced53b3	0.028970575
149	0x3e4d05a7	0.20021687
150	0x3f780695	0.96885043
151	0xc03dc9ce	-2.9654422
152	0x3ec58425	0.3857738
153	0xbd82fc8e	-0.06395827
154	0xbb429090	-0.0029688217
155	0xbe309ed7	-0.17248093
156	0x3cec70f7	0.02886246
157	0x3de984ec	0.11402306
158	0xbb122a2a	-0.0022302964
159	0xc02ffa1f	-2.7496412
160	0xc01f7686	-2.491609
161	0xbf938fb2	-1.1528227
162	0x4019d102	2.4033818
163	0xc01acab4	-2.418622
164	0x3cd9f207	0.026604665
165	0x3e5b397b	0.21408646
166	0xbf3ed0f4	-0.7453759
167	0x3e867b3a	0.2626589
168	0x3d3e3984	0.04644157
169	0xc02bdc8b	-2.6853359
170	0x3ed50a15	0.41609254
171	0xc05bbec9	-3.4335196
172	0xbb8f32dc	-0.0043700766
173	0xbe1959fb	-0.14975731
174	0xc038ec10	-2.889408
175	0xc02143f6	-2.519773
176	0x400bf09c	2.1865606
177	0xc009e7cc	-2.1547728
178	0x3eb3cdda	0.3511799
179	0x3de2e7a5	0.11079339
180	0x3fb0d8e0	1.3816185
181	0xc0042adf	-2.0651166
182	0x3ea74376	0.32668656
183	0x3ee05eb9	0.43822268
184	0xbfd7b25c	-1.6851306
185	0xbf300855	-0.68762714
186	0x3fbaef08	1.4604197
187	0x3e7a6ea7	0.24456273
188	0xc0147bc1	-2.3200533
189	0x3e8b9a57	0.2726619
190	0x3f0932b4	0.5359299
191	0xbdc936c6	-0.098249
192	0xbfc906e6	-1.570523
193	0xbbed9c31	-0.0072512855
194	0xc03c0710	-2.937931
195	0x3f835262	1.0259516
196	0x3e97ee4e	0.29674
197	0xbe24cd41	-0.16093923
198	0xbbfeafcb	-0.007772421
199	0x4014789c	2.3198614
200	0xbe450eca	-0.19243923
201	0x3ea3b07e	0.3197059
202	0xbf3857f8	-0.7200923
203	0x3ef1270b	0.471001
204	0xbf857e18	-1.0429106
205	0xbf81e13f	-1.0146865
206	0xc0139eb1	-2.3065608
207	0x3ee1386b	0.43988356
208	0x3f2308a6	0.6368507
209	0x3f08a2f5	0.5337365
210	0x3e69d94b	0.22836797
211	0xc037655b	-2.8655612
212	0x3f9f38ab	1.2439169
213	0xbf13e704	-0.57774377
214	0x3f8b7d22	1.0897563
215	0x3cf7f611	0.0302687
216	0xc027bdd0	-2.6209602
217	0x3e68aa4f	0.22721218
218	0x3fda8578	1.7071981
219	0x3e50f548	0.20406067
220	0x3bb11bd1	0.0054049273
221	0xc02687e0	-2.6020432
222	0x400e0dfb	2.2196033
223	0x3c0c1add	0.008551327
224	0xc03f2b9b	-2.9870365
225	0x3e282b5d	0.16422792
226	0x3f1267fe	0.5718993
227	0xbde9d0a4	-0.11416748
228	0x3d45a7c0	0.048255682
229	0xc0247180	-2.5694275
230	0x3f929f19	1.1454803
231	0xc02f2ade	-2.7369914
232	0x3e95c504	0.29251873
233	0x3f08bc7f	0.5341262
234	0xc044d569	-3.0755255
235	0x3da49588	0.08036333
236	0xbf908873	-1.1291641
237	0x3f32bf14	0.6982281
238	0x3f29c38a	0.66313994
239	0xbfbb9142	-1.4653704
240	0xbf648434	-0.89264226
241	0xbf3ca243	-0.7368509
242	0xbf7db388	-0.9910207
243	0x401effdd	2.4843667
244	0xbf458ef9	-0.77171284
245	0xc0079875	-2.1186802
246	0x3f7c0aef	0.98454183
247	0x3e118b32	0.14213255
248	0x3eb4f001	0.35339358
249	0xbffc6d42	-1.9720843
250	0xbeddb8a2	-0.43304926
251	0x3ecc806e	0.39941734
252	0x3f065f14	0.5248883
253	0x3e78f104	0.2431069
254	0xbe669fdd	-0.2252192
255	0xc023c523	-2.5589073
