model/sac_ff_sac_ff/agent2_sac_ff_q1_2000000.pth (torch, 275871 bytes, 5 tensors)

fc1.weight f4 [256, 8]
000000 97 2c 04 c1 21 7d a0 bf 85 5f a0 3c 31 bf ce 3f
       -8.260886 -1.2538186 0.019576797 1.6152097
000010 93 5f 23 3e d3 56 59 b9 19 88 96 bb 62 85 b4 be
       0.15954427 -0.00020727077 -0.004593861 -0.35258013
000020 1a 7b db 3f c3 5c ad 3d e4 84 d2 bd 02 24 30 bd
       1.7146943 0.084649585 -0.10279253 -0.04300309
000030 cd b8 73 bc f4 a5 62 bd b2 5f a1 be dd fc 06 c0
       -0.014875603 -0.055334046 -0.31518322 -2.1091835
000040 b2 17 13 3d 62 14 95 bc 69 6c 12 bd 60 fa 43 bd
       0.03591127 -0.018198196 -0.03574792 -0.047846198
000050 65 a3 e1 bb e2 c0 ba bc 77 c9 e9 3d 66 51 69 3c
       -0.006885933 -0.022797052 0.114153795 0.014240598
000060 a8 68 1b c1 fa 9d fc 3f 98 5e a0 bf 7f 33 c8 3f
       -9.713051 1.9735711 -1.2528868 1.5640715
000070 2a 32 c0 bd 63 9c 62 3a 8c 28 a4 3c f9 f3 4f c0
       -0.09384568 0.0008644519 0.020038866 -3.249266
000080 42 06 cb 3f 40 de 8a be 8a 15 b2 3b b2 af 43 be
       1.5861285 -0.27122688 0.0054346966 -0.19109991
000090 4d d0 93 3e 43 65 e2 bd 50 e8 db bd 38 55 32 40
       0.28869858 -0.110544704 -0.107376695 2.7864513
0000a0 39 a7 14 be f5 93 34 bd c8 5a 2f bd f3 4d 2f 3d
       -0.14516915 -0.044086415 -0.042811185 0.042798948
0000b0 20 14 f8 bc d1 db 9e bd 3c 90 c8 3d 09 59 7e 3d
       -0.030283034 -0.077567704 0.097931355 0.06209663
0000c0 af 8f eb bc 0b 7b c0 bd 69 14 92 bd 6b 9e 0d 3e
       -0.028755037 -0.093984686 -0.07132799 0.13829963
0000d0 b0 1f 13 bd 5f 8b 8b bd 13 3f 15 3e a9 dc 7d 3b
       -0.03591889 -0.06813692 0.14574842 0.003873626
0000e0 c2 52 38 c0 ac e0 35 40 f6 bf 5f be f2 23 f9 3e
       -2.8800511 2.841838 -0.21850571 0.48660237
0000f0 92 94 99 bd a0 b6 50 3c f8 0a 3c bd 28 27 c9 be
       -0.07499041 0.012738854 -0.045908898 -0.39287686
000100 d6 e1 8b bf 61 f7 d1 3e 31 37 dd bc be 90 c7 bf
       -1.0928295 0.41009048 -0.027003856 -1.5591047
000110 27 98 fd 3f 5a c0 40 3a 63 f9 6f bc c8 82 b3 bf
       1.9812058 0.00073528814 -0.014646861 -1.4024286
000120 9b c4 04 40 7f 54 e2 bd a8 9e a4 bc 27 56 15 3e
       2.0744998 -0.110512726 -0.020095184 0.14583646
000130 fe 85 41 3c e2 7f af bd 21 c8 2d bf e7 e4 90 3d
       0.011811731 -0.085693136 -0.678835 0.0707491
000140 2a de 71 bf 87 e6 0a bf 8a bc 07 3c 4e 23 1d 3c
       -0.9447962 -0.54258007 0.008284697 0.009590937
000150 ec 85 0e bf f5 da b6 bd 5b 83 ef 3d 5d d1 6d 3e
       -0.556731 -0.089284815 0.11694976 0.23224397
000160 20 0c 96 bd 08 52 27 bd dd 81 26 bd 3f a9 7a bd
       -0.073265314 -0.040849715 -0.04065119 -0.061196562
000170 01 bf 46 bd df bc 31 bd 7e 2e b2 3d 1e 22 a2 3d
       -0.048522 -0.043393012 0.08700274 0.079166636
000180 68 cc 94 bf 87 48 19 3d f4 dc 92 bd 3a eb ba 3e
       -1.162488 0.037422683 -0.0717105 0.3650759
000190 95 ce ff 3d b2 49 d8 bd 95 65 84 3b b8 d0 9e 3f
       0.12490574 -0.10560931 0.00404043 1.2407446
0001a0 3c 65 c5 c0 d4 30 82 3e c2 69 41 3c 4e 0b ad 3f
       -6.1686077 0.25427878 0.011805 1.3519075
0001b0 cd dd 6d bf 40 09 00 3b 8b cd a8 bc 7c 7c 86 3f
       -0.92916566 0.0019536763 -0.020605823 1.050674
0001c0 f6 81 0f bd 9e 1e a9 3c dd 5e 99 bc 69 c5 ad bd
       -0.03503605 0.020644482 -0.018721992 -0.084849186
0001d0 1f 3e 8f 3d df 2d ce bd 93 99 ef 3d bc 4a 33 3d
       0.069942705 -0.10067343 0.11699214 0.043772444
0001e0 b6 d6 87 3f fa 32 22 be ef bb 89 bd 1d 20 79 3e
       1.06124 -0.15839759 -0.067252986 0.24328656
0001f0 cf 43 41 be 36 38 b2 bc 8c aa b4 be ae 32 8a 40
       -0.18873523 -0.02175532 -0.35286367 4.3186865
000200 65 60 2d c0 9e a7 4d be e5 f6 97 bc 45 94 f1 bd
       -2.7090085 -0.20083472 -0.018550346 -0.11795858
000210 e3 93 60 be af e1 06 bd bf 74 44 3e 32 69 00 3e
       -0.21931414 -0.032930072 0.1918516 0.12540129
000220 10 1b 65 be 72 a6 61 be 92 fe 71 3c d1 43 26 c0
       -0.22373605 -0.2203615 0.014770167 -2.5978892
000230 d8 99 ff 3f 94 d7 31 3a 53 7a 95 ba 05 88 3f c0
       1.9968824 0.0006784138 -0.0011404253 -2.992677
000240 45 fc 8c c0 18 3a e4 3f 97 e9 08 be fa ba fa 3f
       -4.4057946 1.7830229 -0.13370357 1.9588311
000250 3c c7 94 bf fc 51 94 b8 0a 3e bd 3c f0 fd 1c 40
       -1.1623302 -7.072461e-05 0.023100872 2.452999
000260 23 9e 5a c0 63 6d 71 c0 23 fd 63 bd 14 cd ef 3f
       -3.415902 -3.7723014 -0.05566133 1.873446
000270 fc cc c3 be 58 fe 09 bc 42 b1 05 bc 97 a8 b7 40
       -0.38242328 -0.008422457 -0.008159937 5.73933
000280 4d fd f6 c0 3b bb c7 3f 11 fb c4 bd a3 eb 5c 3f
       -7.7184205 1.5604013 -0.096181996 0.86297053
000290 1b 45 e5 3e 37 3c 00 bb c6 48 f3 bb 6d c1 ac 3e
       0.44779286 -0.001956714 -0.0074244468 0.33741322
0002a0 97 79 06 c0 13 51 10 be 6a ff 5a bc 83 09 96 3e
       -2.1011713 -0.14093427 -0.0133665595 0.29304132
0002b0 aa e4 13 3e c4 14 ee bd 3c bf e8 bd 22 8b 54 40
       0.14442697 -0.116250545 -0.113646 3.320992
0002c0 aa 22 d3 bf c0 43 0b bf d7 11 91 b9 a9 75 fb be
       -1.6494954 -0.54400253 -0.00027669847 -0.49113205
0002d0 d7 09 57 bf 89 99 a1 bd 2d de 22 3f 4a b2 f0 bf
       -0.8399939 -0.07890613 0.63620263 -1.880441
0002e0 91 b9 01 c0 06 39 13 3f ab 71 30 3a 3e fd 31 3e
       -2.026951 0.57508886 0.0006730805 0.1738176
0002f0 bc a4 ed bd 0c 21 87 bc 9b 9f 66 3c bb 9e 96 bf
       -0.11603686 -0.01649525 0.014076139 -1.1767191
000300 97 98 8f 3f 44 28 65 3c 92 a2 2c bd f4 09 ea be
       1.1218442 0.013986651 -0.042147227 -0.4571072
000310 eb 49 0a be 2b 0c df bc b0 93 8a bd 7d f4 0b bf
       -0.1350476 -0.027227482 -0.067664504 -0.54669935
000320 2d 98 09 be 4a 50 1a 3e 14 b3 3a bd d2 d6 a4 bd
       -0.13436957 0.1506969 -0.04558094 -0.08048786
000330 11 8d a5 3d b7 cb 5f bc 73 0f e2 bc 51 45 88 bd
       0.08083547 -0.013659409 -0.027595257 -0.06653846
000340 f0 b6 25 bf 11 f1 58 3d 64 8f 41 3c d9 5d 05 bb
       -0.64732265 0.052964274 0.011813972 -0.0020350127
000350 60 3f cc be 39 ee b6 bd e8 5b fb 3d 32 7a 2b 3e
       -0.398921 -0.08932156 0.12273389 0.16745833
000360 80 95 e8 bc 34 bd 5d 3d 07 cd 82 bd 6a 86 67 bd
       -0.0283916 0.054135516 -0.06386762 -0.05652467
000370 5c 7a 86 bc 64 59 e0 bd 31 78 61 bd c2 72 75 3d
       -0.016415767 -0.1095455 -0.055046264 0.059923895
000380 f3 00 88 bb 3f 13 90 bd ba ae 36 bd b1 7a f3 bd
       -0.004150504 -0.07034921 -0.044600226 -0.11888636
000390 25 cf 07 3e 14 6f a9 bd 04 7a 09 3e 8d 2c 9a 3c
       0.13262613 -0.082731396 0.13425452 0.018820072
0003a0 ef b5 dc 3f 04 d6 6c bc 0e 3e c8 bd 40 bf 47 3d
       1.7243022 -0.014455322 -0.09777461 0.048766375
0003b0 83 56 66 be 8d a2 64 bd 00 3f 4e be d7 d0 3a be
       -0.22493939 -0.055819083 -0.2014122 -0.18243729
0003c0 71 37 01 40 de 04 35 3d a2 06 3d 3b f6 48 9d bf
       2.0190089 0.044194095 0.0028843065 -1.2287891
0003d0 4e 3a 40 3f 63 cd 1c bc 06 34 d5 3c e3 e9 3a 41
       0.75088966 -0.009570452 0.026025783 11.682101
0003e0 ae 1c ec c0 9c 60 5f 3f b4 e7 20 bd 3d 22 9d be
       -7.378501 0.8725679 -0.03928347 -0.30690184
0003f0 02 a0 93 3f 9a 40 a4 39 66 7f 20 3c 91 28 47 40
       1.1533206 0.0003132865 0.009795999 3.111851

fc1.bias f4 [256]
000000 e2 d9 37 c0 ac d0 4c c0 b5 99 65 be 8d e2 3a 40
       -2.8726735 -3.2002363 -0.22421916 2.9200776
000010 7b 53 95 c0 4a 0c 4f 3e e9 e6 8c 3e 4a 90 78 c0
       -4.6664405 0.20219532 0.2751992 -3.8838067
000020 00 c7 91 c1 31 23 36 c0 c9 e4 36 40 88 01 81 bd
       -18.222168 -2.845898 2.857714 -0.0629912
000030 cc 7d 7d 40 aa e7 5b c1 5f 93 91 3e a7 ab df c0
       3.960803 -13.744059 0.28432748 -6.9897037
000040 a2 d7 03 40 13 6b 60 c0 3e f7 90 40 6b fc 76 40
       2.0600362 -3.5065353 4.530181 3.8591564
000050 43 77 9a c1 b4 5b 9e 40 4a 92 47 c0 e9 3c 0a 40
       -19.308233 4.948694 -3.1183038 2.1599677
000060 51 3e 2c c0 91 1b 9d 3e fc 6c ad 3f ca d1 e7 bd
       -2.6913035 0.30685094 1.3548884 -0.11319311
000070 a8 de 15 3d 1f d7 23 c0 16 40 ed bf 8b 30 f4 40
       0.036589295 -2.560005 -1.8535182 7.6309257
000080 50 98 b1 3c f6 78 5a 40 59 94 98 3e 59 45 ef 3e
       0.021679074 3.4136329 0.2980068 0.46732596
000090 ca c1 ae bf f5 99 05 40 a5 00 04 40 50 77 dd bc
       -1.365289 2.0875218 2.0625393 -0.027034432
0000a0 f6 f8 91 be ec 91 e0 c0 10 28 a5 bd 92 a8 ab 3e
       -0.28510255 -7.0178127 -0.08064282 0.33527046
0000b0 65 65 41 be ac db 58 c0 c2 a4 7d bf d1 08 8a 3e
       -0.18886335 -3.3884077 -0.99079525 0.2695985
0000c0 81 5b 8f 3e 92 c8 52 3e 08 d1 18 3d ff a9 e5 c0
       0.279995 0.20584324 0.037308723 -7.1770015
0000d0 ab 00 47 be 9f 0f f9 be 67 07 9a 3e 16 52 a8 be
       -0.19433849 -0.4864473 0.30083773 -0.32875127
0000e0 6c 47 7b 40 ce f7 7f 3e aa 04 6a c0 e6 dc 9e 40
       3.9262342 0.24996874 -3.6565347 4.964465
0000f0 78 91 98 be 1c b1 6b be 8c 06 81 bd 50 f6 2e c0
       -0.29798484 -0.2301678 -0.06300077 -2.7337837
000100 af fa 91 40 1b 4f 58 40 c6 76 dd c1 98 74 fb be
       4.561851 3.3798282 -27.682995 -0.4911239
000110 24 16 a9 bd 75 2c 8c 3e 6b cc 18 41 91 82 7a c1
       -0.08256176 0.27377668 9.549907 -15.656877
000120 7c 5a c4 3e ea f2 4d c0 70 f0 a8 bd 71 32 34 be
       0.38350284 -3.2179513 -0.08248985 -0.17597367
000130 dc 21 31 c0 2f ca 43 40 c7 05 ae 3f 10 5a ed bd
       -2.7676916 3.0592153 1.3595513 -0.11589444
000140 0c ab 9c be 13 fc 3f be 22 53 af 3e c6 fa dd bf
       -0.30599248 -0.18748502 0.34243113 -1.7342155
000150 be 9b 86 3e 0e f7 70 c0 df 6c 8f c1 05 11 9d 3e
       0.26290697 -3.765079 -17.92816 0.30677047
000160 78 c1 86 c1 93 a9 78 40 04 83 b1 bd 53 66 1e 40
       -16.844467 3.88535 -0.08667567 2.4749954
000170 66 74 66 c1 73 e3 a9 c1 0e e5 a3 be 8b e1 6e be
       -14.403418 -21.23606 -0.32010692 -0.23328225
000180 29 78 4a 40 39 6d 2d 40 7f 29 21 c1 86 6b 8f 40
       3.163584 2.7097914 -10.072631 4.4818754
000190 92 8a 21 3e 48 d7 89 be 28 2e fe 3f 8c 91 57 c0
       0.15775517 -0.2692206 1.9857836 -3.3682585
0001a0 12 39 17 c0 ba cd 32 c0 c0 a2 1a 40 63 61 df 3f
       -2.3628583 -2.7938066 2.4161835 1.7451595
0001b0 ef ac 25 40 ca f4 16 3e c6 fd 87 be 88 62 7c 40
       2.58868 0.14741817 -0.265608 3.9435139
0001c0 9f ce 51 40 f5 95 91 3e d3 ca b4 3e da e3 ec c1
       3.2782362 0.2843472 0.35310993 -29.611256
0001d0 64 b2 bc 3d b3 86 0c c1 60 14 7b 40 dc 2f 9d c0
       0.09213713 -8.782886 3.9231186 -4.912092
0001e0 9d 70 8c 40 f2 70 df bd 41 f0 42 c1 01 02 57 40
       4.3887467 -0.109102145 -12.183656 3.3594973
0001f0 4f ec 26 be d0 3b ec bd 40 db c0 40 c2 ad 32 3e
       -0.16301082 -0.11534846 6.026764 0.17449096
000200 c6 01 d5 bd 25 4f 4b 40 36 34 91 40 05 ed 94 be
       -0.10400729 3.1767056 4.5376234 -0.29087082
000210 af 3a a6 40 42 dc 54 c0 df 03 4f c1 48 96 33 c0
       5.1946635 -3.3259435 -12.938445 -2.8060474
000220 ca 8d 85 40 43 04 37 bf a5 f3 e9 bf dd c5 4a c0
       4.173558 -0.7149088 -1.827748 -3.1683266
000230 e0 28 2d 3d 0c 88 19 41 a4 d5 10 3f 01 18 e1 40
       0.04227531 9.595715 0.5657599 7.03418
000240 1e b2 b2 3f 64 bd 43 40 8e 4e 7f 41 65 ce 57 be
       1.3960607 3.0584345 15.956678 -0.21074827
000250 68 cd 40 c0 a6 25 3c c1 e0 28 bf be 80 3b c9 40
       -3.012537 -11.7591915 -0.37335873 6.288513
000260 2a 72 3e 41 a4 7f 1c c1 9f 7c 9b be 99 82 17 c0
       11.902872 -9.781162 -0.30368516 -2.367346
000270 28 c0 06 3f 33 e1 c0 c0 22 4d 04 be 6c 55 94 3f
       0.5263696 -6.02749 -0.12920049 1.1588569
000280 36 f0 dd c1 e2 d9 a0 c0 da e9 61 3e de 0c 15 41
       -27.74229 -5.026597 0.22061864 9.315641
000290 b3 dc 0c 40 95 6a 59 c0 40 6f 04 3d 39 c7 90 be
       2.2009704 -3.3971303 0.03233266 -0.28276995
0002a0 5b f5 93 40 09 5a a4 40 b8 f4 cd 41 7d cc c3 c0
       4.6237006 5.1359906 25.744492 -6.118712
0002b0 15 9c 03 c0 37 e9 18 c0 bf 6a 30 40 5c c2 d6 3e
       -2.0564015 -2.3892343 2.7565153 0.4194516
0002c0 45 0c 80 3e d6 b1 9a be 86 f4 1a 41 1c 74 43 40
       0.2500936 -0.30213803 9.684698 3.0539618
0002d0 a8 4b af 40 12 c3 b2 bf 70 dd 43 3d 66 83 98 c0
       5.4779854 -1.3965781 0.0478186 -4.76604
0002e0 2a d8 89 41 9e 3c 84 40 ba b1 bf 3f 66 10 03 40
       17.230549 4.1323996 1.4976113 2.047876
0002f0 a0 38 3f 3c 41 46 be c0 c4 e6 8f be 68 81 7d bf
       0.011671215 -5.946076 -0.28105748 -0.99025583
000300 2e c0 53 3e 47 d2 75 40 9a ce 03 40 90 35 1b c1
       0.2067878 3.8409593 2.059485 -9.700577
000310 ec e6 eb 3f d3 36 39 40 aa 88 bb c0 f9 04 ac 40
       1.8429847 2.8939712 -5.8604326 5.375607
000320 b1 9d c6 40 86 e8 21 3e 08 cd 80 c1 3e 48 9f c0
       6.2067494 0.15811357 -16.100113 -4.9775686
000330 21 af 03 3d 9e 59 6e c1 f8 e0 41 c0 c3 1c 38 c0
       0.032149438 -14.896879 -3.029356 -2.8767555
000340 03 24 25 40 82 5f a7 40 6d e3 46 40 d5 16 93 c0
       2.580323 5.2304087 3.107631 -4.596537
000350 d4 22 08 41 be 74 9f 40 9d a7 17 c1 3d 82 70 bf
       8.508503 4.9830008 -9.478421 -0.9394873
000360 e4 c4 89 40 69 bf 8c 40 49 25 6b 40 84 1d a9 c0
       4.3052845 4.3983655 3.6741507 -5.284853
000370 82 ad 63 be b2 7c c2 be 06 6e d4 be 08 c5 f7 c0
       -0.22234157 -0.3798576 -0.4149019 -7.7428017
000380 1a 91 31 c0 29 4c 9e 3f c1 a1 95 bf 14 71 ba 3f
       -2.7744813 1.2366992 -1.1689988 1.4565759
000390 54 19 06 40 bc 73 57 40 9a 6a 64 c1 e9 f9 a4 bf
       2.095296 3.3664389 -14.276026 -1.2888767
0003a0 07 61 33 c1 10 b6 05 c0 38 62 22 bf b4 a7 1c 41
       -11.211188 -2.0892372 -0.6343112 9.790943
0003b0 ee fc be c1 86 58 ab be 13 9a d0 c0 e3 12 ae bf
       -23.8735 -0.33465976 -6.518808 -1.3599514
0003c0 0e 64 99 40 75 60 3e 40 ef 4d 02 c0 b0 64 47 40
       4.7934637 2.9746373 -2.0360067 3.1155205
0003d0 47 18 b1 c0 23 e8 9f c0 80 5d ec bf 60 e6 c6 3d
       -5.5342135 -4.997087 -1.8466034 0.09711909
0003e0 26 b1 c5 bf 01 30 3e be 89 11 5a 41 89 b3 4b 40
       -1.5444686 -0.18573 13.629281 3.182833
0003f0 7e 66 32 c0 c1 b8 67 40 d4 b2 8a 40 09 56 3c c1
       -2.7875056 3.6206515 4.3343296 -11.771005

fc2.weight f4 [256, 256]
000000 04 49 92 3d a5 b5 31 be 61 73 d6 3c d8 c2 75 3f
       0.07142833 -0.17354448 0.026178064 0.9600043
000010 e4 5a 3b be 81 ec eb 3b 56 ee 5f bb d0 b9 b5 be
       -0.18296391 0.0071998243 -0.003416916 -0.35493326
000020 da 42 8a be 8b fe 37 bf fa 9f 60 3f 39 92 4b bd
       -0.2700413 -0.71872777 0.87744105 -0.049699996
000030 a9 19 3d 3e d4 cd a9 3d 91 fa f9 3c 76 27 1e bf
       0.1846682 0.08291212 0.030514987 -0.6177896
000040 21 dc c0 3e d4 ac 3a be 82 2c 25 3e ad e9 39 3d
       0.37667945 -0.18229991 0.1613026 0.045388866
000050 01 74 98 3d 85 cc 96 3d 0e cd 69 bc 32 e7 90 bd
       0.07444001 0.07363228 -0.01427008 -0.07075347
000060 98 81 4b be 13 54 df bb b0 d9 ec 3d 64 7f cc 3d
       -0.19873655 -0.0068154423 0.11564958 0.09985235
000070 59 11 33 bd 9c 01 4b be 34 54 04 c0 d1 a5 0a be
       -0.043717716 -0.19824833 -2.0676394 -0.13539816
000080 99 06 82 3d a4 b7 20 3e aa 04 03 3d 52 93 21 bd
       0.06348915 0.15695053 0.03198687 -0.039447136
000090 1a 76 fa 3e 02 bb f3 be 4d e5 24 bf 85 72 d1 3d
       0.4891823 -0.47603613 -0.64412385 0.10226921
0000a0 08 73 1e 3d f8 1a 8f be 2d ab a1 bc 0f a7 5c 3e
       0.03868392 -0.27950263 -0.019734943 0.21548103
0000b0 b7 fa 93 bd cc 1b 46 be be 4c f7 be d8 60 d9 3d
       -0.072255544 -0.19346541 -0.48300737 0.106141746
0000c0 3e 2f d4 3d 60 ba 03 bd 4f 9a 9c bd 8d c3 b9 be
       0.10360573 -0.032160163 -0.076466195 -0.36282006
0000d0 de 51 ce 3d 28 1d 70 bf 30 f9 9c 3d 0a 9c b1 3c
       0.10074209 -0.9379449 0.07664716 0.02168085
0000e0 c3 d8 28 be e9 7c c9 3d 45 1f 2f be bd ca 74 3e
       -0.16488938 0.09838278 -0.17101772 0.23905464
0000f0 cd 80 af 3c 59 c7 0c bc e8 25 30 bd 8a 20 4e be
       0.021423722 -0.00859245 -0.0430049 -0.201296
000100 ee 69 3a 40 45 74 f4 3f 0a bd 7a be 40 1c 83 3e
       2.9127154 1.9097983 -0.24486175 0.2560749
000110 31 e4 8b 3d 4b e3 f9 3c 86 57 4a 3e 35 10 0f bf
       0.068306334 0.03050389 0.1975995 -0.55884105
000120 be 3a 40 3d f6 ac 53 be f9 6e ca 3d 26 28 cd bd
       0.04693102 -0.20671448 0.098844476 -0.10017423
000130 d4 5e a9 be 15 74 bf 3d f4 c1 16 3e fe ca 97 ba
       -0.3308016 0.09348313 0.14722425 -0.0011580882
000140 45 45 57 3d c5 f1 1e bd 2a fc 30 3e b0 e0 4c be
       0.052556295 -0.03880479 0.17283693 -0.20007586
000150 80 41 bb bd 58 13 07 bf ec eb 08 bc 4f f3 8b 3c
       -0.091433525 -0.5276389 -0.008357029 0.017083792
000160 37 91 9c be 26 18 6d 40 2e a9 63 3d e2 62 1a 3e
       -0.3057954 3.704599 0.055581264 0.15076783
000170 fa 4e 8d be 5f 55 b0 be 33 12 ab 3c 7e 1f 9b 3d
       -0.27599317 -0.34440133 0.020882702 0.07574366
000180 e7 24 5b 3e 34 35 2b 3d 3f ba 7d be b0 f1 05 bf
       0.21400796 0.041798785 -0.24778078 -0.5232191
000190 ef 0b ca 3c 4c f7 6f bd b9 fd 60 3e b6 f3 bb be
       0.024663894 -0.05858545 0.21971788 -0.36709374
0001a0 b2 89 89 bd c8 b1 8d be 32 ca c6 3f 92 88 7f 3d
       -0.067157164 -0.276747 1.5530455 0.062386103
0001b0 bf a7 2d 3e bc c1 a9 3d ff e8 8c bf fb 48 a1 be
       0.16958521 0.08288905 -1.1008605 -0.31500992
0001c0 ea 6b 89 be 52 2e 5f bd 51 e9 cc bd 56 1b 46 be
       -0.26840144 -0.054487534 -0.10005439 -0.19346365
0001d0 ca de 86 3d fc 74 69 bd 80 0c 58 3e e0 6b 07 be
       0.065854624 -0.05699633 0.21098518 -0.13224745
0001e0 92 69 31 3f 1f 14 1d 3d 54 24 b6 3e 95 e9 3e 3d
       0.6930171 0.038349267 0.3557459 0.04660948
0001f0 19 a3 2b ba 89 ae ac 3c 0f 8c 5b 3e c6 a1 ad 3d
       -0.0006547436 0.021079319 0.21440147 0.084781215
000200 5d 6d 5a bc 94 5a 30 3e 8c cd 8a 40 72 cc a2 3c
       -0.013331738 0.17222053 4.337591 0.019872878
000210 7f 0f 0a 3e 1d ee 00 be d8 7c db bf 0b 24 37 be
       0.13482474 -0.12590833 -1.7147474 -0.17884843
000220 45 ca 0a 3c 5e 5a 87 bf b1 4f 9b be af 6c 9e bd
       0.008471076 -1.0574453 -0.30334237 -0.077355735
000230 8f b9 c0 be 9e eb 72 be 21 71 22 3b 8d 81 b8 bf
       -0.3764157 -0.23722693 0.0024786668 -1.4414536
000240 c7 cd 47 3e 50 13 99 3c 3a e1 47 3e 75 c8 c8 bd
       0.19512092 0.018685967 0.19519511 -0.09803859
000250 78 46 a2 bc 46 86 62 be 41 7f 35 be 8b 8a 6e 3e
       -0.019808993 -0.22121534 -0.17724325 0.23295037
000260 9a 27 72 3c 38 b8 16 bf ec 69 98 bd 02 d5 f1 bd
       0.01477995 -0.58874846 -0.07442078 -0.11808206
000270 94 12 9d 3e c9 35 1e be fb ea 81 bd 17 40 c1 3e
       0.30678236 -0.15450205 -0.06343647 0.3774421
000280 40 90 89 be e2 29 f6 ba 77 66 36 bb 87 8f 4c 3e
       -0.26867867 -0.0018780793 -0.002783207 0.19976626
000290 93 53 a7 3d fb 06 8d be 5f 67 52 3d 97 db 53 3d
       0.081702374 -0.27544388 0.051368114 0.05172309
0002a0 f3 49 6d 3f a3 85 d8 3e 10 3b 81 3c c3 b1 c2 bd
       0.9269096 0.42289457 0.015775234 -0.095065616
0002b0 c7 ad 90 be ab b8 2d 3d 64 3b e7 bb 0b 23 0d be
       -0.28257582 0.04241244 -0.0070566405 -0.13782899
0002c0 f4 d6 67 3d 76 2f bd 3d 40 b0 8f bd bc d5 b0 bd
       0.05660148 0.09237568 -0.07016039 -0.086345166
0002d0 de 9d b3 be c9 98 18 bc 76 18 36 bd f5 4b bf be
       -0.3508138 -0.009313771 -0.04445692 -0.37362638
0002e0 e8 25 fd 3d 3d 90 08 3e 8b 85 42 3e b6 02 f0 3c
       0.12360746 0.13336273 0.18996255 0.029298168
0002f0 e2 a9 68 3d 02 31 1b be cd 9d 51 3c 13 34 37 bf
       0.056802638 -0.15155414 0.01279397 -0.71563834
000300 b6 1c 97 3d 95 a6 8d 3f f3 e2 80 3e bd 61 44 bc
       0.07378523 1.1066462 0.2517315 -0.011986193
000310 dd c6 17 3e b6 57 21 3e 7d a7 b8 be 19 0b 85 3e
       0.14821954 0.15756115 -0.36065283 0.2598503
000320 38 cc 02 3e 7b 53 e0 3c 14 71 e3 3d 4a 4e 26 be
       0.12773216 0.027383557 0.11105552 -0.16240802
000330 ce a3 8f 3e c0 c9 53 bf b8 c1 18 be 0e 89 45 be
       0.2805466 -0.8272972 -0.14917648 -0.19290563
000340 6c e5 84 3d 91 dd 9c 3f 80 19 a9 3c cb 3c b5 3c
       0.06489071 1.2255117 0.020642042 0.022123715
000350 e1 a3 0e 3e 74 96 50 3e a6 70 0f be 99 b3 98 bf
       0.13929702 0.20369893 -0.14007816 -1.1929809
000360 3c eb 1d 3f 84 f9 c2 3e 80 66 41 be 0c aa 81 be
       0.61687064 0.3808099 -0.18886757 -0.25325048
000370 d7 43 dd bd 3b 0e e3 bf d1 9a 05 3f 91 d7 c5 3e
       -0.10803955 -1.7738718 0.52189356 0.38641027
000380 aa e8 19 be c5 95 75 3e 2b 83 1d be 84 79 22 bc
       -0.1503016 0.23982914 -0.15382068 -0.009916667
000390 ca cc 80 3e e8 11 02 3e ce df f5 bd 42 7b bf be
       0.25156242 0.12702143 -0.12005578 -0.37398726
0003a0 64 27 61 3c bd 34 a8 bd e8 00 32 c0 16 9f 0f c0
       0.013742302 -0.08213184 -2.7813053 -2.2440848
0003b0 fe a6 cb be 1f 60 be 3d dc 76 7c bd 95 3f 49 be
       -0.39775842 0.092956774 -0.06163679 -0.19653161
0003c0 95 95 52 3e 4d 8e 65 3e d6 80 a2 3e 9d ee 98 3e
       0.20564874 0.22417565 0.3173892 0.29869547
0003d0 3d a8 13 be d9 8f 06 be 06 f2 80 be c6 c0 a6 bb
       -0.14419647 -0.13140811 -0.2518465 -0.0050888984
0003e0 38 af bf 3d cf c5 a5 be e8 7a 1a 3e c4 e7 63 3e
       0.09359592 -0.32377478 0.15085948 0.2225638
0003f0 11 dd cb 3c 20 54 e8 3c 06 ff a5 3e 61 9c 40 be
       0.024885686 0.028360426 0.3242113 -0.18809654

fc2.bias f4 [256]
000000 6a d6 70 40 b9 bd 09 3d 5b 68 a2 3f af 74 24 40
       3.7630868 0.0336282 1.2688097 2.5696218
000010 dd 48 97 40 2d 59 80 40 51 1f 6d be 7d 14 3f bd
       4.7276444 4.0108857 -0.23156478 -0.0466504
000020 31 02 5e bf f5 7d 32 bf b3 cc 28 40 37 b5 7b 40
       -0.86722094 -0.69723445 2.6374938 3.9329355
000030 98 63 70 40 23 d7 5c 40 3e af 93 3f eb 41 5a bf
       3.7560787 3.450631 1.1537855 -0.8525683
000040 b6 2d a7 3f bb a3 56 bf eb 53 3f bf 58 ed 5c bf
       1.3060825 -0.8384358 -0.74737424 -0.8629966
000050 8b 48 10 c0 53 b1 89 bd 17 c9 54 3f 28 ad 95 3f
       -2.2544277 -0.06723275 0.8311934 1.1693468
000060 2b 3e b6 40 d1 24 72 be 8e e2 d4 be b5 64 3c bf
       5.695089 -0.23646857 -0.41579098 -0.73591167
000070 12 89 75 3f 34 33 6f bf ca 70 80 3f 39 51 c0 3f
       0.9591228 -0.93437505 1.003442 1.5024787
000080 4c fd 37 bf f9 98 7a bf b8 b8 75 40 9f 3e e2 bf
       -0.71870875 -0.9788967 3.8393993 -1.767536
000090 c2 70 77 3f ec 7b 10 c0 c8 6f d6 3f 61 41 77 40
       0.9665643 -2.2575636 1.6752863 3.8633654
0000a0 7a cf 8f be 23 44 72 40 33 cc f4 bf 6a 74 b7 bd
       -0.2808798 3.7854087 -1.9124817 -0.08957751
0000b0 07 f0 b8 be 98 81 6a bf cc eb a7 40 93 3b 2b bd
       -0.36120626 -0.91603994 5.247534 -0.04180486
0000c0 9c dd b4 40 36 f3 47 bf cc 38 25 40 02 4f b9 bd
       5.652052 -0.78105485 2.5815916 -0.09048273
0000d0 f5 f7 8b 3f f0 15 bb 3f 88 ae aa bd 46 05 48 bf
       1.0935045 1.461607 -0.083340704 -0.78133047
0000e0 e7 be ba 40 ee a7 a4 c0 83 53 8e 3f 42 20 21 be
       5.8358035 -5.145499 1.1119236 -0.15734962
0000f0 ec 39 9d 3f 90 1c bc 3f 79 81 54 bd 9e 5d b1 3f
       1.2283301 1.4696217 -0.051881287 1.3856695
000100 86 b1 10 be 95 d7 44 be 84 37 ee bf 8f 01 61 3e
       -0.1413022 -0.19222863 -1.8610692 0.21973251
000110 7e fb 4c bf 45 94 b5 bb 04 62 75 bf 87 ca d8 40
       -0.80071247 -0.0055413567 -0.95852685 6.7747226
000120 40 09 87 40 9a 8a 40 bf 81 db 9c 3f fb 93 3f bf
       4.219879 -0.7521149 1.2254487 -0.74835175
000130 19 09 71 40 24 ca fa be b1 8e 7b 3f fa b3 5f 40
       3.7661803 -0.48982346 0.98264605 3.49536
000140 fa a8 3e bf 62 b9 87 3f 5d 39 bc 3f e7 a2 a0 be
       -0.7447659 1.0603449 1.4705006 -0.31374285
000150 24 33 71 40 10 6b 05 40 a9 94 75 40 8d 5b 42 3f
       3.7687464 2.0846596 3.8371985 0.75920945
000160 38 78 e8 3f 24 2c a7 40 12 50 82 3f 90 a0 6e 40
       1.8161688 5.2241383 1.0180686 3.72855
000170 d2 47 4d bc ef 73 9d 3f 69 86 90 3f 7c 58 33 40
       -0.01252933 1.2301005 1.1291019 2.8022757
000180 6c 3a 86 40 f7 44 5b 40 d0 80 15 40 b5 3c 52 bf
       4.1946316 3.4260843 2.335987 -0.8212388
000190 74 1c 61 bf 19 eb 87 40 9b c7 68 40 02 83 a8 be
       -0.8793404 4.2474484 3.637183 -0.3291245
0001a0 b4 14 35 40 75 64 b5 bf b6 3c 6e bf ad 20 47 bf
       2.8293886 -1.4171282 -0.9306139 -0.77784234
0001b0 1f 68 7f 3f 24 8a 12 3f 7b 76 a0 3f 1b 39 a8 3f
       0.9976825 0.57242036 1.2536157 1.3142427
0001c0 3b b4 cc 3f 3e f7 80 40 05 0c 3c be d9 d8 84 be
       1.5992502 4.030181 -0.1836396 -0.25946692
0001d0 9f 84 79 40 0b f0 95 3f 12 5d 50 bf f3 2d b4 c0
       3.8987195 1.171388 -0.81392014 -5.630609
0001e0 26 d4 9b bf a0 d9 09 3f f0 84 09 bc a8 d7 77 3f
       -1.2174118 0.53847694 -0.008393511 0.9681344
0001f0 19 6e 7b 3f 0c 52 92 3f 55 fb 4c bf cc 30 56 bf
       0.9821487 1.1431289 -0.80071 -0.8366821
000200 b1 a8 9b bd ad ed 43 bf cc f0 ae bd a7 68 72 40
       -0.07600535 -0.7653454 -0.08542022 3.7876375
000210 f9 8c e8 bc 54 95 e5 c0 be f3 47 bf 0e 95 6f bc
       -0.028387534 -7.1744785 -0.78106296 -0.01462294
000220 6d bb 7b 40 73 e4 84 3f 26 c9 d8 bc 09 a9 21 40
       3.9333146 1.0382217 -0.026463103 2.525942
000230 08 0b b9 3f b9 7b 6a bf fe 60 6b 40 90 a5 84 bd
       1.4456491 -0.91595036 3.677795 -0.06476891
000240 84 06 e3 3e 13 a9 17 bd d9 ed b3 3f 93 3b 7a 40
       0.4434091 -0.037026476 1.405696 3.9098861
000250 c7 56 82 3f 1a 16 6f 40 2b a4 11 c0 4a 5e 64 bc
       1.0182732 3.735724 -2.275645 -0.013938496
000260 0d 29 81 bf d5 be 78 40 a2 28 78 3f 36 ea 3d bf
       -1.0090653 3.8866475 0.96937 -0.741855
000270 56 4f 47 bf bc cf 03 3d b4 b5 6f c0 9e bc 4c 3f
       -0.7785543 0.032180533 -3.7454653 0.79975307
000280 97 38 0f be 53 02 68 40 cc bd 69 bd cd 42 46 40
       -0.13986431 3.6251419 -0.05706577 3.0978272
000290 e7 e5 83 3f 40 01 90 3f 5b 66 29 40 5f 29 34 bf
       1.0304536 1.1250381 2.6468723 -0.7037563
0002a0 ab 1c 2a be 62 da 90 c0 75 59 96 40 19 48 52 bf
       -0.16612498 -4.526658 4.69842 -0.8214126
0002b0 ca 47 71 40 5f 1c 02 40 e7 87 66 bf d7 0b 9a 3f
       3.7700067 2.0329816 -0.9005112 1.2034863
0002c0 d3 cb 98 3f fa 00 3f bf 70 de 46 3b c1 6c 1c 3a
       1.1937202 -0.74610865 0.0030344985 0.00059671333
0002d0 56 8d 6f 40 58 33 ed 3e a6 b3 67 bf b2 37 7b bf
       3.7430015 0.46328235 -0.90508497 -0.9813186
0002e0 f8 31 89 bd 5a d2 50 bf 89 c4 08 bf 12 07 87 3f
       -0.06698984 -0.8157097 -0.5342489 1.0549033
0002f0 39 67 80 40 8b c7 6b 40 87 c5 a4 c0 b1 fb 0b bf
       4.0126004 3.6840541 -5.149112 -0.54680926
000300 1c d1 86 40 ba 5e 54 bf 5c 9a 37 bd 66 ad 9e c0
       4.213026 -0.8295704 -0.044824943 -4.958667
000310 1e cc 45 bf b7 73 38 bf fd 2c a9 bd 1c 5b 72 40
       -0.77264583 -0.72051567 -0.08260534 3.7868109
000320 27 08 34 40 5e 58 67 bf c2 58 46 bf fc ed 4a c0
       2.8129976 -0.9036921 -0.77479184 -3.1707754
000330 c9 22 f1 40 2c 62 05 3f 51 22 c4 bd 87 af 80 40
       7.535496 0.52102923 -0.09576858 4.0214267
000340 23 47 ac be 9a 9d 3e bf 54 44 19 c0 69 ac 00 bf
       -0.33648023 -0.7445923 -2.3947954 -0.5026308
000350 54 59 40 3f a3 7e 84 3f d7 f9 8c bd 1d 3e e0 bd
       0.75136304 1.0351146 -0.06883591 -0.10949347
000360 18 d9 a1 3f cb bd 61 bf c1 80 97 be 2b d1 d2 40
       1.2644377 -0.88180226 -0.2959042 6.588033
000370 3c 68 5d bf f4 fa df bc 56 13 bb 3c db 51 a1 bc
       -0.86487174 -0.027341343 0.022836369 -0.019692352
000380 30 61 1e c0 b2 03 7f 40 50 b3 71 40 c0 fc 18 be
       -2.4746819 3.9846005 3.7765694 -0.14940166
000390 7e 85 18 40 0b 57 9b 3f 86 87 b0 be 49 ac bb bd
       2.3831477 1.2135938 -0.34478396 -0.0916372
0003a0 72 f2 e9 3f d4 14 04 3e 36 ab 05 bf e3 1f 88 3f
       1.8277113 0.1289857 -0.5221437 1.0634731
0003b0 58 60 a4 bf 22 a6 4d bf 82 6a bb bf 7c fd d3 40
       -1.2841902 -0.80331624 -1.4641879 6.624693
0003c0 36 79 6e bf 1d a9 a0 3f 6c b1 ae bf 91 79 81 40
       -0.93153703 1.2551609 -1.3647895 4.0460896
0003d0 75 13 fe 3e 93 40 b2 bd 61 ae a2 bf fe ef 46 bf
       0.4962422 -0.08703723 -1.2709466 -0.7770995
0003e0 b0 2b 68 40 be 38 46 bf 83 42 33 bf 15 26 c0 40
       3.6276665 -0.7743033 -0.70023364 6.0046487
0003f0 4a a1 17 c0 20 45 67 bf 96 46 5c bf 31 f9 af 3f
       -2.3692193 -0.9033985 -0.86045206 1.3747922

fc3.weight f4 [1, 256]
000000 75 f7 1e c0 83 47 9b 3f 6f 1f 41 be 2d 03 f5 be
       -2.4838536 1.2131199 -0.18859647 -0.47853985
000010 42 14 ce bf 68 14 33 bf b2 9e 00 c1 58 b0 a2 bb
       -1.6099932 -0.6995301 -8.038744 -0.0049648695
000020 f3 c9 34 3f 50 a7 c7 3e 8c d7 ca bf 33 59 a5 bf
       0.7062065 0.38994837 -1.584703 -1.2917846
000030 77 57 e4 bf 6d cb 29 c0 5b 45 e9 bd 15 e8 36 3f
       -1.7839192 -2.6530411 -0.11390182 0.7144788
000040 5a d8 0a be 6d 74 16 3f 82 8c ef 3e 7b 6d d1 3e
       -0.13559094 0.587714 0.46786886 0.4090384
000050 d0 80 e1 3f 8c 44 8a 3d 30 04 28 3f 4b 8f af be
       1.7617435 0.067513555 0.6563139 -0.3428901
000060 56 5d 78 c0 87 9d 9d 3f 5d 4e 3e 3f 6d 52 b1 3e
       -3.8806968 1.2313699 0.7433832 0.34633198
000070 39 4e 2f bf 82 3b e1 3e a0 83 78 bd ce 8e 71 be
       -0.68478733 0.43990713 -0.060672402 -0.23589632
000080 e6 a9 1a 3f 41 c5 e7 3e ae d8 2f c0 75 e6 a7 3f
       0.60415494 0.4526768 -2.7476 1.3117205
000090 d7 9c f1 3e d1 03 67 bf 5a 44 25 be d9 99 4c c0
       0.47189972 -0.902402 -0.16139355 -3.19689
0000a0 8f f5 f7 3f 34 ec 2b c0 8e 80 6f 40 ba 59 63 3b
       1.9371814 -2.6862917 3.7422214 0.0034690932
0000b0 cb de 41 3f 46 ea 0f 3f 4c 70 05 3f 88 20 c8 3d
       0.7573058 0.5621685 0.52124476 0.0977183
0000c0 16 cf c6 bf 5a 4c c2 3e 38 82 e1 bf 5e 98 96 bb
       -1.5531948 0.37948877 -1.7617865 -0.0045958003
0000d0 d1 3e 4f be f9 32 8b bf 03 6f 3e 3c 79 ed e3 3e
       -0.20238806 -1.0874931 0.011623147 0.44517115
0000e0 a0 71 a8 bf 3a 17 cb bf f6 bd e8 bd bb d3 e4 3b
       -1.3159676 -1.5866463 -0.11364357 0.006983248
0000f0 28 39 52 3f be 62 5b bf 08 26 96 bb b4 c2 7d be
       0.82118464 -0.85697544 -0.0045821704 -0.24781305
000100 c6 91 d0 3f 60 08 90 3f e6 13 d7 3e fb d2 31 3f
       1.6294487 1.1252556 0.4200737 0.69462556
000110 0a 84 eb 3e c7 07 fc 3c a0 a0 39 3f ab 22 d4 bf
       0.45999175 0.030765427 0.7251072 -1.657308
000120 25 10 c0 3e 9a 70 da 3e 53 b8 97 be 8f 80 03 3f
       0.37512317 0.42664033 -0.29632816 0.5136804
000130 94 f4 34 c0 e2 8c 1b 3f b0 b6 e4 3e 24 1e a5 bf
       -2.8274279 0.60761845 0.4467063 -1.2899823
000140 cc bf 01 3f 56 a5 d7 bd 04 d3 9e bd 62 58 7b 3f
       0.50683284 -0.10529582 -0.07755092 0.98181736
000150 8b 64 cc bf f8 80 95 3f 81 37 22 c0 e6 a8 2f 3f
       -1.5968183 1.1679983 -2.5346377 0.68617094
000160 60 ae 7b bf 9f ed aa 3e 90 9a b0 be 2c e8 5f bf
       -0.9831295 0.33384416 -0.34492922 -0.8746364
000170 99 2e d4 bb b6 59 ca bd 5e dd 9e bc 4d 3f 02 3f
       -0.0064752814 -0.09880392 -0.019392665 0.5087784
000180 e9 5e 2e 3f 26 8d 12 c0 17 c5 71 c0 ae 5a 11 3f
       0.6811357 -2.289865 -3.7776544 0.5677899
000190 5c 96 10 3f d6 91 db bf d3 33 e6 bf 45 73 10 3f
       0.5647943 -1.7153881 -1.7984565 0.5642589
0001a0 ee 23 3f 3f d5 19 03 3f ac 0c 2d 3f 0a bf 2f 3f
       0.746642 0.5121129 0.6759746 0.6865088
0001b0 06 ee 8d 3f 8b 91 07 40 3a a9 b3 3e 20 89 1a c0
       1.1088264 2.1182582 0.35090047 -2.4146194
0001c0 e3 f0 db be c1 d2 38 c0 07 cd 9f 3e aa 8d 48 c0
       -0.4295722 -2.8878634 0.3121111 -3.1336465
0001d0 4e 6b 21 c0 6d c5 85 3f 38 f3 2d 3f 6e 28 f3 bf
       -2.5221744 1.0450875 0.6794925 -1.8996713
0001e0 72 95 c2 3f 8d 37 ae bd 68 a6 6d 3f c4 aa e1 bf
       1.5201857 -0.08506689 0.9283204 -1.7630239
0001f0 28 10 ab be 29 0d 8d bc 53 b8 e2 3e e7 e5 06 3f
       -0.33410764 -0.01721819 0.44281253 0.52694553
000200 62 b1 11 bc 8d d4 c8 3e 59 30 b8 bb d2 dc 18 c0
       -0.008892389 0.39224663 -0.005620998 -2.3884778
000210 b7 2d d0 bb 51 3f 74 bf b1 3d 0f 3f cf b1 58 bb
       -0.006353106 -0.95409113 0.5595351 -0.0033064967
000220 7a 80 17 c0 0b ba b8 be 50 ff 1d 3d 9e ac 05 bf
       -2.3672166 -0.3607944 0.038573563 -0.5221652
000230 0d fa dd 3e 66 35 cd 3e 3b e9 c6 bf 25 68 84 bb
       0.43354836 0.40079802 -1.5539926 -0.0040407353
000240 e7 cb db bf 7f 5b 0a bb 8b e1 df be 16 79 41 c0
       -1.7171601 -0.0021111665 -0.43726763 -3.0230155
000250 91 a6 10 bf a7 d2 b8 bf e7 60 cd 3f 82 c4 8e 3d
       -0.5650416 -1.4439286 1.6045197 0.06971075
000260 6d b2 17 3f 24 a8 3a c0 05 91 30 3f 59 4a ef 3e
       0.5925663 -2.9165125 0.6897128 0.4673641
000270 42 28 15 40 18 1a 41 40 24 3b a9 3f 72 43 03 3f
       2.3305821 3.0172176 1.3221173 0.5127479
000280 0b bb 78 3f 94 26 0d c0 f3 bf 89 3b ef a1 bc bf
       0.97160405 -2.2054796 0.0042037903 -1.4736918
000290 6f 1a 1c c0 14 6f 9e 3f 59 61 b3 3e 46 ef 22 3f
       -2.4391134 1.2377648 0.35035208 0.6364635
0002a0 57 74 2f 3c 2f 6a ea bf b5 28 4b c0 39 9b f1 3e
       0.01070889 -1.8313655 -3.1743596 0.47188738
0002b0 47 fc 01 c0 84 36 33 40 76 cc e9 3e 36 ac e9 be
       -2.0310228 2.8002024 0.45663804 -0.456392
0002c0 85 99 54 be 02 46 0c 3f 42 51 b8 bd 9a 6f b5 3b
       -0.20761688 0.54794323 -0.08999874 0.0055369856
0002d0 94 f8 0c c0 62 8d 1e 40 10 85 56 3f 92 1b 04 3f
       -2.202672 2.4773793 0.8379679 0.5160457
0002e0 5c 02 b5 3d 63 a7 20 3f 10 f1 19 3f 7d 01 e5 bd
       0.08838341 0.6275541 0.6013346 -0.111819245
0002f0 db 3b 3b c0 e8 cd 19 c0 e4 18 3b bf 8e bb a7 be
       -2.9255283 -2.4031925 -0.73084855 -0.3276028
000300 16 78 87 3f 54 16 de 3e 2f 76 e0 3d 63 df ae 3f
       1.0583522 0.4337641 0.10960042 1.3661922
000310 b4 42 08 c0 1b bb ca 3e 83 38 bd 3d 39 cf 42 c0
       -2.1290712 0.39595875 0.092392944 -3.0438979
000320 e4 f9 a9 3e 72 2c 1c 3f 52 bb 02 3f d7 fc df 3e
       0.33198464 0.6100532 0.5106708 0.4374759
000330 16 aa 8d 3f b7 97 d1 3f cd bc 84 3d fc a5 b7 bf
       1.1067531 1.6374425 0.064813234 -1.434753
000340 72 2a 7f 3f b4 45 db 3e 84 f0 09 3f 7c 6a a3 bf
       0.9967414 0.42826617 0.5388262 -1.2766871
000350 69 56 36 40 4f 66 b1 be 8d 63 7d 3d 1e fd 1b bd
       2.849024 -0.34648368 0.061862517 -0.03808319
000360 89 9a 80 be 4e 02 ea 3e 0e 4b 19 3a f7 d3 23 3f
       -0.251179 0.45704883 0.0005847671 0.6399531
000370 fa 73 07 3f fa cd 88 3d 35 98 89 3f a4 0d b3 bd
       0.5291134 0.06679912 1.0749575 -0.08742836
000380 19 64 57 40 3e 75 3d c0 fd 0c 23 c0 37 ec 32 bb
       3.3654845 -2.960281 -2.5476677 -0.002730144
000390 7c e3 fe bf 4c bd f3 bd 0f 0c 58 bf a6 fd 60 3c
       -1.9913173 -0.1190134 -0.843934 0.0137323495
0003a0 9e ee db 3e 13 46 da bd c8 1b 61 3d 45 da 86 3f
       0.42955488 -0.10657897 0.054958135 1.053536
0003b0 87 d4 c1 3f 48 0a 13 3f e5 1e 08 bf 38 7b 66 3f
       1.5142983 0.5743756 -0.5317214 0.90031767
0003c0 9f 66 e8 3e 37 76 83 be ff 2a 18 40 c7 bc 3f c0
       0.45390794 -0.25676128 2.3776243 -2.995897
0003d0 32 2f bb bf 60 85 82 3b 66 cb 39 bf e0 df a1 bf
       -1.4623778 0.0039831847 -0.72575986 -1.2646446
0003e0 2f 5b f9 bf b5 a4 12 3f 10 ac 36 3f 15 80 2c 3f
       -1.9480952 0.57282573 0.71356297 0.6738294
0003f0 4b f1 1e 40 29 bf 99 3e a9 b9 09 3f be 4d 54 bf
       2.4834774 0.30028656 0.5379892 -0.82931125
