model/sac_ff_sac_ff/agent1_sac_ff_q2_2000000.pth (torch, 275871 bytes, 5 tensors)

fc1.weight f4 [256, 8]
0	0xc00e6be3	-2.225335
1	0x3da3c9f8	0.07997507
2	0xbdfd51d0	-0.1236912
3	0xbeb4ebe8	-0.35336232
4	0xbdae7064	-0.085175306
5	0xbcd9f24d	-0.026604796
6	0x3e55ba83	0.2087193
7	0xbf56730a	-0.83769286
8	0x3e121d39	0.1426896
9	0x3d85a269	0.06525118
10	0xbdbf8ebc	-0.09353396
11	0xbdd4ae47	-0.10384803
12	0x3d38c12e	0.045106106
13	0xbd0da311	-0.03457934
14	0x3e048f0c	0.12945193
15	0xbbbcba7b	-0.005759535
16	0x3f846a3e	1.0344923
17	0x409abcc3	4.835542
18	0xbeb85d0b	-0.36008486
19	0x3f0169bb	0.50551957
20	0x3e8d45c5	0.27592292
21	0xb931226b	-0.00016892857
22	0xbb2ebaf7	-0.0026661733
23	0xbe7c1f63	-0.24621348
24	0x3d0b1b56	0.033961616
25	0x3df7436d	0.12073407
26	0xbd00f7d0	-0.031486332
27	0x3d0a316b	0.033738535
28	0xbe037ec2	-0.12841323
29	0xbe19b20a	-0.15009323
30	0xbd9d0cf8	-0.07668489
31	0xbcb418b9	-0.021984445
32	0x40a90b75	5.2826486
33	0xbe4a58c8	-0.1976043
34	0x3c543d93	0.012954134
35	0xc048c2c9	-3.1368887
36	0x3fc620ca	1.5478756
37	0xba23d788	-0.0006250073
38	0x3c67a6ef	0.014138921
39	0xbf917034	-1.1362367
40	0xbf1cd022	-0.61255085
41	0xbdbcc709	-0.092176504
42	0x3aa04a44	0.0012229164
43	0x3cd986ca	0.02655353
44	0xbd811fcd	-0.06304894
45	0xbc8014b1	-0.015634866
46	0xbb06b7d6	-0.0020556352
47	0x3f4f7d3b	0.8105046
48	0xbfe8ba99	-1.8181945
49	0x3d8f7cf5	0.070062555
50	0xbb8c4fb1	-0.004281961
51	0xbdbe04e1	-0.09278274
52	0x3d5e6272	0.054293104
53	0xbd13d5b5	-0.03609248
54	0x3de6c1d6	0.1126744
55	0x3eac892f	0.33698413
56	0x3e0ae6e2	0.13564637
57	0x3d479817	0.04872903
58	0xbdbc0cf0	-0.09182155
59	0x3e19c563	0.15016703
60	0x3e18705c	0.14886612
61	0xbe135f82	-0.14391902
62	0xbda6bfab	-0.081420265
63	0x3c80a923	0.01570565
64	0xc00c5867	-2.1928957
65	0xbec80dc8	-0.39073014
66	0xbc7bbf43	-0.015365425
67	0xbe8cbc16	-0.27487248
68	0xbf141ec9	-0.57859474
69	0xbd19ab1e	-0.037516706
70	0x3e926b83	0.2859765
71	0x3ebb808e	0.36621517
72	0xbf855525	-1.0416609
73	0x3c555b35	0.013022234
74	0xbc28377e	-0.010267137
75	0x3c3c1598	0.011479758
76	0xbc41838a	-0.0118111465
77	0xbc49bfb8	-0.012313776
78	0x3d51b7ea	0.051200785
79	0xbd33c996	-0.04389342
80	0x3dabe512	0.08393301
81	0x3c20e84d	0.00982101
82	0x3c675488	0.014119275
83	0xbdc1c41d	-0.09461234
84	0xbe18c60f	-0.14919303
85	0xbe0d7fb9	-0.13818254
86	0x3dfa4d2c	0.122217506
87	0xbb70548d	-0.003667149
88	0xbeed31f6	-0.4632718
89	0x40211645	2.5169842
90	0xbe4b5711	-0.19857432
91	0xbe8dffe9	-0.27734306
92	0xbc8975a3	-0.016779726
93	0xbd04cac9	-0.032419953
94	0x3cc257fa	0.023723591
95	0x3ea5bae6	0.32369155
96	0xbdaeeb1a	-0.08540936
97	0x3da089aa	0.07838757
98	0xbe06c035	-0.13159259
99	0xbe04dbad	-0.12974425
100	0xbcdbfc97	-0.026853843
101	0xbe0222aa	-0.12708536
102	0xbdcfa585	-0.10138992
103	0x3dca68d1	0.098832734
104	0x3d6d757e	0.057973377
105	0x3da315c0	0.07963133
106	0xbdbdc0a5	-0.0926526
107	0xbe011b0d	-0.12607975
108	0xbe0dab21	-0.13834812
109	0xbe19a666	-0.15004882
110	0xbbfdf93b	-0.007750658
111	0xbe05f27e	-0.13080785
112	0xc0a53078	-5.1621666
113	0xbe18c95e	-0.14920565
114	0xbe254032	-0.1613777
115	0x3fbdda38	1.483222
116	0x3fdef009	1.7417003
117	0x3b8f1ed8	0.0043676905
118	0xbd237e62	-0.03991545
119	0xbeb15928	-0.34638333
120	0x3fb93faa	1.4472554
121	0xbd907208	-0.07053
122	0xbcd7599b	-0.026287844
123	0xbcbcbe76	-0.023040038
124	0x3e509721	0.20370151
125	0xbdb7c041	-0.089722164
126	0xbeb525c4	-0.35380375
127	0xbef2a989	-0.4739497
128	0x3cd6510a	0.02616169
129	0x3ccab558	0.024744675
130	0xbd4e2093	-0.050324034
131	0xbda9aedd	-0.08285306
132	0x3c9a6cb3	0.01885066
133	0xbda5ee51	-0.08102096
134	0x3b732752	0.0037102294
135	0xbd2030ac	-0.039108917
136	0xbf69e963	-0.91371745
137	0x3fb77104	1.4331365
138	0x3ab08268	0.0013466598
139	0xbe146b31	-0.14494015
140	0xbfd47604	-1.6598516
141	0xbea5ccf6	-0.32382935
142	0x3e047b61	0.1293769
143	0xbf8f798c	-1.1208968
144	0x3f49c14e	0.78810585
145	0xbf12cfdb	-0.5734841
146	0xbe56ca52	-0.20975617
147	0x3fea2cc6	1.8294914
148	0x3f630ed8	0.88694525
149	0x3c44c8ae	0.012010736
150	0xbcaead26	-0.021322798
151	0x408930c5	4.2872033
152	0xbf6f91f1	-0.93582064
153	0xbe8131d1	-0.2523332
154	0x3b88e971	0.004178219
155	0x3e692fdd	0.22772165
156	0xbe49c1b0	-0.19702792
157	0xbd192519	-0.037388895
158	0xbc974123	-0.018463677
159	0xbed33715	-0.41252962
160	0xbde5bb61	-0.1121738
161	0xc033a661	-2.80703
162	0x3d4a79bd	0.049432505
163	0x3fcfa81d	1.6223179
164	0x3e268023	0.16259818
165	0x3a3e8184	0.0007267224
166	0x3b0d9472	0.0021603373
167	0xbf7cfddc	-0.9882486
168	0xbfe04098	-1.7519712
169	0xbd8a4dc9	-0.067531176
170	0xbbe0fb03	-0.0068658604
171	0xbf20689d	-0.6265963
172	0x3fe89ca2	1.81728
173	0xbcab7792	-0.020931039
174	0xbc92bbb8	-0.017911777
175	0x4045918d	3.0870087
176	0xbdef2b34	-0.11678162
177	0xbde420a5	-0.11139039
178	0xbbd2343e	-0.006414919
179	0x3e7388e8	0.23782694
180	0xbe2e3317	-0.17011677
181	0xbd0149ed	-0.03156464
182	0xbd9c4bd7	-0.07631653
183	0xbead8692	-0.33891732
184	0x3beba339	0.0071910885
185	0xbe0396f3	-0.12850551
186	0xbda1f791	-0.07908548
187	0x3d579dc7	0.052640703
188	0xbd7add85	-0.061246414
189	0xbdc47bc6	-0.095939204
190	0xbdd7eed5	-0.105436005
191	0x3db1b34c	0.08676776
192	0x40b7a670	5.739067
193	0x3eac3fff	0.33642575
194	0xbd8c92b4	-0.06863919
195	0xbd677736	-0.056510173
196	0xbd6f931b	-0.0584899
197	0xbba219ac	-0.004946908
198	0x3b54ea05	0.003248812
199	0x3f82645d	1.0186878
200	0xc01d3097	-2.4560907
201	0x3e256455	0.16151555
202	0xbd787f3d	-0.06066822
203	0x3f2a99e2	0.66641057
204	0x3e8a3468	0.26993108
205	0xbcf3450a	-0.029696006
206	0x3d09b49e	0.033619516
207	0x40d83042	6.755891
208	0xbfb6269d	-1.4230534
209	0x3e1f1b94	0.15537864
210	0x3cbe3399	0.023217963
211	0xbd8442df	-0.06458067
212	0x3c38a64b	0.011270116
213	0xbc750ef8	-0.014957182
214	0xba98a790	-0.0011646617
215	0x3f3009f1	0.6876517
216	0x3fe06a61	1.7532464
217	0xbe06ce69	-0.13164677
218	0xbb198aa5	-0.0023428586
219	0xbfa393ec	-1.2779517
220	0x3f63f815	0.8905042
221	0x38955c76	7.122096e-05
222	0x3beaef28	0.007169623
223	0xbf91a4b8	-1.1378393
224	0xbe1cae98	-0.15300977
225	0x3c93ddf7	0.018050177
226	0xbc8affcc	-0.016967677
227	0xbd338010	-0.0438233
228	0xbc495f1f	-0.012290745
229	0xbbb63ab1	-0.005561196
230	0xbc74c567	-0.0149396425
231	0x3de17d1a	0.11010189
232	0x400baed1	2.182545
233	0xbe0f02b9	-0.13965882
234	0xbddcef5e	-0.10787843
235	0xbdb7f16d	-0.08981595
236	0xbd8e7244	-0.06955388
237	0xbd836da2	-0.06417395
238	0xbe06bedb	-0.13158743
239	0x3fb0bbde	1.3807333
240	0x3bace482	0.0052762637
241	0x3e07394e	0.13205454
242	0xbd865eda	-0.0656106
243	0x3d964f05	0.073392905
244	0xbda1bb05	-0.07896999
245	0xbde08711	-0.10963262
246	0xbd9c7c7f	-0.07640933
247	0xbdef5d62	-0.11687733
248	0x40048976	2.07089
249	0xbf61e5de	-0.88241374
250	0xbc0930be	-0.008373437
251	0x3fb5847b	1.4181055
252	0xbe89439b	-0.2680939
253	0xbc8d8796	-0.017276566
254	0xbcdf51c9	-0.027260678
255	0x418144bc	16.158562

fc1.bias f4 [256]
0	0x40693a82	3.644196
1	0xbe3fd921	-0.18735172
2	0x3f547346	0.82988393
3	0x3dead0e4	0.11465624
4	0x406a4bc9	3.6608756
5	0x4022437f	2.5353696
6	0x408a5de8	4.323963
7	0x3e4d52de	0.20051143
8	0x3feb31eb	1.8374609
9	0x40367ade	2.8512492
10	0x3e94d1fb	0.29066452
11	0x40b9443e	5.7895803
12	0x3d645280	0.05574274
13	0x3d1fa7c8	0.038978368
14	0xbf13f747	-0.5779919
15	0xc039bb4b	-2.9020565
16	0xbe927824	-0.28607285
17	0x401a8d3f	2.414871
18	0xc0f391d8	-7.611553
19	0x3fbfdab2	1.4988616
20	0x4056fed2	3.359303
21	0xc0ccd49e	-6.4009542
22	0x409878b7	4.7647357
23	0xbe65de36	-0.22448048
24	0xc1638eac	-14.222332
25	0x407499e5	3.821893
26	0x410424b1	8.258958
27	0x41e1a484	28.20533
28	0x408648e4	4.196398
29	0xc0860a62	-4.1887674
30	0xbdd390f8	-0.10330385
31	0xc087292b	-4.2237754
32	0x40c960b1	6.293053
33	0xc0e1a5bf	-7.0514827
34	0xc0ddb036	-6.92776
35	0xbec58f01	-0.38585666
36	0x406e60d2	3.7246594
37	0xc07a9c31	-3.9157832
38	0x408a8054	4.328165
39	0x4072bd2f	3.7927969
40	0xc095b298	-4.678051
41	0x3e88b4c3	0.2670041
42	0xc192dc31	-18.357515
43	0xbf5b0eb9	-0.8556934
44	0x407939e1	3.8941576
45	0x41a358b5	20.418314
46	0x411ab38b	9.668834
47	0xc034db1a	-2.825873
48	0x40279172	2.6182523
49	0x41479248	12.473213
50	0xbe983d31	-0.29734185
51	0xc0940666	-4.625781
52	0x4029759c	2.6478033
53	0xc04551ab	-3.0831096
54	0xbe71033b	-0.23536389
55	0x3e8002af	0.25002047
56	0x3fe0a838	1.7551336
57	0x3c857a40	0.016293645
58	0x4052a78b	3.291476
59	0xc13508a5	-11.3146105
60	0x3ec7b036	0.39001626
61	0xc161873e	-14.095518
62	0xc00cce45	-2.2000897
63	0xc0ad189b	-5.4092536
64	0xbe4db11d	-0.20087095
65	0xc0d07e53	-6.5154204
66	0xbea6d46e	-0.32583946
67	0x3e9d13b9	0.3067911
68	0xc1e453f6	-28.540997
69	0x40104415	2.2541554
70	0xbd73e9d8	-0.059549183
71	0x40087af5	2.1325047
72	0xbbace380	-0.0052761436
73	0xc0a736de	-5.2254477
74	0xc03a8520	-2.9143753
75	0xbe9ddb75	-0.30831495
76	0x3fc2f851	1.523203
77	0xc0307247	-2.756975
78	0x40b3af54	5.6151524
79	0x3d9a3df4	0.07531348
80	0xbffa22c7	-1.9541863
81	0x3e31cda7	0.17363606
82	0xbda00fb2	-0.07815494
83	0xc1363b8c	-11.389538
84	0xc01cf389	-2.4523642
85	0xbebe91da	-0.3722065
86	0xc1f5197e	-30.637447
87	0xc095316e	-4.662284
88	0x401efcb3	2.4841735
89	0x413ea2a7	11.91471
90	0xbe6ccfaa	-0.23126093
91	0x3f8a26f4	1.0793138
92	0xc15faaaa	-13.979166
93	0xbfcbdcd1	-1.5926763
94	0x3fe239c7	1.7673882
95	0xc1116c15	-9.088887
96	0x40f185bb	7.5475745
97	0xbcc79ed0	-0.02436772
98	0x3d9f388c	0.07774457
99	0x4039574d	2.8959534
100	0xc15044a4	-13.016758
101	0xc16ac060	-14.671967
102	0x40b47025	5.6386895
103	0xc0bc2d00	-5.880493
104	0xbe096e90	-0.13421082
105	0x407f1702	3.9857793
106	0xc094a217	-4.6447864
107	0xc045d8f3	-3.0913665
108	0xbf0e4f39	-0.55589634
109	0x402f26c0	2.73674
110	0x401c70a9	2.4443762
111	0x4045d9df	3.0914228
112	0xc11674b5	-9.403493
113	0x3df2fa1d	0.118641116
114	0x3e3f554e	0.18684885
115	0x40595109	3.395571
116	0xbff016c6	-1.875695
117	0xbe0441c9	-0.1291572
118	0x403f07f5	2.9848607
119	0xbe27531a	-0.16340294
120	0x3fdc61bf	1.721733
121	0x3d5d5430	0.054035366
122	0x407e9734	3.9779787
123	0x3ccba040	0.024856687
124	0x404f896b	3.2427623
125	0x4059ace1	3.4011767
126	0xbe16a762	-0.14712289
127	0xc072eca4	-3.7956934
128	0x3d52c1a0	0.051454186
129	0x4073b974	3.8081942
130	0x3e1c9caa	0.15294138
131	0x3e52f6b6	0.20601925
132	0x403682d2	2.8517346
133	0x407ed002	3.9814458
134	0x41638747	14.220527
135	0xbc626e20	-0.013820201
136	0x3f586304	0.84526086
137	0xbe64929c	-0.22321552
138	0xc11460c0	-9.273621
139	0x40068a00	2.1021729
140	0xbdfc3df6	-0.123165056
141	0x4073f248	3.8116627
142	0xc0982a53	-4.7551665
143	0x4083c192	4.117379
144	0x41a86bd5	21.052652
145	0x4120c385	10.047734
146	0x400a20fe	2.1582637
147	0x402c956e	2.6966205
148	0xc031fcde	-2.7810588
149	0xc008980e	-2.1342807
150	0xc0ba388b	-5.819402
151	0xc091fa9a	-4.561841
152	0x4002ba17	2.042608
153	0x3e92443b	0.2856768
154	0xc04ffa20	-3.2496414
155	0x415d0207	13.812995
156	0x40468ba3	3.1022727
157	0x3e91714d	0.28406754
158	0x40ca31f6	6.3185987
159	0xc0f28f5d	-7.5800004
160	0x4061c4f8	3.527647
161	0xc03e99ab	-2.9781291
162	0xc039d6b2	-2.903729
163	0xc088a328	-4.2699165
164	0x4056ab58	3.354208
165	0xc094e4c7	-4.652927
166	0xbf8d9e67	-1.1063966
167	0xc0337b92	-2.8044171
168	0x3e617c0a	0.22019973
169	0xbda66920	-0.0812552
170	0xc0f052e1	-7.510117
171	0xbdb0a2bc	-0.08624789
172	0xc0282471	-2.6272242
173	0x408af4e4	4.342394
174	0xc0111459	-2.266867
175	0xc019c5b2	-2.4026914
176	0x407f2400	3.9865723
177	0xbccae248	-0.024766102
178	0x3d6b8750	0.05750209
179	0x409fa0d7	4.988384
180	0xbe5bc47f	-0.21461676
181	0x3e3af66e	0.18258068
182	0x3ffe0122	1.9844096
183	0xbeb00242	-0.34376723
184	0xc067c69d	-3.6214974
185	0xc200a5d8	-32.161957
186	0xc052ffe2	-3.2968678
187	0x403e6732	2.9750485
188	0xc1908f09	-18.069841
189	0x3ee90c0d	0.45517007
190	0xbe38da59	-0.18052043
191	0x3ff01aae	1.8758142
192	0x402b4d9f	2.6766126
193	0xc1e7b279	-28.962145
194	0x4003cb22	2.0592732
195	0x41b29f4a	22.327778
196	0xc089bce7	-4.3043094
197	0x3b158000	0.002281189
198	0x3fe0448d	1.752092
199	0xbf11e4ff	-0.56990045
200	0xc0721164	-3.7823114
201	0xc12d8509	-10.844979
202	0x418455d0	16.5419
203	0x41161101	9.379151
204	0x3bc87b80	0.006118238
205	0xbe565af4	-0.20933133
206	0x3e9dcebf	0.30821797
207	0x4049c73a	3.1527848
208	0xbf8edcd6	-1.1161144
209	0x3eadefb7	0.3397195
210	0xc0492bac	-3.1432905
211	0x40878167	4.234546
212	0x40ce729e	6.4514914
213	0x41db67fc	27.425774
214	0xc04ab010	-3.166996
215	0xbea9bb9d	-0.3315095
216	0x3f29e0fd	0.6635893
217	0xbe5ff0a3	-0.2186914
218	0xc17cc106	-15.797125
219	0xc0465365	-3.09884
220	0xbd14d948	-0.036340028
221	0xc03e70ee	-2.9756427
222	0x40510138	3.2656994
223	0xbe35b6e0	-0.17745543
224	0xc1bebec3	-23.843145
225	0x3d5ad188	0.05342248
226	0x4020032e	2.500194
227	0x40ee69cf	7.450416
228	0x3f3b951f	0.73274416
229	0xbbcfaac0	-0.0063374937
230	0x41609381	14.036012
231	0x3d55ab3d	0.05216526
232	0x3d40ed08	0.04710105
233	0xc1bf0a6b	-23.880087
234	0xc0b2dcd5	-5.589457
235	0x40610256	3.5157676
236	0x4108b392	8.54384
237	0xc0a4692a	-5.1378374
238	0xbe959c92	-0.29221016
239	0xbe9449ce	-0.28962559
240	0xbe8a7636	-0.27043313
241	0x4087d6d6	4.244975
242	0x4112dd83	9.17908
243	0xbf11f78b	-0.57018346
244	0x40cbd4d7	6.3697314
245	0xc0f32288	-7.5979652
246	0x3f079a66	0.5296997
247	0x4029f830	2.6557732
248	0x3fa98afe	1.3245542
249	0xbea7be38	-0.32762313
250	0xbe9dff6d	-0.30858937
251	0x4068f269	3.6397955
252	0xbd71f568	-0.05907193
253	0xc0348821	-2.8208086
254	0x3fd1da9b	1.6394838
255	0x3ed92f5e	0.4241895

fc2.weight f4 [256, 256]
0	0x3e59e4f4	0.21278745
1	0xbddb2181	-0.1069975
2	0xbdf55e90	-0.11980927
3	0x3daa5c75	0.08318416
4	0xbd700f29	-0.058608208
5	0xbd8d6296	-0.069035694
6	0x3ca3b629	0.019984322
7	0x3c9b9fbd	0.018997068
8	0x3f9c7bdf	1.2225302
9	0xbcfd4c3a	-0.030920137
10	0x3d8fcbf0	0.0702132
11	0x400c7af2	2.195004
12	0x3d3eea7f	0.04661035
13	0xba549192	-0.000810885
14	0xbdd7fab0	-0.10545862
15	0xbf068738	-0.5255008
16	0x3cbd675b	0.023120573
17	0x3e7cb5bd	0.24678703
18	0xbf1fd882	-0.6243974
19	0x3e7ea185	0.24866302
20	0xbe88171b	-0.26580128
21	0xbf0b1623	-0.5433065
22	0x3eee2ad1	0.4651704
23	0xbdd2c588	-0.10291582
24	0xbf268a5d	-0.65054876
25	0x3eeaee9e	0.45885175
26	0xbccd5561	-0.025065126
27	0x3d97b122	0.07406832
28	0x3e01c557	0.12672935
29	0xbe043504	-0.12910849
30	0x3d1722d9	0.036898468
31	0xbe5c2dd2	-0.21501854
32	0xbde659a9	-0.1124757
33	0x3c8cdc4d	0.017194891
34	0x3eb17391	0.34658483
35	0xbebe6f09	-0.37194088
36	0x3e948a24	0.29011643
37	0xbe44215d	-0.19153352
38	0xbdb3f061	-0.08786083
39	0xbd864122	-0.06555392
40	0xbf119620	-0.568697
41	0x3c384ecc	0.011249255
42	0xbe8d78c4	-0.276312
43	0xbe12184c	-0.14267081
44	0x40188461	2.3830798
45	0x3e47bc92	0.19505528
46	0xbc31d7bd	-0.010854659
47	0xbea5c2ea	-0.3237527
48	0x3e541c3e	0.20713899
49	0xbd3becd8	-0.04588017
50	0xbe95d2ac	-0.29262292
51	0x3e46a2a1	0.19397976
52	0x3dc12230	0.09430349
53	0x3c95571b	0.018230012
54	0x3c33cd24	0.010974202
55	0x3dda87b6	0.10670416
56	0x3d21744d	0.039417554
57	0xbdac9ea3	-0.08428695
58	0x3ef13307	0.47109243
59	0xbec916a1	-0.39275077
60	0xbdf3252a	-0.11872323
61	0xbf1c336e	-0.61015975
62	0xbdfe8d84	-0.12429336
63	0x3d821001	0.06350709
64	0x3d9675e3	0.07346704
65	0xbe9d1fe8	-0.30688405
66	0xbcc86276	-0.024461012
67	0xbc94ba66	-0.018155288
68	0xbe9e8b83	-0.30965814
69	0x3cecd839	0.028911697
70	0xbc962911	-0.018330129
71	0x3db8d5e4	0.090251714
72	0xbd0183d4	-0.03161986
73	0xbe655e06	-0.22399148
74	0xbd951cad	-0.0728086
75	0x3d9653ef	0.07340228
76	0x3e6a1d0a	0.2286264
77	0xbda796c6	-0.081830546
78	0xbd29ef35	-0.04148789
79	0x3d735581	0.059407715
80	0xbdb7f42f	-0.08982121
81	0xbe2168a2	-0.1576257
82	0xbf372817	-0.7154555
83	0xbd8799b3	-0.06621113
84	0xbe6d1c43	-0.23155312
85	0xbe91d8d1	-0.2848573
86	0xbec2ae86	-0.38023776
87	0xbe61fa40	-0.22068119
88	0x3cf0afd4	0.029380716
89	0xbddf0a64	-0.10890654
90	0x3d590ab0	0.052988708
91	0xbf2e2718	-0.680284
92	0x3f37cc93	0.7179653
93	0xbe418b38	-0.18900764
94	0x3e1052e6	0.14094123
95	0xbf1e9e79	-0.6196056
96	0xbe57c981	-0.21072961
97	0x3d8c4582	0.06849195
98	0xbc85bc57	-0.016325159
99	0x3ecbc485	0.3979837
100	0xbf4395df	-0.7640056
101	0x3df49d32	0.11944045
102	0xbd666bdb	-0.056255203
103	0xbdb71be6	-0.08940868
104	0xbc0ca28b	-0.008583675
105	0x3e8f2991	0.279614
106	0xbe43966a	-0.19100347
107	0xbef52394	-0.47878706
108	0x3df25217	0.11832064
109	0x3d93eb14	0.07222572
110	0x3e81547e	0.25259775
111	0x3e48c189	0.19605078
112	0x3d5d31a3	0.054002415
113	0x3e756f73	0.23968296
114	0x3d7f35e0	0.06230724
115	0xbf2f412f	-0.6845884
116	0xbe0df18c	-0.13861674
117	0xbdc90a0a	-0.09816368
118	0xbd6a6db4	-0.057233527
119	0xbbaf37e3	-0.0053472384
120	0xbea08fca	-0.31359702
121	0x3caf0be3	0.021367973
122	0x3ca76de1	0.020438137
123	0xbd01cefc	-0.031691536
124	0xbd5c72d4	-0.053820446
125	0x3f350e2c	0.7072475
126	0xbdbab94f	-0.09117376
127	0xbe66cf8b	-0.22540109
128	0x3c90906e	0.017646994
129	0xbc814914	-0.015781917
130	0xbdce8c2d	-0.1008533
131	0x3d71e915	0.059060175
132	0x3bbbf5a0	0.005736068
133	0x3ec8b945	0.3920385
134	0x3d53ca48	0.051706582
135	0x3d4a80c1	0.049439196
136	0x3e897d4c	0.26853406
137	0x3d200218	0.039064497
138	0xbe3a8526	-0.18214855
139	0x3e708b60	0.23490667
140	0x3d1f1f3c	0.038848147
141	0x3e08f7bc	0.13375753
142	0xbf311992	-0.6917964
143	0xbcf70c34	-0.030157186
144	0xbe40f49b	-0.1884331
145	0x3c8c6366	0.01713724
146	0x3d3f6327	0.04672542
147	0x3d471f49	0.04861382
148	0xbe998962	-0.29987627
149	0xbec3b9a8	-0.38227582
150	0x3d144a7e	0.036203854
151	0xbe902909	-0.28156307
152	0x3e951c52	0.2912317
153	0xbd9c9ae5	-0.07646731
154	0xbcef0729	-0.029178219
155	0xbd58c0e7	-0.05291834
156	0x3c7fe866	0.015619373
157	0xbcfab9da	-0.030606199
158	0x3e6bf476	0.23042473
159	0xbe30c457	-0.17262398
160	0x3eb25b0f	0.34835097
161	0xbdca51b3	-0.09878864
162	0xbe8f7fba	-0.28027135
163	0xbedb40f0	-0.4282298
164	0x3e01ec1b	0.12687723
165	0xbdf26180	-0.11835003
166	0x3e3dd335	0.185376
167	0xbe638ac9	-0.22220911
168	0x3d211cf2	0.039334245
169	0x3d898650	0.06715071
170	0xbcd7c87e	-0.02634072
171	0x3dc8ef0c	0.098112196
172	0xbe1ce665	-0.15322264
173	0x3d65b28e	0.056078486
174	0x3db95972	0.090502635
175	0xbe33a4e6	-0.17543373
176	0x3e352ece	0.17693636
177	0x3d34539b	0.044025045
178	0xbda4801a	-0.08032246
179	0x3d8c3a93	0.0684711
180	0x3dc9a503	0.098459266
181	0xbd9cfb18	-0.0766508
182	0x3e1670cd	0.14691468
183	0x3dab08cc	0.08351287
184	0xbeca0637	-0.39457867
185	0xbe5ef60e	-0.2177355
186	0xbd6806e1	-0.056647185
187	0x3d28edb6	0.041242324
188	0xbe34bb67	-0.17649613
189	0xbea406c1	-0.32036403
190	0xbd94bf5e	-0.07263063
191	0x3d5dbf1f	0.054137345
192	0x3da6ef7c	0.08151147
193	0xbe6c8f65	-0.23101576
194	0x3cef068b	0.029177925
195	0x3d44766d	0.047964502
196	0xbdde4d26	-0.10854559
197	0xbbcfc09f	-0.006340101
198	0x3e133a9b	0.14377825
199	0xbe2b1c5d	-0.16710038
200	0xbe475500	-0.19466019
201	0xbd2206de	-0.03955733
202	0x3d920147	0.0712915
203	0xbcaba54a	-0.02095284
204	0xbdd80151	-0.10547126
205	0x3da8c873	0.08241358
206	0xbd4ce13d	-0.05001949
207	0x3d734030	0.059387386
208	0xbe9f364e	-0.3109612
209	0xbd643d32	-0.055722423
210	0xbe8f1220	-0.27943516
211	0x3d303cf7	0.04302689
212	0x3dae6176	0.08514683
213	0xbd1fc8f5	-0.039010007
214	0xbe5819b4	-0.21103555
215	0xbdd9728b	-0.106175505
216	0xbf0deae4	-0.5543654
217	0x3dcf1c88	0.10112864
218	0xbd449555	-0.047993977
219	0xbe30cc61	-0.17265464
220	0x3d29d774	0.041465238
221	0xbf10ac31	-0.56512743
222	0x3df29b73	0.11846056
223	0xbdc05bb6	-0.093924925
224	0xbe131d7f	-0.1436672
225	0xbca3b390	-0.019983083
226	0x3e804758	0.2505443
227	0x3e0d3482	0.13789561
228	0x3d41bc1c	0.047298536
229	0x3d6873d0	0.056751072
230	0x3d6f4b44	0.05842139
231	0xbeef6a6f	-0.4676089
232	0x3dc79227	0.09744673
233	0xbe57273a	-0.21011057
234	0xbe871dda	-0.26389962
235	0x3dd94c6c	0.106102794
236	0x3fa16ee2	1.2611964
237	0xbe9eaa56	-0.3098933
238	0xbdc11142	-0.0942712
239	0x3d46b541	0.0485127
240	0x3dcdd0fc	0.10049626
241	0x3ff04257	1.8770245
242	0xbd68371f	-0.056693193
243	0xbeb0daf6	-0.34542054
244	0x3e4c783e	0.19967744
245	0xbe70c887	-0.23513995
246	0xbd1046e5	-0.03522386
247	0xbf1a6f70	-0.6032629
248	0xbd6e1a51	-0.058130566
249	0xbcd92e4d	-0.026511336
250	0xbccf093a	-0.025272954
251	0x40135479	2.3020308
252	0x3da1667a	0.07880874
253	0xbf18ee01	-0.59738165
254	0x3e18b52f	0.14912866
255	0x3dcfea91	0.10152162

fc2.bias f4 [256]
0	0x4044cf3b	3.0751483
1	0x4055142e	3.3293567
2	0xbfbb1f7d	-1.4618984
3	0xc0301fc4	-2.7519388
4	0xc0950a41	-4.6575017
5	0x3cfbffe6	0.03076167
6	0x4046a412	3.103764
7	0xbd6a79ac	-0.05724494
8	0xc002cb0b	-2.0436428
9	0x409fb084	4.9902973
10	0x40690b81	3.6413271
11	0xbe952eb9	-0.2913721
12	0xc0068cd7	-2.1023462
13	0x3ef4e9aa	0.47834522
14	0x40624a34	3.535779
15	0xbd040971	-0.032235567
16	0xc0825015	-4.0722756
17	0x4067dd22	3.6228719
18	0x3ea38709	0.3193896
19	0x40801b85	4.0033593
20	0xc0743d12	-3.8162274
21	0xbc21ebb4	-0.009882856
22	0xbc34df50	-0.01103957
23	0x4038c1a9	2.88682
24	0x400d13a6	2.2043242
25	0x3f208c2e	0.627139
26	0x3f7ac709	0.97959954
27	0xbdd87751	-0.10569633
28	0x408f1a5a	4.4719667
29	0xc070f379	-3.7648604
30	0x40469e2d	3.1034043
31	0xbfddb796	-1.7321651
32	0xbce57b89	-0.028013008
33	0xbdae0a21	-0.08498026
34	0x40367865	2.8510983
35	0x3c05b95d	0.00816187
36	0xc000ae24	-2.0106287
37	0x4048532b	3.1300762
38	0xbd9d1f2c	-0.07671961
39	0xc03b57cc	-2.9272337
40	0xc0578117	-3.367254
41	0xbf8a41e0	-1.0801353
42	0x402cadfd	2.6981194
43	0xc05b60e7	-3.4277894
44	0x40510a06	3.2662368
45	0xbfa1f87b	-1.2653955
46	0x3bf0837c	0.007339893
47	0x4063130e	3.548038
48	0x3fa40ca5	1.2816359
49	0x401a4999	2.410742
50	0xbd7800dc	-0.060547695
51	0x4018ea5b	2.389304
52	0xbff51cb9	-1.914939
53	0x40722a66	3.7838378
54	0xbe0a880a	-0.13528457
55	0xbdb6ff58	-0.08935422
56	0x3f74f7f1	0.9569083
57	0x3ff83ce1	1.9393579
58	0xbfa92ea0	-1.3217354
59	0xc0c37e58	-6.109173
60	0x3f99f1f7	1.2026967
61	0x3fccc512	1.5997641
62	0x405bb423	3.4328697
63	0xbc364109	-0.011123904
64	0x3ff34761	1.9006158
65	0x3fe8acb5	1.8177706
66	0x40129104	2.290101
67	0xbfc6728b	-1.5503706
68	0xbffe322b	-1.985906
69	0x404fbc8e	3.2458835
70	0xc0649bf5	-3.5720189
71	0xc007e470	-2.1233177
72	0xbdc4f800	-0.09617615
73	0x406005bf	3.5003507
74	0x3fee3ebc	1.8612895
75	0xbfda3ba7	-1.7049454
76	0x40b4498f	5.6339793
77	0xbff24817	-1.892825
78	0xbff472eb	-1.909757
79	0xbde0658b	-0.10956868
80	0x406fd0b5	3.7471135
81	0x4055c02b	3.339854
82	0x404bb2d1	3.182789
83	0xbfff6de2	-1.9955409
84	0xbc08507e	-0.008319972
85	0xbffb9002	-1.9653323
86	0xbdb23e0e	-0.08703242
87	0x3d1affd9	0.03784165
88	0xbf9a906c	-1.2075324
89	0xc0031eb0	-2.048748
90	0x406ff948	3.74959
91	0xc0aae596	-5.3405256
92	0xbdb82790	-0.08991921
93	0xbff2bc8b	-1.8963789
94	0xbdddda41	-0.10832644
95	0x4020fe6a	2.5155282
96	0x40044b58	2.0670986
97	0xc0013c6a	-2.0193124
98	0x4049ddbf	3.1541593
99	0x405a7ba4	3.4137964
100	0x3f89d009	1.0766612
101	0x40615b8b	3.5212123
102	0x403b7db9	2.9295485
103	0x405bbd7a	3.4334397
104	0x3f31a44d	0.6939133
105	0xc06563e6	-3.5842223
106	0x4064373c	3.5658712
107	0xbfe3c9a9	-1.7795917
108	0x410ab1ce	8.668409
109	0x40122548	2.2835255
110	0xbff97504	-1.9488835
111	0xbd3c5710	-0.045981467
112	0xbc6c8faa	-0.014438549
113	0x405169ef	3.2720907
114	0xc0025f8f	-2.0370824
115	0xbd533c71	-0.051571313
116	0x400cd047	2.2002122
117	0x407a05d1	3.906605
118	0xbf948afd	-1.1604916
119	0x3fc346c9	1.5255977
120	0xbfb838f2	-1.4392378
121	0x40597e48	3.3983326
122	0xbd842ace	-0.06453477
123	0x3fba962d	1.457708
124	0xc02f76d2	-2.7416272
125	0x40db9900	6.8624268
126	0x4060889d	3.5083382
127	0xbc1f5712	-0.009725349
128	0x40733106	3.7998672
129	0xbd84ef24	-0.06490925
130	0x3fdcb0cf	1.7241458
131	0x3e9b6ca9	0.3035634
132	0xb9ce0559	-0.00039295366
133	0x403819f6	2.8765845
134	0x407a35d3	3.9095352
135	0xbf2d99a0	-0.6781254
136	0xbcfd819e	-0.030945595
137	0xc028170a	-2.6264062
138	0x3d319abd	0.04336046
139	0x406b69a4	3.6783228
140	0xbdc2cd53	-0.09511819
141	0x40549816	3.3217826
142	0xbf5830c5	-0.84449416
143	0x40350845	2.8286297
144	0xbd4badda	-0.049726345
145	0xc027a019	-2.6191466
146	0x4039bc9e	2.9021373
147	0xbff01a0d	-1.875795
148	0xc005f4eb	-2.0930736
149	0xbc82a31c	-0.015946917
150	0x3ebdab2e	0.37044662
151	0x4075829b	3.8360965
152	0x402de4a3	2.7170799
153	0x40546830	3.318859
154	0x4047d062	3.1220937
155	0xc0147041	-2.3193514
156	0x40042ab4	2.0651064
157	0xbd8ca687	-0.068677
158	0xbc618e29	-0.013766804
159	0x4038ed0e	2.8894687
160	0xbff722a1	-1.9307443
161	0xc002c2ab	-2.0431316
162	0xc008a18b	-2.1348598
163	0xbdf42b7b	-0.11922356
164	0x3ef411e8	0.4766991
165	0xbfe3db3b	-1.7801279
166	0xc0338e19	-2.805548
167	0xbff537bc	-1.9157634
168	0x3e003567	0.12520371
169	0xc05cace0	-3.4480515
170	0xbdaa1601	-0.08304978
171	0xbf369628	-0.7132287
172	0x4053ea80	3.3111877
173	0xbff8d6b1	-1.9440519
174	0xc049b5c5	-3.1517193
175	0xbc630fd9	-0.013858759
176	0x40430da7	3.0477083
177	0x3fb3c3c2	1.4044116
178	0x40ab5f5d	5.355391
179	0x40655685	3.5834057
180	0xbce4160c	-0.027842544
181	0xbcca6eb5	-0.024710992
182	0x40175117	2.3643243
183	0x40420fe2	3.0322194
184	0xbfa7abc4	-1.3099294
185	0xbfd07344	-1.6285176
186	0x40548681	3.3207095
187	0xbffbe203	-1.9678348
188	0x403aaa60	2.9166489
189	0x400fe7ee	2.2485309
190	0xbdc78dcf	-0.09743845
191	0xbff99f7a	-1.9501793
192	0x400a5183	2.161225
193	0x3f94175c	1.1569629
194	0xc0e6d117	-7.2130237
195	0x403338a7	2.8003328
196	0x405f6cd0	3.4910164
197	0xbb30f28e	-0.0027000043
198	0x3e78612a	0.24255815
199	0xbff6664f	-1.9249972
200	0xbd9d946f	-0.07694327
201	0xbcb4aedd	-0.022056038
202	0xbd949626	-0.07255201
203	0xbc5319f6	-0.012884608
204	0x3fb0ab8f	1.3802356
205	0xbe9ef2a4	-0.31044495
206	0x4030bf09	2.7616599
207	0xbd982310	-0.07428563
208	0xbf3bc1f2	-0.7334281
209	0xbfeea222	-1.8643229
210	0xbffa6220	-1.9561195
211	0x40302b22	2.7526326
212	0xbdbfabca	-0.09358938
213	0x40a899e5	5.268786
214	0xbf2add74	-0.6674416
215	0xbdb8e9b0	-0.09028947
216	0x40671d96	3.6111808
217	0xc008b73e	-2.1361842
218	0xbad6b91e	-0.0016382074
219	0xc0176bf3	-2.3659637
220	0x3fe0881e	1.754154
221	0x40822874	4.067438
222	0x4052b738	3.2924328
223	0xc06d7717	-3.7103937
224	0xbd8b118b	-0.067904554
225	0xc02fbf82	-2.7460637
226	0x40083734	2.1283693
227	0xc0026ca1	-2.0378802
228	0xbe9f82d5	-0.31154504
229	0xbffe5202	-1.9868777
230	0xbfac5412	-1.3463156
231	0xc050409b	-3.2539432
232	0x4009955e	2.1497416
233	0x4064da4d	3.575824
234	0xbfd9d285	-1.701737
235	0x4039530a	2.8956933
236	0xbda60d2c	-0.08107981
237	0x3c834e10	0.016028434
238	0xbe474404	-0.1945954
239	0xbfc76387	-1.5577248
240	0xbf8db173	-1.1069778
241	0x3ffb86d4	1.9650521
242	0xc05553ff	-3.3332517
243	0x40211af0	2.5172691
244	0xc072f167	-3.795984
245	0xbda15809	-0.078781195
246	0xc00ddcf3	-2.2166107
247	0xbfd0fddc	-1.6327472
248	0x403aba91	2.917637
249	0xbfdf4255	-1.7442118
250	0xbcaffd06	-0.021482956
251	0xc000ca7d	-2.012359
252	0xbff6dc68	-1.9286013
253	0x407ca7cd	3.9477417
254	0x3e01aeb2	0.12664297
255	0x3fcc1a74	1.5945573

fc3.weight f4 [1, 256]
0	0xc0000bfe	-2.000732
1	0xbfa12865	-1.2590452
2	0x3f0d559a	0.5520874
3	0x3f54d500	0.8313751
4	0x3f34d8f2	0.7064353
5	0xbd6d151e	-0.057881467
6	0xc01a423a	-2.4102921
7	0x3cbef304	0.023309238
8	0x3eba3411	0.3636785
9	0xbeb2e440	-0.34939766
10	0xbfbaf7a1	-1.460682
11	0x3a91a44a	0.0011111584
12	0x3e9f218a	0.31080276
13	0xbfe85ebe	-1.8153913
14	0xbfdf2d85	-1.7435766
15	0xbb69061b	-0.0035556618
16	0xc010d7af	-2.2631643
17	0xbfb1eefc	-1.3901057
18	0xc093ff55	-4.6249185
19	0x40010e8c	2.0165129
20	0x3e9bd3de	0.3043508
21	0x3d498bdf	0.049205657
22	0x3c021f41	0.007942022
23	0x3f9c03b4	1.218863
24	0x4027d7f8	2.6225567
25	0x3f4dfe55	0.80466205
26	0xbf9f7c97	-1.2459897
27	0x3ce435f9	0.027857767
28	0xbf7dc120	-0.9912281
29	0x3efb56de	0.49089712
30	0xc0206469	-2.5061285
31	0xbf1cd3a3	-0.6126043
32	0x3db81106	0.08987622
33	0xbc2e2f92	-0.010631459
34	0xbe07b714	-0.13253433
35	0xbc930cab	-0.017950376
36	0x3e152c0d	0.14567585
37	0xbf01e16d	-0.507346
38	0x3d4ee6fe	0.05051326
39	0x3eb0ad23	0.34507093
40	0x3f1ce216	0.6128248
41	0x3fcf6511	1.6202718
42	0xbe8b9a0e	-0.27265972
43	0x3e87d57e	0.2653007
44	0xbf676f0b	-0.90403813
45	0x3f4e15f9	0.8050228
46	0x3cfe21fc	0.031022064
47	0xbf31e639	-0.69491917
48	0x3f411d45	0.75435287
49	0xbf5b58eb	-0.85682553
50	0x3c05944d	0.008153033
51	0xbeb6aa6c	-0.35676897
52	0x3e75c631	0.24001385
53	0xc020ed47	-2.5144823
54	0x3f97f549	1.187173
55	0x3c044c80	0.00807488
56	0x3f0419d2	0.516019
57	0x400f6633	2.2406127
58	0xbf9b15a1	-1.2115976
59	0xc014c27d	-2.3243706
60	0x3ecfd838	0.4059465
61	0x3f069178	0.5256572
62	0xc00d72f9	-2.2101424
63	0x3dcb33a7	0.09921961
64	0xbfc7334d	-1.5562531
65	0xbf4850cb	-0.7824828
66	0xbfd644da	-1.6739762
67	0x400957f2	2.1459928
68	0x3e577ef2	0.2104452
69	0xc00d4acb	-2.20769
70	0x3ea7c7f7	0.3276975
71	0x3f0f3dd6	0.5595373
72	0x3c10d22d	0.008839172
73	0xc0056c33	-2.084729
74	0xbfb610d2	-1.4223883
75	0x3eb8e2ef	0.36110637
76	0xbfa49532	-1.2858031
77	0x3eb16af1	0.34651902
78	0x3e8c3435	0.2738358
79	0xbf286ba8	-0.6578927
80	0xbf61916b	-0.88112515
81	0xbfac35ac	-1.3453879
82	0xbff58e99	-1.9184142
83	0x3e81d199	0.25355223
84	0xbae70046	-0.0017623983
85	0x3e27abad	0.16374083
86	0x3d7192c3	0.058977854
87	0xbbc834d9	-0.0061098156
88	0xbffc3f04	-1.9706731
89	0x3f4c18a7	0.79725116
90	0xc00cc204	-2.1993418
91	0xbf11e487	-0.5698933
92	0xbc742121	-0.014900477
93	0x3eff9800	0.49920654
94	0x3d820ac0	0.06349707
95	0x3f92a2f0	1.1455975
96	0x3fa1ef06	1.2651069
97	0x3e01b12e	0.12665245
98	0xbff47bff	-1.9100341
99	0xbfd06fcd	-1.6284119
100	0xbf31aeda	-0.6940743
101	0xc01fd7fc	-2.4975576
102	0xbfbef129	-1.4917346
103	0xbf7271e2	-0.9470502
104	0x3ff01125	1.8755232
105	0xbf3a2338	-0.7270999
106	0xbf8427a9	-1.0324603
107	0x3f8e734c	1.1128936
108	0xbf7b999f	-0.9828128
109	0xbeb98568	-0.36234593
110	0x3eb6eb33	0.35726318
111	0x3dc7b9cf	0.09752237
112	0x3c852287	0.016251815
113	0xbfb19211	-1.3872701
114	0x3d1dfe6f	0.038572725
115	0xbd56e100	-0.05246067
116	0xbef5d097	-0.48010704
117	0xc011fe6f	-2.2811544
118	0xbfd89cda	-1.6922867
119	0x3fe5e80d	1.7961441
120	0xc0252878	-2.580595
121	0xc017b7dd	-2.3705971
122	0x3c91c84c	0.017795704
123	0x3f085bff	0.53265375
124	0xc05df9b4	-3.4683657
125	0xbfb9a75a	-1.4504197
126	0xbeb45c15	-0.35226503
127	0xbd0d0add	-0.03443419
128	0xbfd73312	-1.681246
129	0x3d9f185d	0.07768319
130	0x3faae91c	1.3352389
131	0xc018c32e	-2.3869128
132	0x3b0a7bfc	0.002113103
133	0xbfa2b6a2	-1.2711985
134	0xbfba4587	-1.4552468
135	0xc037901b	-2.8681705
136	0x3d363345	0.04448249
137	0x3eac6bc1	0.3367596
138	0x3b32848e	0.0027239653
139	0xbfe3df55	-1.780253
140	0xbb6c05fd	-0.0036014311
141	0xbfec7312	-1.8472617
142	0xbf570648	-0.8399396
143	0xbe7802b2	-0.24219778
144	0xbd805099	-0.06265373
145	0xbeef6d5b	-0.4676312
146	0x40294881	2.6450503
147	0x3f4bc3e5	0.79595786
148	0x3e6ad66e	0.22933361
149	0x3edfbe9b	0.43700108
150	0x3f8a1a12	1.0789206
151	0xc01bb3c6	-2.4328475
152	0xc018c46a	-2.3869882
153	0xbfecb516	-1.8492763
154	0xbf5ab903	-0.85438555
155	0x3efaea1f	0.49006745
156	0x3f5c7b69	0.8612581
157	0xbc7a172d	-0.015264315
158	0x3db01717	0.08598154
159	0xbfa64433	-1.2989563
160	0x3e6700fa	0.22558966
161	0x3d294063	0.04132117
162	0xc0350e77	-2.8290079
163	0x3c40d1f5	0.011768808
164	0xc09afee7	-4.843616
165	0x3f8ca4df	1.0987815
166	0xbf97797a	-1.1833947
167	0x3ea1ef6b	0.31627974
168	0x3fa731a8	1.3062029
169	0x3f153545	0.5828441
170	0xbbc80528	-0.0061041303
171	0x3ff0ac2d	1.8802544
172	0xbfe1cccd	-1.7640625
173	0x3e238f43	0.15972619
174	0x3f02a860	0.5103817
175	0xbbbc5e69	-0.0057485593
176	0xbff72179	-1.930709
177	0xbfa0f86b	-1.2575811
178	0xbf912904	-1.1340642
179	0xc000722a	-2.006968
180	0x3d82cd2a	0.06386788
181	0x3ccbdb10	0.02488473
182	0xbf837788	-1.0270853
183	0x4005948f	2.0871923
184	0x3fd67d4d	1.6756989
185	0x3f7c327a	0.9851452
186	0x3ffd57c5	1.979241
187	0x3e8375b4	0.25675738
188	0xbe745e54	-0.23864108
189	0x3f291e5c	0.6606195
190	0x3d3c4cf9	0.045971844
191	0x3e8fe19b	0.2810181
192	0xbf258a2d	-0.64663965
193	0x3fbc62e8	1.4717684
194	0xbf9ac89f	-1.2092475
195	0xbe9e0242	-0.30861098
196	0xbfe404e7	-1.7813996
197	0x3cf121cb	0.029435059
198	0x3fa5b8c6	1.2947013
199	0x3ea44a25	0.32087818
200	0xbc1195bc	-0.008885797
201	0x3c8c1f28	0.0171047
202	0xbb774dcc	-0.003773558
203	0xbd323dc7	-0.043515947
204	0xbf50a73f	-0.815052
205	0x3f9b5903	1.2136539
206	0xbf85acae	-1.0443323
207	0xbc4ff54a	-0.012692759
208	0x3fd1bab1	1.6385099
209	0x3ea5e6ba	0.32402593
210	0x3e663d09	0.2248422
211	0xbf72038b	-0.94536656
212	0x3d14e330	0.036349475
213	0xc0475be1	-3.1149828
214	0x3f202538	0.6255679
215	0x3d78a198	0.060700983
216	0xbff709fe	-1.9299924
217	0x3e863f25	0.2622005
218	0x3bcb1830	0.0061979517
219	0x3e944b00	0.2896347
220	0xbec497eb	-0.38397154
221	0xc022f923	-2.546456
222	0xc002b121	-2.042061
223	0xbfb91a55	-1.4461161
224	0x3d763c59	0.060116146
225	0xbf5abecc	-0.8544738
226	0x3f0818a0	0.53162575
227	0x3e80bd97	0.25144646
228	0xbb5cfb54	-0.003371914
229	0x3df64062	0.12023999
230	0x3fadcfd7	1.3579053
231	0x3f2d5b24	0.67717195
232	0xc020c991	-2.5123026
233	0x3f9877c4	1.191155
234	0x4030377e	2.753387
235	0xbedcd253	-0.43129215
236	0xbba7fc23	-0.0051264926
237	0x3e04b394	0.12959129
238	0x3f34c75d	0.70616704
239	0x3f908226	1.1289718
240	0x3fb3f111	1.4057943
241	0xc005a739	-2.0883315
242	0x3eef0c44	0.46689045
243	0xbe94aa15	-0.29036012
244	0x3f26dca9	0.6518045
245	0x3b49f401	0.0030815604
246	0x3f4f8711	0.8106547
247	0x3d9ba1ea	0.07599242
248	0xc039d60e	-2.9036899
249	0x40251d8d	2.5799286
250	0xbac16d0c	-0.001475723
251	0x3e1b3d3f	0.15160082
252	0x3e7cfb80	0.24705315
253	0xbfe9eb38	-1.8274908
254	0xbc03515a	-0.008015001
255	0x4079ce6b	3.9032238
