model/sac_mha_sac_ff/agent2_sac_ff_policy_1000000.pth (torch, 276513 bytes, 6 tensors)

fc1.weight f4 [256, 7]
000000 d4 c4 d0 bd 99 93 83 3d 5e 42 bb bd 1a d9 9e bd
       -0.10193792 0.064246364 -0.09143518 -0.077562526
000010 c4 03 f4 bc b2 17 62 bd 39 0e 07 be 2b 40 cc 3d
       -0.029786952 -0.05519838 -0.1318902 0.099731766
000020 72 da 63 3d c1 64 ad bb bf b9 87 bd 9e 19 39 bc
       0.055628248 -0.005291552 -0.06627225 -0.0112976115
000030 15 fa c4 bd 8a bc 15 be 1c a7 c6 bd 41 7f 93 be
       -0.09618012 -0.14622703 -0.09699842 -0.28808025
000040 84 9f 64 3b 86 76 6c be e8 df bb 3d a2 6a 17 bc
       0.0034885118 -0.23092088 0.09173566 -0.009241732
000050 5d ac fa bd 5c b4 1d be 38 71 36 bd 03 43 20 3a
       -0.12239907 -0.15400833 -0.044541568 0.0006113501
000060 3e 01 ac bd a2 51 40 be 9c 2c 25 bd b5 e1 ee 3d
       -0.083986744 -0.1878114 -0.040325746 0.11664144
000070 6d a4 cc 3d 49 45 d3 bd 08 23 a3 3c 80 a4 4d 3c
       0.09992299 -0.103159495 0.019914165 0.012551427
000080 18 31 bc bd 06 36 e8 bd 9f 0f ca bd 9b 20 3f bc
       -0.091890514 -0.11338429 -0.09866261 -0.011665489
000090 9b 31 1f bd 91 05 06 be 07 79 8c bd 2f 25 4e be
       -0.038865667 -0.13088061 -0.06859022 -0.20131372
0000a0 79 08 4b 3b 86 df 50 be c7 83 e0 bc 36 98 46 bd
       0.0030980392 -0.20397767 -0.027406586 -0.048485003
0000b0 01 fe db bd 4e 94 b2 bd 01 1b 9c bd 9c 46 2f bc
       -0.10741807 -0.08719693 -0.07622338 -0.010697987
0000c0 6a ea 66 3d 5f c4 e3 bc 65 4f a2 bd 9a 00 af bd
       0.0563759 -0.027803598 -0.079252996 -0.085450366
0000d0 1a 91 82 bd 3a 31 18 3e 08 29 18 be 91 75 38 bd
       -0.06375332 0.14862528 -0.14859402 -0.045033995
0000e0 ef d1 12 3e d5 30 fe bd 9c 5e 14 3c 5c b4 0a be
       0.14337896 -0.12411658 0.00905576 -0.13545364
0000f0 e2 26 5f 3d 30 71 aa bd fc e7 0c 3d 2e 5f 29 be
       0.05448044 -0.0832237 0.034400925 -0.16540214
000100 00 ae 84 bb 39 4e be 3c 75 a7 bd bd d4 d9 1c be
       -0.0040490627 0.023230659 -0.092604555 -0.1531747
000110 f7 be 1e be bb fc 5f bd 4b 59 50 3d 92 c2 4f be
       -0.15502535 -0.054684382 0.050866406 -0.20289066
000120 2e ba c1 3c 50 0b 96 bd 34 63 4d be 3a ec b6 bd
       0.023648348 -0.073263764 -0.20057374 -0.089317754
000130 16 e7 8b be b5 9b b6 bb 51 3c 86 bc f6 03 cf bc
       -0.27324742 -0.005572761 -0.016386183 -0.025270443
000140 e9 85 c2 3c e5 fd df 3b 57 e3 1e bc 7b 24 5f be
       0.023745494 0.0068356865 -0.009697757 -0.2179126
000150 ef 72 14 3e d0 bc 74 3d 02 e2 e0 bd 9e 3b d7 bc
       0.14496969 0.059750378 -0.109806076 -0.026273545
000160 7e b4 19 be e1 71 18 be 77 ae 0d 3e 4b bf 07 3c
       -0.15010259 -0.14887191 0.13836084 0.008285354
000170 18 2e 36 bd c4 cd 11 be d2 70 c2 bc a1 cf c9 bd
       -0.044477552 -0.1423865 -0.023735438 -0.09854055
000180 7c 43 d2 bc 59 9c ce 3c 14 90 1b 3d da 47 01 be
       -0.025666945 0.025221037 0.0379792 -0.12625065
000190 bf 86 fc bd 44 8b ef bd 18 f0 ba 3d 7b fe 0a be
       -0.12330388 -0.11696485 0.091278255 -0.13573639
0001a0 3b 34 04 3e 6f a0 ec bd 2d 1c 32 3c e9 99 9e bb
       0.1291055 -0.11554038 0.010870975 -0.004840125
0001b0 59 70 cb 3d 68 a1 4c bd cb 6a 05 bd 1d 2c 0d be
       0.09933538 -0.049958616 -0.03257255 -0.13786359
0001c0 64 77 a8 bd 36 8c 1a 3d 61 b9 3b be ef a5 14 be
       -0.08225897 0.03773137 -0.18332435 -0.14516424
0001d0 85 b4 6a bd ed b3 51 bb 72 4d d0 bd fb 03 1c be
       -0.057301063 -0.0031998113 -0.101710215 -0.15235893
0001e0 a7 35 74 be 25 e1 72 bb cf 9c 9d 3c d3 3d c0 3c
       -0.23848592 -0.0037060466 0.019239811 0.02346698
0001f0 01 fb 1c bd 2f 77 38 bd d0 8f af 3d ef b8 9c 3d
       -0.038325313 -0.045035537 0.08572352 0.07652461
000200 e4 6d 31 3b 7b 66 64 bd e8 97 9e 3d 8a 2d a2 bd
       0.0027073557 -0.055761795 0.077438176 -0.07918842
000210 16 a1 bc bd 5f f6 d6 be c8 32 46 3e 9d 70 08 bd
       -0.09210412 -0.4198484 0.19355309 -0.03331052
000220 6e bb 30 be 09 54 9e be 7a 25 9e 3a d8 e1 25 bd
       -0.17258999 -0.3092349 0.0012065612 -0.040498585
000230 2e f0 6c 3d 03 88 4c be 1d f6 f6 3c 7c 55 95 bd
       0.05784624 -0.1997376 0.030146653 -0.072916955
000240 09 20 4c 3d 9a 8c 28 be 8b dc bc 3b 20 ee 82 c0
       0.04983524 -0.16459885 0.0057635955 -4.091568
000250 0c fc 3f 3f ad 9b 9c be ed 18 0d 40 35 ee b5 3d
       0.7499397 -0.3058752 2.2046463 0.08883325
000260 c2 6d 59 bc 22 42 61 bd a3 fb e3 bc 67 15 b8 bd
       -0.013270797 -0.05499471 -0.02782995 -0.08988457
000270 02 97 08 be b6 10 98 3d 2a 16 d1 bd d4 30 89 bd
       -0.13338855 0.07425062 -0.102093056 -0.06698766
000280 71 35 81 bd d2 db 18 be c3 d0 63 bd 59 26 bb bd
       -0.06309021 -0.14927605 -0.055619013 -0.091381736
000290 ca b7 54 3d 05 62 d4 3d d8 20 2f bd 9a 09 ce 3d
       0.051933087 0.10370258 -0.04275593 0.10060425
0002a0 ae d8 db be 25 95 0c be 33 08 02 3c 75 77 fb bd
       -0.4293875 -0.13728769 0.007936525 -0.12278644
0002b0 44 9d b2 bd f6 c6 cc bc 96 c5 99 bd ba 32 c6 bd
       -0.08721402 -0.024997216 -0.0750839 -0.09677644
0002c0 d7 28 0f 3d dc af 33 3b e1 96 36 be 58 4d c2 bd
       0.034951057 0.0027418053 -0.17830993 -0.094874084
0002d0 0e 20 72 bc d3 5a 09 be b0 ec f9 c0 2a 13 03 3e
       -0.01477815 -0.13413553 -7.8101425 0.1280028
0002e0 25 51 25 bf fb a1 9a 3f 84 71 06 3f f9 d2 32 3b
       -0.6457694 1.2080683 0.5251696 0.0027286394
0002f0 a8 46 9e ba 80 6e 1f be cb 88 8d 3d 97 c3 d9 3b
       -0.00120755 -0.15569496 0.06910857 0.0066456306
000300 a6 61 1e be 51 7f f7 3d 8a 32 e3 bd 6a d7 48 3d
       -0.15466937 0.120848306 -0.11093624 0.04903356
000310 2f cc 56 40 55 c7 11 3e 22 f2 ba bc c0 e4 25 be
       3.3562124 0.14236195 -0.022820536 -0.16200542
000320 4d c0 8b 3f 3b 0e 86 3a 9a c2 07 3b eb 5c 16 be
       1.091806 0.001022763 0.0020715357 -0.14683883
000330 c6 ae ba bd dd 29 18 be f1 2b 04 be 0f 78 0a 3e
       -0.09115367 -0.1485972 -0.12907387 0.13522361
000340 27 b5 11 be cb c3 16 3e ea 56 ca bc 82 db 3f 3c
       -0.1422926 0.14723127 -0.024699647 0.01171005
000350 a4 8d 9a 3b 13 8c 45 bd df b9 0f be b2 a7 ca bc
       0.004716592 -0.04822929 -0.14035748 -0.024738166
000360 0d ba 30 be 1d de 85 be 82 c6 1a c0 0b 57 f9 bf
       -0.17258473 -0.2614602 -2.418366 -1.9479688
000370 1e bb bd 3f 84 10 60 bf 96 c1 4c 3d c0 49 53 bd
       1.4822729 -0.875252 0.049989305 -0.051584005
000380 44 af 3d bd 20 14 f2 bd 15 6e 45 be 7d 16 47 be
       -0.046309724 -0.11820245 -0.19280274 -0.19442172
000390 aa 9a 66 be 3e f9 cf b9 36 c7 3f be f3 ac a1 bf
       -0.22519937 -0.00039667817 -0.18728337 -1.2630905
0003a0 cc df b3 bd 97 a5 c2 bc 80 36 9e 3d 79 b8 03 bd
       -0.0878292 -0.0237606 0.07725239 -0.03215835
0003b0 1b 03 87 bb 68 47 a0 bd 9d 51 90 3f 7f 7d af bf
       -0.0041202432 -0.0782612 1.1274906 -1.3710173
0003c0 cc 34 92 bf d4 4b 93 3f a9 b4 25 3f 66 37 c1 bc
       -1.1422362 1.1507516 0.6472879 -0.023585986
0003d0 92 a0 23 bc a8 92 9e bd 76 e4 49 3d 0e f2 18 be
       -0.009987013 -0.07742816 0.049290143 -0.14936087
0003e0 c2 55 f7 3d 87 9e ca 3d 1a f8 09 be a1 ae cc 3c
       0.12076904 0.09893518 -0.1347355 0.024985613
0003f0 aa d1 74 c0 e3 3e d8 40 98 41 02 c0 65 2d 8f 3f
       -3.8252969 6.7576766 -2.0352535 1.1185728

fc1.bias f4 [256]
000000 0e 67 53 be a5 6b b7 3e b0 30 e2 3c 29 ad 98 bd
       -0.20644781 0.35824314 0.027611107 -0.07454903
000010 c1 1e f7 bd 8b 26 5e be c0 00 a5 3e ae b8 22 be
       -0.12066413 -0.2169439 0.32227135 -0.15890762
000020 2a f3 b7 be 7d 3d a9 be d7 66 86 3d a7 ac 2f be
       -0.35927707 -0.33054724 0.06562584 -0.17155705
000030 e0 32 e5 3d 63 ca a2 3e 73 66 9e 3e 10 a2 35 3e
       0.11191344 0.31795034 0.30937538 0.17737603
000040 f2 e8 d1 bd af d2 8c be 5f bb 9f 3d a2 ff 9b 3f
       -0.10249509 -0.2750449 0.0779941 1.2187388
000050 33 25 a0 3e 50 83 c1 c0 a1 fa 8e 3e 7b 47 95 be
       0.3127838 -6.0472794 0.2792559 -0.29156098
000060 f6 65 8d bf 2f 1a 12 be c5 2e 82 40 85 d8 06 3c
       -1.1046741 -0.14267801 4.068209 0.008230333
000070 c3 18 a4 bf 6c a7 c9 3d 76 8e b9 be 07 8c 1c c0
       -1.2820057 0.09846386 -0.36241502 -2.4460466
000080 bd 4a 24 3e 2c 40 a1 3f 76 b0 57 c0 68 23 ef 3d
       0.16044135 1.2597709 -3.3701453 0.11676675
000090 2e 99 9a bd 4c 5e bd 3d 1e e8 8b be 47 2c 55 be
       -0.07548748 0.09246501 -0.2732553 -0.20817672
0000a0 d5 ec c3 3d f7 56 5b 3f 86 ef f5 bd 3e 62 a1 3f
       0.095666565 0.8567957 -0.12008576 1.2608106
0000b0 f3 20 9d be a2 f9 3a 3e fb 12 77 3e 72 f8 2b bd
       -0.306892 0.1825929 0.24128334 -0.041984983
0000c0 11 cc 55 be 8e 99 74 3e e2 dd 27 bd 08 92 03 3e
       -0.20878626 0.23886701 -0.04098309 0.12848675
0000d0 cb ff 20 bd 98 76 02 40 71 6e a9 3e ef c9 03 be
       -0.039306443 2.0384884 0.33092073 -0.1287
0000e0 62 8f 53 be 6d 2d 95 3e aa b3 b7 be f5 71 9c bd
       -0.20660165 0.2913622 -0.3587926 -0.07638923
0000f0 46 7b 68 3b 56 bf 9b be 34 84 53 3e 92 07 82 be
       0.0035473867 -0.30419415 0.206559 -0.253964
000100 fe 9b 2b 3e 7d 22 77 bc 21 a7 2e be 50 6c c3 bc
       0.16758725 -0.015083906 -0.17055942 -0.023855358
000110 71 9b 39 be 11 32 3e be 96 1c 91 bc 84 17 58 be
       -0.18125702 -0.18573786 -0.017713826 -0.2110272
000120 64 24 9d 3d a6 83 61 3e 9a 3c 90 3e ea fb 20 3e
       0.076729566 0.22022876 0.28171235 0.15721098
000130 b3 2d 8b bd 06 3d cc be 35 19 ea 3d 50 c0 9b be
       -0.06795826 -0.39890307 0.11430589 -0.3042016
000140 09 ec 9e 3e 44 eb 90 40 b7 29 b2 be 0f db 0c 3e
       0.31039456 4.528719 -0.3479745 0.13755439
000150 a1 e6 d0 be 2c 0b a4 be 64 4e 82 be 8c ee 17 bd
       -0.40800956 -0.32039773 -0.25450432 -0.03709273
000160 f9 75 51 be 01 da a3 3e 59 f7 82 3f 49 d8 d1 bc
       -0.20455159 0.3200226 1.0231735 -0.025615828
000170 86 12 3a be 30 4f cf be d8 bc 26 bd fa 85 e1 3d
       -0.18171129 -0.40490103 -0.04070744 0.11011882
000180 ab f8 a4 be e8 85 ac bc 14 9a 31 be 22 73 1d 41
       -0.3222097 -0.021059945 -0.17343932 9.840609
000190 d0 98 dc bc 86 f3 88 3e 29 05 3e c0 6d 57 76 3e
       -0.026928335 0.26748294 -2.969065 0.24056788
0001a0 62 e0 6f bd 16 46 97 be 2a 75 d5 be 92 9c 40 be
       -0.058563598 -0.2954566 -0.41690952 -0.18809727
0001b0 5b 0c 25 bf 99 9a ac bf 13 b0 51 c1 28 3b cd bd
       -0.6447198 -1.348468 -13.105487 -0.10021049
0001c0 b0 64 93 be 87 da 2e 3e 2a 0e e1 be 6d e5 87 c0
       -0.28787756 0.17075549 -0.4395612 -4.246756
0001d0 f1 ca 03 be 19 a1 96 3e 93 b0 86 3e 8e fd 17 3f
       -0.12870385 0.29419783 0.2630659 0.5937127
0001e0 2e d5 91 bc 24 dd 50 3e 34 7e 13 c0 ef 34 f7 3f
       -0.017801847 0.20396858 -2.3045778 1.9313029
0001f0 c0 6d fe bd 41 15 ef 40 15 b9 a7 bd 7a d8 0e be
       -0.12423277 7.4713445 -0.081895985 -0.13949767
000200 93 86 0a be ae e6 26 3f dd 2c b7 3d d7 64 9e 3e
       -0.13527898 0.6519574 0.08944104 0.3093631
000210 a7 89 b3 bd 5c d1 99 bf c7 a1 23 be 6c 98 80 bd
       -0.087664895 -1.2017016 -0.15979682 -0.06279072
000220 95 f8 a6 3e f8 6e b5 be 7c ea df 3d c9 4b 68 be
       0.32611528 -0.35436225 0.10933396 -0.2268516
000230 9d e8 c4 bd 3c f1 fc be 99 7c 3c be a5 0f c0 be
       -0.0961468 -0.49402797 -0.18406905 -0.37511936
000240 35 2e ba bd 0f df 50 bd ce 85 8d bf f0 9f db bd
       -0.090908445 -0.050993975 -1.1056459 -0.10723865
000250 2c be 04 bd a8 ba 94 bd ca c6 17 bd f0 b8 c5 bd
       -0.032407925 -0.07262164 -0.037054814 -0.09654415
000260 6f 25 e7 c0 ae a6 cf be c2 f3 8a 3e 84 38 1c 3f
       -7.2233195 -0.40556854 0.27139097 0.61023736
000270 85 c1 7d 3e be 55 6e 3e 7c b7 c2 bd b2 3d 1b 3e
       0.24780853 0.23274896 -0.09507653 0.15160254
000280 24 67 73 be ec 03 45 be fb 01 93 3e 91 28 d5 be
       -0.23769814 -0.19239777 0.28712448 -0.41632512
000290 ef 3f cf 3d 21 01 a6 3e c9 48 a3 3e 54 15 ce be
       0.10119616 0.32422736 0.31891468 -0.40250647
0002a0 52 cd eb 40 35 65 2e 3e ff 34 18 3d 74 fd 8c 3e
       7.3688135 0.17030795 0.037159916 0.2753712
0002b0 b8 b2 f5 bd b7 44 31 bf eb d3 86 3e 0a 84 9a be
       -0.119969785 -0.69245476 0.26333556 -0.30178863
0002c0 d3 61 1d bd 9c e1 8c bd c5 6e a6 be 1a 16 26 41
       -0.03842337 -0.06878969 -0.32506385 10.380396
0002d0 cb 43 3c c1 ca 2f 99 bc 11 4e 99 3e 60 c9 6e be
       -11.766551 -0.018699545 0.29942372 -0.23319006
0002e0 65 f5 42 be 46 13 bd be d4 c1 aa bc 70 fe 84 3e
       -0.19038923 -0.36928767 -0.020844378 0.2597537
0002f0 76 56 4a 3e 98 0f 80 3f 8b ac 32 bf 96 1e 13 be
       0.19759545 1.0004759 -0.6979453 -0.14367136
000300 b3 6c 80 bd 51 2d ba be 07 d6 42 be 46 05 f1 be
       -0.06270733 -0.363627 -0.19026957 -0.47074336
000310 86 30 a4 be 5b 44 1c bd 59 88 67 3c 8b ae 87 be
       -0.3206827 -0.038151126 0.014131629 -0.26500353
000320 1e b7 3d be 99 0b d5 40 04 32 e2 be 10 39 d3 3c
       -0.18526885 6.6576657 -0.44178784 0.025784045
000330 0a ed 8f c0 d6 27 41 3e dc 74 40 bd 47 d8 cd be
       -4.4976854 0.18862852 -0.046986446 -0.4020407
000340 92 10 40 be cf c1 8c be cb 65 17 c1 be f4 97 3e
       -0.18756321 -0.27491614 -9.462352 0.2967891
000350 59 36 97 3e e4 d6 f5 3e f6 a3 34 bd 74 c8 8c be
       0.2953365 0.4801551 -0.044101678 -0.27496684
000360 dc ff 96 bd 2c 45 fb 3d fa 28 1f 3e 74 77 b4 bd
       -0.0737302 0.12269053 0.15542975 -0.088118464
000370 3d 05 1c be 24 82 a2 bd fe ee dd bf c0 f2 00 be
       -0.15236373 -0.079349786 -1.733856 -0.12592602
000380 b7 c6 e7 3d 88 d6 4f 3d 80 e2 3f be a7 b5 87 3e
       0.11317199 0.050741702 -0.18738747 0.26505777
000390 4e 56 ac be a2 8d 30 3e cf d8 e4 bd 78 15 c4 be
       -0.33659595 0.17241529 -0.111741655 -0.3829763
0003a0 5e 7d 2a 3e 60 79 87 be 9b 7e 84 3c b2 14 5d be
       0.16649386 -0.2645979 0.016173651 -0.21589926
0003b0 6d 98 8b be eb 69 4c c0 95 ef 0a be 57 b6 bd 3e
       -0.2726473 -3.1939647 -0.13567956 0.37053177
0003c0 73 4a 4b be b4 ab 87 3e f6 80 b5 bd dc 1a 02 be
       -0.19852619 0.26498187 -0.08862488 -0.12705559
0003d0 ee 20 b9 be f8 31 10 3f 0e bb a5 bd ae 13 de 3d
       -0.36157936 0.56326246 -0.080923185 0.10843597
0003e0 a4 50 9a 3d 91 64 3d 40 02 85 36 be 20 23 ba 40
       0.07534912 2.959263 -0.17824176 5.8167877
0003f0 ac bd 7e be bf 5d 2d be 0a 14 8f be d0 e7 88 bd
       -0.24877042 -0.16930293 -0.27944976 -0.0668484

fc2.weight f4 [256, 256]
000000 dc cc c3 bc fb 83 b1 bb 43 2b 48 3d ba 2c 3b 3d
       -0.023901395 -0.0054173446 0.048869383 0.04569695
000010 9b a0 d9 bb 3c 2e 45 3d 67 73 62 3d bb dd 8f bd
       -0.00664146 0.048139796 0.055285838 -0.070247136
000020 cf 3f 95 bd 9f bf 6d bd 69 2f d0 bc e9 26 ef bc
       -0.07287561 -0.058044072 -0.025413232 -0.029193358
000030 27 d2 af 3d b1 7c d9 3c df 9e bc 3b a1 c0 2b 3c
       0.08585005 0.026548715 0.0057562436 0.010482938
000040 88 f9 87 3d 7f 87 3c bd 13 c6 c0 bd a1 b3 9e bb
       0.06639391 -0.046027657 -0.0941278 -0.004843191
000050 8d 65 16 3d 82 80 d1 bc 12 3e 07 3d 6d 29 98 3d
       0.03671794 -0.025573973 0.03301818 0.07429776
000060 d6 ea 7d bd 20 99 c5 3c 46 cf 16 bd ad e4 bb 3c
       -0.061991535 0.024120867 -0.036818765 0.02293619
000070 aa 27 84 bd 33 aa b6 3d 38 1b 11 bd 49 3d ef bc
       -0.06452878 0.08919182 -0.03542635 -0.029204028
000080 3e 3e d9 bd 88 d9 ff bc b7 13 96 3d ea 23 2b bd
       -0.10607575 -0.031231657 0.07327979 -0.041782297
000090 f6 56 41 bb e6 c0 ac bc 70 30 8f 3d 70 f1 0c 3c
       -0.0029501296 -0.021088075 0.069916606 0.008602485
0000a0 7a 96 cc bd 22 44 f9 bd d4 4b 52 bd ed 25 db bd
       -0.099896386 -0.121711984 -0.051341847 -0.10700593
0000b0 03 31 b8 bd 7b 07 06 3d 42 7b 01 3d 4b 77 34 bd
       -0.08993723 0.032721978 0.03161169 -0.04405908
0000c0 cb ba fe 3c 10 d1 4a 3d 77 1f d7 bd 0e 80 6f bc
       0.03109493 0.049515784 -0.10504048 -0.014617933
0000d0 fa 29 c9 bc 5e 15 cd bd 33 55 dd 3c cb ed 74 bd
       -0.024556149 -0.10013841 0.027018165 -0.05979709
0000e0 5f c7 cf 3d be 99 18 3d e6 3d ea 3b 12 49 04 bd
       0.10145449 0.037255995 0.007148492 -0.032296248
0000f0 e2 f9 f7 3b d1 9f c7 bd f6 3d c6 3d 14 aa b8 3c
       0.00756763 -0.097472794 0.09679787 0.022542037
000100 ca f1 4f 3d 8a 16 3f bd 33 8b b1 3d a2 1a d9 3d
       0.050767697 -0.046652354 0.08669128 0.10600783
000110 58 cd 25 bc 50 82 d2 3d 8c f3 05 3d 78 e0 d2 bd
       -0.010119759 0.102787614 0.032702968 -0.1029672
000120 f6 ff 98 3d 26 59 aa bd 71 9a 8b 3d a4 e4 40 bd
       0.07470696 -0.08317785 0.06816567 -0.04709305
000130 de 50 c0 bb ca 5b c4 b9 99 dc 75 3d 64 29 92 3d
       -0.005869015 -0.0003745242 0.06002483 0.07136801
000140 fb 56 cf bd 66 54 e5 bd e6 6b 61 3d eb 8a 33 bc
       -0.10124012 -0.11197738 0.05503454 -0.010958414
000150 2c 9f 45 bd 5e 04 1e bd 8b 82 ba 3d 56 07 05 be
       -0.0482475 -0.038578384 0.0910693 -0.1299108
000160 6e bb eb bd 38 74 48 3d 54 d8 87 bd 6a a8 c1 3d
       -0.11510359 0.04893896 -0.06633058 0.094559506
000170 f9 55 fb 3c f9 2b a0 3d 80 f7 0e 3d 06 a6 50 bd
       0.030680643 0.07820887 0.034904003 -0.050939582
000180 20 9c 2a bc 0e 29 31 bd aa 13 2e 3d c0 41 a2 3c
       -0.0104132 -0.043252043 0.04249922 0.019806743
000190 e5 5a d6 bd fb b8 26 bd 4f f5 98 bd a9 dd 97 bd
       -0.104665555 -0.040703755 -0.07468664 -0.07415325
0001a0 0a 09 16 3d a9 03 35 bd 14 cd e2 bd 44 dc be 3d
       0.036629714 -0.044192944 -0.11074272 0.09319356
0001b0 ab 81 02 be 91 ec 0c bd 4c 50 c0 3b 4f be 7e 3c
       -0.12744777 -0.034405295 0.005868947 0.015548303
0001c0 db 01 53 bd 90 6d 00 3b f5 2e 8e 3d fa 75 97 bd
       -0.05151544 0.0019596554 0.0694255 -0.07395549
0001d0 2e 0b c0 bd 5d 8b a9 bd 82 51 34 3d fd 99 a2 3d
       -0.09377132 -0.082785346 0.044023044 0.07939527
0001e0 7b 4e bf 3d 67 b7 a2 bc eb 01 2f bc f9 f4 7a 3c
       0.09341141 -0.019862844 -0.01068161 0.015317195
0001f0 df fd 82 3d 0e 43 83 bd 71 3e 86 bb 4a 7e 37 3d
       0.06396078 -0.06409274 -0.004096799 0.044798173
000200 34 4a a9 bd 70 b4 8c 3d 6c f1 87 bd 3f ff e6 3a
       -0.08266106 0.06870353 -0.066378444 0.0017623677
000210 ef 6e 8b bd f7 a2 ed bc ae 77 a7 bd ae 97 1c 3d
       -0.06808268 -0.029008372 -0.08177124 0.03823059
000220 da bf 7b 3d ca 5e 90 3d 18 9f 86 3d ae 73 35 bc
       0.06146226 0.070493296 0.065733135 -0.0110749435
000230 df 8c b6 3d f4 33 d2 bc 73 df 52 bd 93 0a 8c 3d
       0.08913588 -0.025659539 -0.05148263 0.06837954
000240 ed a4 cc bd d6 42 71 3d 6f 6c 42 3d d0 63 6f 3d
       -0.099923946 0.05890163 0.04746669 0.058444798
000250 71 3d c9 3c e9 dd b2 3d 4e 16 dc bc 2f e8 cc bd
       0.02456543 0.08733732 -0.026866104 -0.10005223
000260 0e b4 94 bd 8f f7 10 bc ae 17 d7 bb 94 27 2a bd
       -0.07260905 -0.008848085 -0.006564102 -0.04154165
000270 02 fe 64 bd bf 1c cf bd 19 2f 1d 3d 35 e3 c9 3d
       -0.055906303 -0.10112905 0.038374994 0.098577894
000280 a3 bb 15 3c 1b 28 9e bd 6d 4d a6 bd 66 1e bd bd
       0.009138974 -0.07722493 -0.081202365 -0.09234314
000290 1d cf bd bd b8 cb 3e 3d e0 29 54 3d 4b 56 b3 3d
       -0.09268019 0.046581 0.051797748 0.087566935
0002a0 52 f4 e1 3c bc 62 45 bd 60 13 7b bd 2d 00 e6 bd
       0.027582321 -0.048189864 -0.061297774 -0.11230502
0002b0 b6 d8 fe bc da 78 a6 bd de 85 3a 3d 12 c5 8c bd
       -0.031109195 -0.08128519 0.045537822 -0.06873526
0002c0 03 cd 60 bd 0d 4c d7 bd 0d 89 0f 3d cf 6c da bd
       -0.054883014 -0.105125524 0.03504281 -0.10665285
0002d0 f2 05 24 3d 8f aa dc 3d 73 9b 2d 3c 64 df c8 bd
       0.040044732 0.10774719 0.010596144 -0.098082334
0002e0 47 53 9a bd 67 db 94 bc ec 28 38 3c 20 a1 28 3c
       -0.07535415 -0.018171025 0.011240225 0.010292321
0002f0 e4 e7 ad 3d c2 94 b7 bc 6f 6a e6 3c 5b 97 cd bd
       0.08491495 -0.0224098 0.028126923 -0.100386344
000300 d6 e9 10 bd 5a 35 2c 3d 96 9e 3b 3d 42 bb 06 3c
       -0.035379253 0.042043068 0.045805536 0.008223357
000310 a4 03 03 be 0b e4 26 be 42 51 c0 3d c7 f8 7d bd
       -0.12794358 -0.16297929 0.09390499 -0.06200483
000320 90 9e 7a 3c 4a 1c 72 bd 33 61 d4 bd ad 7c 70 3c
       0.015296593 -0.05910901 -0.10370102 0.0146781625
000330 1f 9c d6 3d 48 31 86 bd d6 b8 33 bd 4d 63 4d bc
       0.104789965 -0.065523684 -0.043877445 -0.012535882
000340 78 8b 96 bd 8d 8c 35 3c 3c 03 80 3c 6b 88 f0 b9
       -0.0735082 0.011080873 0.015626542 -0.00045878006
000350 c9 ff 86 3d 80 59 f4 3c 8a 9b b6 3d 6d d5 de bd
       0.06591756 0.029827833 0.089163855 -0.108805515
000360 36 57 42 3d 31 8e cd bd c7 7d b5 3d 78 a2 15 3c
       0.047446452 -0.100368865 0.08861881 0.009132974
000370 e9 11 a1 3d fa 58 5d 3d df 88 13 3d 2c 3a a6 3c
       0.07864744 0.054039933 0.036019202 0.02029141
000380 1f 9c 00 3b 9b a8 57 bb ee 04 22 bd d2 6d 7b 3b
       0.0019624305 -0.0032906893 -0.039555483 0.0038365019
000390 01 c8 90 bd cd 2b 9e 3c 26 53 aa bc 53 51 90 bd
       -0.07069398 0.019307995 -0.020791601 -0.07046761
0003a0 be 79 93 bd 18 46 8c 3c 40 76 7f bb 88 7d c8 bd
       -0.07200955 0.017123267 -0.0038980395 -0.09789568
0003b0 ef 60 8c 3d b6 6b e4 bc 0b 9f 2b bd 32 55 92 3d
       0.06854426 -0.027883392 -0.041899722 0.07145156
0003c0 30 17 88 bc 02 4b 04 bd 20 1f 59 bd 2c 95 5e bb
       -0.01661262 -0.032298096 -0.0530082 -0.0033963425
0003d0 a3 2f 3f bb 3b 48 53 3d 51 92 4b bc be 80 90 bc
       -0.002917268 0.051582556 -0.012425021 -0.017639514
0003e0 b5 48 6e bd 28 f1 31 bc 97 30 91 bd dc 91 06 be
       -0.058174808 -0.010860719 -0.07089346 -0.13141578
0003f0 0e c4 a7 bc 40 57 52 bd d0 78 c3 bd 3c 73 88 bd
       -0.020479228 -0.05135274 -0.095445275 -0.06662604

fc2.bias f4 [256]
000000 c8 d3 14 be 6e 8b 8d bc a0 11 e0 3d 31 35 25 3f
       -0.14533913 -0.0172784 0.10940862 0.6453429
000010 3b 9a 1e 3f 31 ee be be c3 d5 cb 3f 96 5f b0 3f
       0.61954087 -0.372911 1.592461 1.377917
000020 4b fb 40 bf 02 cb e5 3f 49 49 b0 bd 68 a8 07 40
       -0.7538344 1.7952578 -0.08607728 2.1196537
000030 7b 78 1d be a6 2a d8 be f1 12 ad bf 40 30 25 be
       -0.15377991 -0.42220038 -1.3521405 -0.16131687
000040 85 6b 94 c0 87 12 3c be b7 63 8a bf e8 74 5a 3e
       -4.638125 -0.18366443 -1.081168 0.21333659
000050 9b 4a de bd 5f fb 31 bf 02 3c e0 bd e8 3f eb bc
       -0.108540736 -0.69524187 -0.109489456 -0.028716996
000060 b0 48 39 3f b5 5b e0 bd 54 f9 25 bd c9 23 3d bf
       0.7237654 -0.10954992 -0.04052098 -0.7388273
000070 42 1e 0e 40 fa 84 16 bd f8 61 af bd b6 7d 60 be
       2.2205968 -0.03674791 -0.08563608 -0.21922955
000080 95 b1 ac be 40 c1 95 bf cc fd 94 3f a2 ea 73 40
       -0.33729234 -1.16996 1.1639953 3.8111959
000090 27 98 f9 bd 30 03 37 bd 71 17 bf 3f 84 35 f9 bc
       -0.12187224 -0.044680774 1.4929029 -0.030421026
0000a0 4a 97 c4 bf 06 74 20 bf af 8d 10 be c3 dd 7b bf
       -1.535867 -0.6267704 -0.14116548 -0.98385257
0000b0 40 70 07 be db 13 f0 bd 35 8c 26 40 f1 48 d6 bd
       -0.13226414 -0.11722537 2.6023076 -0.10463131
0000c0 22 7d ce 3f f2 c1 6c 3f bf fa 0e 3e c6 b9 2d 3f
       1.6131938 0.9248344 0.1396284 0.6786159
0000d0 12 7e 2b bf 2d be dd bf 68 0b 66 bd a9 cb c2 3f
       -0.66989243 -1.7323662 -0.05616322 1.5218402
0000e0 fb 01 db bd 8f 81 53 3e c6 7b cf bd 7d 9a 08 c0
       -0.10693737 0.20654891 -0.1013103 -2.1344292
0000f0 08 87 20 bf 48 23 8b 3f 0e 38 bc 3f 00 cc fb bd
       -0.6270604 1.0870142 1.4704607 -0.12294769
000100 08 1b ad bf 51 57 9f 3f 94 23 8e 3c 24 a6 7d bb
       -1.3523874 1.2448522 0.01735095 -0.0038703764
000110 c8 95 85 3f 44 37 2e bd 12 ad f8 be 2f 1e 1a c0
       1.0436335 -0.042533174 -0.48569542 -2.4080923
000120 3d 6f 90 c0 55 8f d4 be 79 8c fb be 58 ee 8c bd
       -4.513579 -0.41515604 -0.4913061 -0.06881398
000130 52 b1 da bf 36 d1 18 be b4 0e 02 be e4 84 ac bd
       -1.7085364 -0.14923558 -0.12700921 -0.084237844
000140 35 8f dd 3f 51 c3 21 be ae cb 7e bd ed 30 69 c0
       1.7309328 -0.15797164 -0.062205963 -3.6436112
000150 9b d1 d4 bf e5 c5 e9 bf 7a fb 04 3c db 22 00 be
       -1.6626467 -1.8263518 0.008116597 -0.12513296
000160 53 43 27 40 37 60 5b bf 95 d5 7d 3e a3 5f 2c be
       2.6134841 -0.8569369 0.24788506 -0.16833358
000170 91 fc fd 3f 2f 4b 92 3f 8b 38 92 bd b6 2a 2b be
       1.9842702 1.1429194 -0.07139691 -0.16715512
000180 e5 88 0d bf 2e 19 ca bd 9b d9 db bd 69 c5 bd be
       -0.5528701 -0.09868084 -0.10734864 -0.37064674
000190 2c a5 ab 3f 81 81 3d bd 74 6a 89 bd c3 05 f0 bd
       1.3409781 -0.046266083 -0.067097574 -0.11719849
0001a0 59 8b b8 3e ec 1a 73 bf fa 76 34 40 85 ad f3 bd
       0.36043814 -0.94962955 2.8197618 -0.118983306
0001b0 0d 9c d9 40 14 dd 8d 40 36 80 fc 3f fb b4 ec 3e
       6.800299 4.433237 1.9726627 0.46231827
0001c0 ea 77 ad 40 72 d3 7e 3e 58 fc 11 c0 cf 8d 8b bd
       5.420888 0.24885347 -2.2810268 -0.06814157
0001d0 3c a7 bc bf 32 2d 2b be 05 a2 1e bd 23 02 8e 3f
       -1.4738536 -0.1671646 -0.038728733 1.1094402
0001e0 b5 eb 17 c0 10 6f 20 c0 c2 d0 6c bf 20 52 a4 bd
       -2.3737614 -2.5067787 -0.9250604 -0.080234766
0001f0 f5 21 8b be f2 a2 b2 bf 36 39 a3 bd c7 6b cc 3f
       -0.27174345 -1.3955977 -0.079698965 1.5970391
000200 76 7f c3 bd ed 74 6c bf 48 1d ae bd 6e 64 f7 bd
       -0.095457956 -0.92365915 -0.08501679 -0.12079702
000210 88 e7 83 bd a6 75 54 40 14 e1 0f be 0c 4c 8f bd
       -0.064406455 3.3196807 -0.14050704 -0.06996927
000220 4c 2f 86 bf 23 ab b0 bd 2a a9 74 bd f6 2a e3 bd
       -1.0483184 -0.08626392 -0.05973164 -0.110921785
000230 8a bf c1 be 55 28 5f 40 b6 c4 c7 bf 47 b7 97 40
       -0.37841445 3.4868367 -1.5606906 4.7411227
000240 bc f4 b2 3e ae f6 8b 3f ad 39 d4 bd 30 86 86 be
       0.34952343 1.0934656 -0.10362563 -0.26274252
000250 39 9c d6 3f 10 5e 47 40 b6 ca 00 40 da 29 64 bf
       1.6766425 3.1151161 2.0123725 -0.8912636
000260 fc cb dc bd 1d 57 12 be dc bf 72 bd 21 ab 26 be
       -0.107810944 -0.14291044 -0.059265003 -0.16276218
000270 2b 02 56 c0 93 24 31 c0 ba 16 82 bd a8 44 fe bd
       -3.3438823 -2.7678573 -0.06351991 -0.12415439
000280 d9 b6 5f bf 88 4f b7 bf 24 27 ad bd 95 8f cb 3f
       -0.8738838 -1.4321146 -0.08454731 1.5903193
000290 70 4a d0 bf 3d 53 66 bd d5 a8 f6 bd 1a 1b b8 bd
       -1.6272717 -0.056231726 -0.12043921 -0.08989544
0002a0 fa 1d e3 bc ec 55 bc c0 24 03 5c bd c1 8e b7 3e
       -0.027724255 -5.8854885 -0.053713933 0.358511
0002b0 63 e1 c1 3e a6 b2 b2 3e a6 8d 14 be a5 39 fc 3f
       0.3786727 0.34901923 -0.1450716 1.9705092
0002c0 3a c5 32 be 5e e2 02 40 75 f9 60 3f bb 7e 0f bd
       -0.17458048 2.0450664 0.8788064 -0.03503297
0002d0 23 a9 5b 3f 46 62 cb bd c3 48 eb 40 0d ff 48 c0
       0.8580496 -0.099308535 7.352632 -3.140567
0002e0 88 fc 15 3f 41 ee 0f be e0 50 b1 40 21 9e 54 bf
       0.5858846 -0.1405573 5.5411224 -0.83053786
0002f0 67 bf 42 40 c8 bc 45 3f fd 30 23 bc b7 b6 20 40
       3.0429323 0.7724118 -0.00996041 2.511152
000300 38 95 c2 40 21 e5 41 bf f2 4c d6 c0 f5 6f 07 40
       6.080715 -0.7574025 -6.6968927 2.1162083
000310 52 72 df bf 6c c2 c5 bf e4 71 1e c0 0a c9 c6 3f
       -1.7456763 -1.5449958 -2.4757013 1.5530102
000320 ae 87 66 be 9b bb b1 c0 bc 92 a6 bc 34 ba 9b bd
       -0.22512695 -5.554151 -0.02033364 -0.07603875
000330 79 2b a3 bd f9 fe f2 bf 4b f2 bf 3f 4e a3 8d bf
       -0.07967276 -1.8984061 1.4995817 -1.1065462
000340 00 6a 0f bf c3 ef 17 3e c3 16 9b 3e bb 3b 98 bf
       -0.5602112 0.14837556 0.30290803 -1.1893228
000350 af 35 18 bf fe 21 9c bf dd e4 f0 3f a9 dc 33 bf
       -0.59456915 -1.2197874 1.8819844 -0.70258576
000360 4b 78 34 3f 3a 02 7e 40 e2 d6 e0 3d e6 df be 3f
       0.7049605 3.968886 0.10978486 1.4912078
000370 65 04 0b 40 ef d5 a3 bf 43 88 0c be c4 18 a0 bf
       2.1721432 -1.2799662 -0.13723855 -1.2507558
000380 6a 17 70 3f 0a 44 d6 be ad 35 22 bf 76 8c 0c c0
       0.9378573 -0.41848785 -0.6336315 -2.196073
000390 d6 99 3a bd 13 fc d7 bd c2 5b 03 be 75 80 89 bd
       -0.045556866 -0.10546126 -0.12827972 -0.06713954
0003a0 5e 6a f2 bd 9c 66 3a bd 08 ae a4 c0 f0 0a b9 3e
       -0.11836694 -0.045508012 -5.146244 0.36141157
0003b0 62 14 50 40 d2 7f 98 bf 32 9e 5a 3f da 45 53 bf
       3.251244 -1.1914008 0.85397637 -0.8252846
0003c0 fc d0 c6 3e 47 f6 d0 ba fd ef 21 c0 4a 2e 08 bd
       0.38831317 -0.0015942537 -2.5302727 -0.03324727
0003d0 3b 78 ea 40 2d c1 0b be 35 70 84 40 a6 ec 12 c0
       7.3271766 -0.1364791 4.138697 -2.2956939
0003e0 eb ea 4a be 92 22 d2 bd ed 2f 71 bd 29 dd e4 3f
       -0.19816177 -0.102605 -0.058883596 1.7879993
0003f0 a2 4b c2 bd 0f 8e 82 be 77 e3 d8 bf 78 9d 7b bd
       -0.09487082 -0.25499007 -1.6944417 -0.06142947

mean_linear.weight f4 [1, 256]
000000 e0 64 82 bd 43 57 46 3d 8c d2 fe bd f6 0f e1 bc
       -0.06366897 0.048423063 -0.124425024 -0.027473431
000010 ca 20 43 3e db 57 ac 3d 69 ce 27 3e 79 93 98 3e
       0.19055477 0.084151946 0.16387333 0.29800013
000020 89 36 9c 3d b2 c3 02 be 70 16 a3 bd 99 85 6b 3d
       0.07627589 -0.12769964 -0.07963264 0.057500456
000030 bc 29 93 3d 54 46 66 3c dc d7 91 3d f2 18 dd 3d
       0.071856946 0.0140548535 0.0712125 0.107957736
000040 14 0f 17 3d 1c bf 29 bd 8e f3 14 3d d1 b2 ff bd
       0.036879614 -0.04144202 0.036365084 -0.124852784
000050 ce b8 84 3c f2 24 4b 3d d7 07 9f 3d 77 97 3f 3d
       0.016201403 0.04959578 0.07765167 0.046775308
000060 9b 28 b1 bd 98 ee ab 3d 3d c4 80 3d 3d fc 99 3d
       -0.08650323 0.083951175 0.062874295 0.07518814
000070 42 27 f5 bc 06 45 d9 ba 52 4d 86 3c 5b b2 14 3c
       -0.029925946 -0.0016576357 0.016394291 0.009075726
000080 f7 fd 50 3d 36 55 3e 3d 17 e2 25 bd 95 c5 a8 3d
       0.05102345 0.046467982 -0.04049882 0.08240811
000090 f6 e3 55 bc 7a 11 c0 b9 80 c3 4c bd 25 10 9f 3d
       -0.013054838 -0.00036634115 -0.04999113 0.07766751
0000a0 4a 93 27 be bc 03 ca 3d 43 4f 93 bd 48 1c 4a bd
       -0.1636478 0.098639935 -0.07192852 -0.049343377
0000b0 af 0f 21 3d e9 f6 e0 3b c7 67 16 bd a3 dd 2a bd
       0.039321598 0.0068653715 -0.036720064 -0.041715275
0000c0 55 4a c8 3d 8b 62 9d 3d 56 81 d9 bd 72 79 26 bd
       0.09779803 0.07684811 -0.10620372 -0.040643163
0000d0 5b 6b b0 3d 97 19 12 bd 3e 42 c0 ba 5e ed 23 be
       0.086142264 -0.035668936 -0.0014668179 -0.16008517
0000e0 f2 72 3e 3a 60 d5 0b 3e f5 db a0 ba 1a 7d 18 bd
       0.0007265053 0.13655615 -0.0012272584 -0.03722868
0000f0 29 8c 47 3d 26 ac be 3d a2 a7 4c bd e5 56 0f be
       0.04871765 0.093101785 -0.049964555 -0.13997991
000100 46 8c 8a bc b7 63 c0 bd d5 e0 93 bd 9c 23 f2 3d
       -0.01691259 -0.09394019 -0.07220618 0.11823198
000110 1a ab cb 3c 4a 4e a1 bd 89 e4 18 3d c6 41 90 bd
       0.024861861 -0.078762606 0.037327323 -0.07043795
000120 2a ea 8f bd cb 17 b0 bd 94 b7 b4 bd 83 18 a1 bb
       -0.07027085 -0.08598288 -0.08824077 -0.004916252
000130 de df 31 bd 89 00 70 bc aa b1 23 be 1c e6 bb 3c
       -0.043426387 -0.014648565 -0.15985742 0.022936873
000140 55 76 ba bc 47 56 86 bb 35 8f d1 3d 47 e0 a4 3d
       -0.022761503 -0.0040996405 0.10232393 0.0805059
000150 23 81 92 3d 57 bc f9 3c ae bb b4 bd 9b 35 06 3c
       0.07153537 0.030485315 -0.088248596 0.0081914915
000160 d2 b3 2c be 93 05 a5 bd 11 13 dd 3d 83 a1 cd bd
       -0.16865471 -0.08057704 0.10794652 -0.100405715
000170 db b8 9a 3d 66 f8 b3 bc a2 14 80 3b 14 a1 48 bb
       0.0755479 -0.021969032 0.0039087096 -0.0030613588
000180 7b 9a 27 bc b4 a1 6e 3d 9c 3d 49 3c d9 ac ee 3c
       -0.010229702 0.05825968 0.012282755 0.029135155
000190 65 08 34 3d 38 7d b8 bc 94 25 1f 3c 5c a2 12 3c
       0.04395332 -0.022520646 0.009713549 0.008949842
0001a0 3a 73 01 bb 0c a5 df bd c0 85 6d 3d 69 4a 44 3d
       -0.0019752518 -0.10920152 0.057988882 0.047922526
0001b0 ef 95 4c bd 98 a6 86 bd 46 a9 1e bd 7a 0d 83 3e
       -0.049947675 -0.06574744 -0.03873565 0.2559622
0001c0 60 b4 9b be 6b d9 ef 3d c4 83 8a 3d 22 41 e3 3c
       -0.30411053 0.11711391 0.067634135 0.027741019
0001d0 05 d2 47 bd 11 49 cf 3c 8f 1d 10 3d 99 04 c8 be
       -0.048784275 0.025303395 0.03518444 -0.39066008
0001e0 2d 79 1d 3d 32 37 d2 3d e0 63 b7 bd b7 02 9f bb
       0.03844564 0.10264434 -0.089545965 -0.0048526186
0001f0 0b ee e0 3c cb b2 3f bd 6e 37 56 3c 59 25 90 3e
       0.027457258 -0.04680137 0.013074739 0.28153494
000200 fd 1b a9 3c ee 4e 9f be fa 44 a3 bd b5 28 39 3b
       0.020643229 -0.31114906 -0.079721406 0.0028253023
000210 28 06 a2 3a 28 0e 80 be 97 94 02 3d 06 b0 b7 3c
       0.0012361454 -0.250108 0.031879988 0.022422802
000220 95 aa 8e bd aa 8b 11 3b 98 95 10 39 91 41 ce 3b
       -0.0696613 0.002220849 0.00013788638 0.006294437
000230 c0 52 b8 bd 5b 59 8c 3d 90 c7 72 3d f1 4a 43 bd
       -0.09000158 0.06852981 0.05927235 -0.04767889
000240 b1 a1 58 3d e7 eb 9d bd 84 f8 34 3d 7c cf 06 3d
       0.052888576 -0.077110104 0.044182315 0.032912716
000250 f4 28 8d bd 90 bd 25 bd 52 a2 1f bd 5e d4 91 3e
       -0.06892577 -0.040463984 -0.03897316 0.28482336
000260 a6 6b 9b ba e7 5d 16 3d 56 91 11 3d 9d 5c 81 bb
       -0.0011857643 0.036710646 0.035538994 -0.003947808
000270 d0 a1 0d 3d 9e 3d 2d 3d 71 c1 86 3d 1e df b7 bb
       0.034578145 0.04229509 0.06579865 -0.0056113144
000280 5d 88 2f 3d 05 e3 3f bd 03 21 dc 3b 56 17 bc bd
       0.042854656 -0.046847362 0.0067178025 -0.091841385
000290 e4 87 15 bc 09 51 3a 3d 8d 4d 59 3d a4 e6 51 3d
       -0.009126637 0.045487437 0.053052474 0.051245347
0002a0 e6 c2 90 bd c1 26 73 bd da b3 71 3d 15 e2 6d 3d
       -0.07068424 -0.05936313 0.05900941 0.058076937
0002b0 bb bf 02 be a8 bf 84 bd 61 95 35 bd ed da bf 3d
       -0.12768452 -0.06481868 -0.044331912 0.09367929
0002c0 b6 1b 24 3c 08 62 9f 3d 57 23 2b 3d b6 78 86 ba
       0.010016372 0.0778237 0.04178175 -0.0010259363
0002d0 a3 fb 39 bb 81 2d 49 bd dd 61 8e be 1f a9 2c 3d
       -0.0028378747 -0.04911566 -0.2780904 0.042153474
0002e0 90 19 7c bd 41 4e ca bc 11 4f 44 be e8 46 28 be
       -0.061547816 -0.024695517 -0.19170786 -0.16433299
0002f0 e2 54 2e 3e d5 e7 6c 3d ac a3 d2 bd 05 90 81 bd
       0.17024568 0.05783828 -0.10285124 -0.06326298
000300 12 aa 1d bc 66 b9 95 bd 73 db 8e bd f1 22 34 3d
       -0.009623067 -0.073107526 -0.0697545 0.043978635
000310 9a 73 86 3d 84 2e 56 bd 2f af c3 3d 91 3c a4 bd
       0.06565018 -0.052290455 0.09554898 -0.080193646
000320 ba b5 35 bc 87 c9 ef 3d c2 51 c7 bc 02 5e b4 3d
       -0.01109069 0.1170836 -0.024330977 0.08806993
000330 65 12 81 bc 24 98 8d bd c1 91 71 3d b8 bf 63 3d
       -0.015755842 -0.06913784 0.058976892 0.05560276
000340 f1 22 a1 bd bf 69 86 3e c1 a0 2c bd ce c0 6b 3d
       -0.07867993 0.26252553 -0.042145494 0.05755692
000350 c5 67 c3 3d 91 94 9e 3d 27 d2 09 3d 56 c9 8d bd
       0.09541277 0.077431805 0.033647683 -0.069231674
000360 95 43 0e 3f 9e fc 45 bd 28 a2 02 3d 4d fb 38 bd
       0.5557187 -0.048336618 0.031892926 -0.045161534
000370 45 8e fd 3c 73 ec c9 bd 58 f8 58 3e 59 bb 08 3e
       0.030951628 -0.09859552 0.21188486 0.13352717
000380 69 72 89 be 33 f9 d1 3d 9a e4 58 3d a6 1c 43 bd
       -0.268451 0.10252609 0.052952386 -0.047634743
000390 b4 ab ca bb a0 e3 c4 3c 24 6f ee bc fa 28 49 bd
       -0.0061850194 0.024034321 -0.02910573 -0.049111344
0003a0 84 b2 9d bd 36 2a 5b 3d 16 94 09 bd 42 ce 14 3d
       -0.07700065 0.053507052 -0.03358849 0.036329515
0003b0 15 78 ad bd 4f fd 80 3d b9 c6 2c 3e 21 c3 93 be
       -0.084701695 0.06298315 0.16872682 -0.2885981
0003c0 16 ff a3 bd e8 85 4d 3d 69 0e 1b 3d d5 74 4c 3b
       -0.08007638 0.05017653 0.03785554 0.0031197567
0003d0 6f f3 02 bf 94 18 12 bd 09 16 84 bd 17 b4 f2 bc
       -0.511527 -0.03566797 -0.06449515 -0.02962689
0003e0 de a1 7a 3d c0 c7 ec 3b 35 3a 49 3c ec a6 c2 be
       0.061189525 0.0072259605 0.012281944 -0.38017976
0003f0 79 f9 99 3b 0b 05 55 3d b0 e2 b7 3d dc a8 07 3c
       0.004698929 0.052006762 0.08978784 0.008280005

log_std_linear.weight f4 [1, 256]
000000 b8 c3 c7 3d e8 04 0e 3d 9b 7e 84 bc 3b 52 7f 3d
       0.09754127 0.034672648 -0.016173651 0.06233428
000010 69 d3 06 3d 3f 5a ac 3b 7b 83 51 3d d6 6b 8c bb
       0.03291646 0.0052597816 0.05115078 -0.004285316
000020 3d b1 f5 3c 3d e8 a7 3c 39 07 2c ba fe 01 45 bb
       0.02999174 0.020496482 -0.00065623556 -0.0030061002
000030 33 69 1c bd bf 3a 0f bd 6f 3a 1b bc c1 97 4b bb
       -0.038186263 -0.034968134 -0.009474381 -0.0031065794
000040 8d 35 6a 3c aa 8c 4a bc 4b 34 f9 ba 88 44 5e bd
       0.014294994 -0.0123626385 -0.0019012777 -0.054264575
000050 bd a4 ba bd 1b da 49 bb f7 cf dd 3b 3f d6 f2 3d
       -0.091134526 -0.0030800167 0.006769176 0.118572704
000060 0d 0e e5 bb ac 4d e8 3d d3 5c 24 3d 37 35 6f 3b
       -0.0069902004 0.1134294 0.040127587 0.0036500224
000070 f9 ca 1f 3c 6a 4d 7d bc 04 69 c1 bc ae 8e 91 3c
       0.009752982 -0.0154603515 -0.023609646 0.01776823
000080 a6 02 18 3d 73 3d 9d 3c 9a da 45 bb 3a e3 05 3b
       0.0371119 0.01919434 -0.003019011 0.0020429627
000090 b8 42 8e 3d 8f ea c4 bd b1 c2 eb 3b 0d 86 83 3d
       0.06946319 -0.09615051 0.00719484 0.064220525
0000a0 c3 eb 07 bc 2d 7b e4 3c 24 ea 5d bd 88 78 0c bc
       -0.008295956 0.027890766 -0.054178372 -0.008573659
0000b0 69 e4 48 bd 9b 2d 17 3d a7 98 06 bd c8 25 42 3d
       -0.049045954 0.036908727 -0.032860424 0.047399312
0000c0 ae 23 37 3c 7e f4 aa 3b 94 11 2e 3e dc 13 a1 ba
       0.01117794 0.005217134 0.16998893 -0.0012289244
0000d0 4d 6d 2d 3c 55 ae 33 3c 43 43 8d 3d 82 fa 6e bc
       0.010585141 0.010966857 0.06897595 -0.014586093
0000e0 6a ab bc 3c ac b8 a0 bc 5c f7 3e bd d9 53 8a bc
       0.023030955 -0.019619308 -0.04662262 -0.016885685
0000f0 03 8f 69 3b cd d3 db 3b 9e 9b bf bb 72 c8 43 3c
       0.003563822 0.006708598 -0.0058474084 0.011949645
000100 17 cd d1 bb 7f 7a c0 bb 3e b2 6c bd 35 5c 60 3d
       -0.0064026224 -0.0058739777 -0.057787172 0.054775435
000110 0b 03 da 3b 5a 07 c1 bd 15 45 ee 3c 37 28 01 3c
       0.006653195 -0.0942523 0.029085675 0.007883123
000120 d1 fe 43 bb cb c6 b8 bb f8 7a 4f bd c6 b5 be bc
       -0.002990652 -0.0056389323 -0.05065438 -0.023280036
000130 1f 2a 21 3c d1 4b 0a 3d 50 e6 f1 3c 51 ce 82 bd
       0.009836703 0.03376371 0.029528767 -0.06387008
000140 a8 8b 9c bc 6d 29 79 3c f0 17 3a 3d 1c 3d a3 3c
       -0.019109562 0.015207631 0.045432985 0.0199266
000150 a8 96 9a 3a 64 b4 84 bb e5 35 cd bd 84 37 c7 b9
       0.0011794167 -0.0040498246 -0.10020045 -0.000379976
000160 97 4e fb 3c 39 dc 55 bb 53 f7 3e 3c 27 af a1 38
       0.030677123 -0.0032632484 0.011655646 7.709703e-05
000170 01 d7 bb 3c cb a0 19 bc 55 18 84 bd ef bf 29 bc
       0.02292967 -0.009376715 -0.064499535 -0.010360702
000180 3b 53 d1 3b 2b 58 68 bc 99 89 19 bd 6d 37 53 bd
       0.0063880957 -0.014181177 -0.03748474 -0.05156653
000190 60 85 b4 bb 51 8e ed bc 8e 80 13 3d e2 99 41 3d
       -0.0055090636 -0.028998526 0.03601127 0.047265895
0001a0 de 98 8a 3d 50 ce 93 3c 5f 95 9f bb b4 95 24 3d
       0.06767438 0.018042713 -0.0048701013 0.04018183
0001b0 7e ab c5 3b d0 1a 9b bc e2 e3 d6 3b f7 a5 b0 3d
       0.0060324064 -0.018933684 0.0065579275 0.08625405
0001c0 20 79 22 3c 27 48 26 bb aa 43 5d bb fd 77 a7 3d
       0.009916574 -0.0025372596 -0.0033762255 0.08177183
0001d0 56 ce 1e 3c 66 4a 57 bd 2b fd 0a 3d a1 0f f8 3e
       0.009692749 -0.052561186 0.033932846 0.48449424
0001e0 2f 6c 60 3b f1 fb 47 bc 00 62 1b bc de bd 33 3c
       0.003424417 -0.012206064 -0.009483814 0.010970561
0001f0 04 28 68 3d ec 5c 15 3c 31 37 17 bc 90 3d 0c bd
       0.056678787 0.009116393 -0.009229467 -0.034238398
000200 cd da 43 bd 30 4d a2 bb 21 97 c6 bc a4 dd 59 bc
       -0.047816087 -0.004953049 -0.024241986 -0.013297472
000210 21 b0 8d bd 8b 0d 0e 3d 28 aa 63 3d be 9a 29 bd
       -0.069183595 0.034680884 0.055582196 -0.04140734
000220 ec 6c 1d bc 7c 51 04 bc 05 65 99 3c df f3 cf 3c
       -0.0096084885 -0.008076068 0.018724928 0.025384841
000230 d0 67 02 bb 64 00 5e 3a 68 59 cb 3b 0b e4 32 bd
       -0.0019898303 0.0008468686 0.0062057264 -0.04367451
000240 10 f7 38 3c c8 01 07 3c 8e d5 b8 3d 10 51 54 3c
       0.011289373 0.008240171 0.09025107 0.01295878
000250 f7 b7 61 3c fd 63 4e bb eb 01 8f bc 9b d4 3c bd
       0.013776771 -0.0031492703 -0.01745697 -0.046101194
000260 de 42 b0 3b 54 94 bc 3c d9 50 ae 3c 92 0f 9f 3c
       0.005379065 0.023019947 0.021278786 0.019416604
000270 43 24 9c 3c 92 d7 e8 3c de 58 a3 3d fc 5f 64 bc
       0.01906026 0.028423104 0.079759344 -0.0139389
000280 a7 a4 9f bb 8e fd 7e bc d7 27 bf bc d8 8b 42 3a
       -0.004871923 -0.015563382 -0.023334427 0.0007421351
000290 d3 45 a1 bc 54 22 2f 3d 8a 2a e7 3a 84 c7 83 bd
       -0.019686615 0.042757347 0.0017636579 -0.06434539
0002a0 d0 29 8b bd db 53 2a bc 80 1e 26 bc 81 1f ee 3b
       -0.067950845 -0.010395969 -0.010139108 0.007266939
0002b0 34 e8 65 3c 17 a2 59 3b 95 6e d8 3c 38 06 06 bd
       0.014032412 0.0033208185 0.026419917 -0.032720774
0002c0 59 94 09 3e 29 29 f7 b9 62 d4 51 3d 67 64 28 3d
       0.13435496 -0.00047142178 0.051227935 0.041111376
0002d0 93 90 05 3e 4e 01 ce bb b4 15 a7 3c 66 1e 4b 3c
       0.13043432 -0.0062867766 0.020396091 0.012397384
0002e0 8e 71 6d bc 5b 95 f4 3c b7 61 71 3c c2 00 25 bd
       -0.014492406 0.029856374 0.01473277 -0.040283926
0002f0 90 cf 8e 3c 5c 0e c3 3c cb 8d a9 bb b5 d4 08 3c
       0.017432958 0.023810558 -0.0051743737 0.008351495
000300 02 32 21 be d6 2b 88 bc dc e0 87 bc a7 71 d8 b8
       -0.15741733 -0.016622465 -0.016586713 -0.00010320852
000310 5a cb 9b 3c 5a d2 aa bb b6 41 7e bc 38 e9 58 bb
       0.019017864 -0.005213064 -0.015518596 -0.0033097994
000320 1a 57 94 3c f7 b1 50 3c 2b 4b f5 bd 5a 47 68 3d
       0.01810794 0.012737743 -0.11977228 0.05670867
000330 4b 98 a8 3c 92 ce 73 3b c6 a2 96 b9 dd 33 c0 3a
       0.020580431 0.0037201983 -0.00028731505 0.0014663894
000340 33 63 72 bc 4a 19 e2 39 1d 6d a9 3c 76 0a eb 3b
       -0.014794159 0.0004312492 0.020681912 0.007172878
000350 7f f3 a1 3b 16 94 90 bb f1 97 02 3b de e6 9e b9
       0.004942357 -0.0044121845 0.001992699 -0.00030308118
000360 38 94 a0 be 18 9c a7 bc 10 22 73 3c 31 d8 5f bc
       -0.31363082 -0.020460173 0.014839664 -0.013662384
000370 9f a4 40 bb 6a 5a 32 3c 2e 2c 06 3c 5a 86 6c 3c
       -0.0029394997 0.010885814 0.008189244 0.014436329
000380 e7 72 d0 3c 4c 9d bd 3c a5 c4 d8 bc ab 0b 4b bc
       0.025445415 0.023146294 -0.026460955 -0.012392919
000390 11 60 9a 3c 94 b9 91 3d f2 98 33 3d b9 d0 8d 3c
       0.018844636 0.07115474 0.043847032 0.01731144
0003a0 b6 b2 92 3d a5 17 b5 3c 72 e2 40 3c ec 29 d1 3b
       0.07162993 0.022106001 0.011772739 0.0063831713
0003b0 d8 7e 6d bc b0 1c 79 bc fd ab 2a bc 0f d9 0a 3e
       -0.014495574 -0.015204594 -0.010416982 0.13559364
0003c0 2b e8 dd ba f1 21 92 3d 5f 19 bd bb 3f e0 c2 bd
       -0.0016930153 0.0713538 -0.0057708467 -0.09515428
0003d0 e0 0d b0 3e 08 56 da ba 67 bb ac 3b 84 2c 3f 3c
       0.34385586 -0.0016657719 0.0052713635 0.011668328
0003e0 d0 a2 cd 3a 9e 52 f6 3b 32 93 92 3b f7 ca 9e bb
       0.0015688781 0.007517173 0.0044731135 -0.0048459726
0003f0 35 cb 67 3c c6 5a 21 3c 6c 0f b0 bc 91 ac a2 3c
       0.014147569 0.009848302 -0.021491729 0.019857677
