model/sac_mha_sac_ff/agent2_sac_ff_q2_1000000.pth (torch, 275871 bytes, 5 tensors)

fc1.weight f4 [256, 8]
-3.3898723 0.9364805 -0.078240365 -0.24697469 0.4404684 0.024966432 -0.095323816 -0.46955723
-0.81426775 -0.17094308 -0.007265652 0.017640732 -0.16897804 -0.014078707 -0.071471 0.2358088
0.5031541 -0.11295338 -0.026841393 -0.2110415 0.22264089 -0.06232223 0.0043661054 -0.9563307
-0.08434632 1.6924361 -0.20616658 -0.9123006 2.0285633 -0.0065973075 0.0021811528 2.185104
0.0848269 0.0036045571 -0.04873496 0.013675287 -0.08758213 -0.012183529 -0.12821583 0.07126352
-6.173705 3.3439894 -0.39355755 2.4531229 -1.905929 -0.0019405773 0.0027295994 -0.79092693
-3.7225404 0.90038127 -0.09329484 -0.8251371 -2.7286093 0.065705545 -0.017921781 3.691257
3.1909935 -1.8631177 0.09171397 0.6939449 -0.5134958 -0.0057356036 0.007142638 3.7933464
-0.22274257 -0.0028455968 0.001222802 0.18354268 -0.30534798 -0.037392303 -0.00087038806 0.21993151
-1.0314243 -0.12348645 0.0039707986 0.12334704 -0.26627773 -0.042112496 0.08428158 1.1418678
-0.0669871 -0.13591787 -0.06531746 -0.1426411 0.012792223 -0.0794087 0.025442237 0.09946952
-0.67401594 0.7897856 -0.05876759 -2.3813844 1.8238841 -6.532908e-05 0.0076379026 -1.8873086
-1.2617359 -0.15644026 -0.00010290594 -0.06865834 -0.23145415 -0.009979141 -0.026350806 0.43056378
-0.011903209 -0.5357472 0.0681068 -0.8759499 2.0203643 -0.43079188 -0.03207789 1.4945652
-0.10000575 -0.018231785 -0.045384422 0.14710972 0.12033275 -0.11093923 0.13462082 -0.107317284
-0.060529757 0.07067945 -0.078850485 -0.060742892 -0.12058397 -0.10015686 0.06962448 -0.09133884
-0.95545584 0.09416777 -0.038780592 -0.12109376 -0.003067941 -0.008297809 -0.11226911 0.26695994
1.2399033 0.08261159 -0.091143854 -0.16022228 0.007986042 -0.01762157 -0.4440772 0.67118806
0.57460594 -0.025105633 -0.024598451 0.013867415 0.23335591 -0.10328059 0.05849377 -0.5685088
-0.035384875 0.1350133 -0.06491375 0.10844617 -0.11394016 -0.006985084 -0.10724634 0.029530682
-1.2403963 0.099336244 -0.032707468 0.18525389 -0.28433892 -0.0026413708 -0.06044295 1.3559761
-1.4179535 -0.09426661 0.005786205 0.48941875 0.83248633 0.0034506703 -0.093084715 -0.012621772
3.4595077 -0.45836106 -0.17746723 1.5937353 -0.20455696 0.008227378 -0.01108565 -1.9660494
1.0299717 -0.04258808 -0.017857917 0.069037914 0.20384143 -0.18487789 0.30600363 0.19388615
1.514901 0.017473148 -0.008218997 -1.7048566 1.9850798 -0.0010194042 0.0015332059 -1.3368615
0.43542543 0.027317412 -0.0004872841 0.24510197 0.6083148 0.009488366 -1.2909684 -2.6994305
3.0175776 -0.94802487 0.059194703 -0.400338 0.15954117 -0.003226676 0.059869763 -4.8821297
0.089964725 0.063997366 -0.078058325 -0.09245233 -0.1433385 -0.06339468 -0.078239486 0.07642788
-4.6541214 0.4904436 -0.015861204 -0.38991427 0.48196852 -0.0016429155 0.41959447 2.5987396
-2.291017 -2.3289597 -0.022147661 -0.366542 -0.43953812 -0.005624811 -0.22484098 -0.70286876
0.9395647 5.2607813 -0.43793315 0.044271007 0.494057 -0.012097711 0.021615067 6.3189445
-2.1522388 -1.5163023 0.16952233 -1.4072617 -1.5447569 0.00035690307 -0.022613732 -1.5314976
00000000: abf3 58c0 30bd 6f3f 7c3c a0bd efe6 7cbe
00000010: 1385 e13e 6786 cc3c 2239 c3bd ce69 f0be
00000020: da73 50bf b40b 2fbe b514 eebb 4c83 903c
00000030: 9408 2dbe 61aa 66bc 635f 92bd dd77 713e
00000040: b5ce 003f 1a54 e7bd 7be2 dbbc 431b 58be
00000050: f9fb 633e 9845 7fbd 8c11 8f3b 17d2 74bf
00000060: c3bd acbd bfa1 d83f 551d 53be 888c 69bf
00000070: fbd3 0140 3a2e d8bb acf1 0e3b bed8 0b40
00000080: bab9 ad3d 6f3a 6c3b 4f9e 47bd 500e 603c
00000090: 435e b3bd 6d9d 47bc 034b 03be 9cf2 913d
000000a0: fe8e c5c0 ec03 5640 6080 c9be f7ff 1c40
000000b0: 7bf5 f3bf f85a feba 14e3 323b 307a 4abf
000000c0: 1a3e 6ec0 637f 663f 5d11 bfbd 2f3c 53bf
000000d0: 89a1 2ec0 a190 863d b3d0 92bc 8e3d 6c40
000000e0: 3d39 4c40 a47a eebf 89d4 bb3d 5fa6 313f
000000f0: 7674 03bf bbf1 bbbb ca0c ea3b 30c6 7240
00000100: a116 64be 317d 3abb 6d46 a03a 9df2 3b3e
00000110: 9256 9cbe ac28 19bd c12a 64ba ba35 613e
00000120: b605 84bf 77e6 fcbd 791d 823b 5f9d fc3d
00000130: 8e55 88be 277e 2cbd d29b ac3d b928 923f
00000140: 8830 89bd 0e2e 0bbe 29c5 85bd 8210 12be
00000150: 7996 513c 07a1 a2bd 3d6c d03c adb6 cb3d
00000160: 4f8c 2cbf 642f 4a3f 49b6 70bd 9a68 18c0
00000170: 0975 e93f 4801 89b8 5f47 fa3b 5493 f1bf
00000180: 9080 a1bf e031 20be 35cf d7b8 be9c 8cbd
00000190: 5102 6dbe 8d7f 23bc a5dd d7bc db72 dc3e
000001a0: ad05 43bc ba26 09bf 947b 8b3d 413e 60bf
000001b0: a64d 0140 c190 dcbe 1b64 03bd ea4d bf3f
000001c0: d1cf ccbd d35a 95bc 04e5 39bd eea3 163e
000001d0: 0471 f63d 1b34 e3bd 0ada 093e 2ac9 dbbd
000001e0: 0dee 77bd 63c0 903d 5d7c a1bd 8acd 78bd
000001f0: baf4 f6bd 0a1f cdbd 4897 8e3d dc0f bbbd
00000200: c198 74bf 08db c03d 66d8 1ebd 0100 f8bd
00000210: 820f 49bb 89f3 07bc 59ed e5bd f9ae 883e
00000220: 27b5 9e3f 4430 a93d a1a9 babd 4f11 24be
00000230: e3d7 023c 1c5b 90bc 165e e3be fbd2 2b3f
00000240: 6019 133f 54aa cdbc b182 c9bc 2734 633c
00000250: daf4 6e3e c684 d3bd 2a97 6f3d cb89 11bf
00000260: bbef 10bd ed40 0a3e 80f1 84bd 0719 de3d
00000270: 7559 e9bd 22e3 e4bb f8a3 dbbd 54ea f13c
00000280: 4ec5 9ebf cd70 cb3d 44f8 05bd 32b3 3d3e
00000290: df94 91be d91a 2dbb 0793 77bd a090 ad3f
000002a0: 807f b5bf da0e c1bd 359a bd3b 1895 fa3e
000002b0: d31d 553f a424 623b 33a3 bebd 8ccb 4ebc
000002c0: 9368 5d40 4dae eabe f8b9 35be 85ff cb3f
000002d0: 6177 51be 20cc 063c 96a0 35bc 82a7 fbbf
000002e0: 1dd6 833f d770 2ebd c44a 92bc c063 8d3d
000002f0: cfbb 503e a150 3dbe 82ac 9c3e 178a 463e
00000300: 47e8 c13f d923 8f3c f9a8 06bc be38 dabf
00000310: 1817 fe3f 879d 85ba daf5 c83a 471e abbf
00000320: 15f0 de3e c4c8 df3c 2a7a ffb9 03fc 7a3e
00000330: 85ba 1b3f 1775 1b3c 743e a5bf 78c3 2cc0
00000340: fe1f 4140 c2b1 72bf 2576 723d 1af9 ccbe
00000350: c35e 233e a476 53bb ff39 753d 683a 9cc0
00000360: 6d3f b83d 0d11 833d 0bdd 9fbd a657 bdbd
00000370: 54c7 12be 12d5 81bd 063c a0bd 3886 9c3d
00000380: 90ee 94c0 6c1b fb3e 5bef 81bc d8a2 c7be
00000390: 94c4 f63e 1957 d7ba 16d5 d63e c051 2640
000003a0: 06a0 12c0 ad0d 15c0 036f b5bc 65ab bbbe
000003b0: 240b e1be 5650 b8bb b73c 66be 35ef 33bf
000003c0: 5087 703f 5258 a840 c638 e0be 8455 353d
000003d0: 0af5 fc3e 7a35 46bc 1512 b13c cb34 ca40
000003e0: 48be 09c0 3216 c2bf 4397 2d3e 2721 b4bf
000003f0: 98ba c5bf b81e bb39 6f40 b9bc 1d08 c4bf

fc1.bias f4 [256]
0.5434085 1.5079491 -1.6534759 -2.3928185 -0.28842372 4.968873 6.883414 -4.7108197
1.3784183 1.4660463 -0.21469297 -4.8381634 2.3299391 0.7938305 -0.0011091828 -0.13787486
1.2435875 -2.1220858 -1.8571937 -0.3257994 1.2217526 -7.7236137 2.7888632 -0.18282154
8.303338 -16.838793 -12.314192 -0.045422196 8.855485 2.265624 -1.4796821 9.326117
-1.4838872 0.070299506 -0.24650638 2.4713018 7.65439 7.112111 1.6989592 -0.4664337
-1.1388117 -11.521991 1.821247 1.1109798 -2.1352983 1.104105 2.199924 -22.652197
3.7793777 1.4210864 1.5172143 0.6021134 -11.435392 -4.3728237 -0.6506358 1.6093316
1.0584072 2.6799738 8.020743 -0.09383413 0.03603327 1.1953684 2.6882322 0.261886
-0.22191866 0.9388467 -0.50313467 1.0766993 -0.07875664 -0.25875026 11.0322275 6.623193
13.795672 1.5776366 -0.32885122 -0.01811552 3.7743373 0.10090503 -0.44178882 1.9299562
0.10666308 -1.4058971 -2.7286963 0.7145809 -0.059800297 -0.24733 0.1432136 -0.34156623
1.580074 17.661478 -2.3539696 -3.0091314 -17.132778 0.87414753 -0.20900066 -2.1486022
1.9261935 1.5090122 3.5197787 -1.8210738 0.13446593 0.6241192 0.15944538 -3.303561
-9.88397 -0.518582 -3.0151706 -0.08488983 -0.11422601 -11.132748 -1.9878163 3.1889536
-1.3891989 0.1318961 1.5590988 -7.329054 -5.633123 -1.6818229 1.8107151 -5.731796
0.024876952 -0.30158484 2.421397 2.1946757 2.1925888 -0.16746283 -0.19892693 11.709275
-3.3185408 -0.6168753 -0.16165718 -0.35002553 -2.6001873 9.673072 1.7849311 0.32559773
2.2226017 -0.3424593 0.27745828 0.070385784 1.7679454 5.669278 -22.6161 0.14772788
0.2714599 3.8518913 0.28087512 -1.4143023 2.5609934 0.11530456 0.24223718 0.31390342
-3.0551689 -1.7603036 1.3408862 7.562092 2.1899443 0.12330949 10.2905245 -0.12389647
-10.580606 -7.559831 16.075762 1.0392544 2.735074 -6.8253555 -3.578756 -2.2666547
-3.0846443 -0.30977067 0.022873303 1.5109326 2.7164211 13.911544 0.17936239 7.186728
2.0525815 0.16753605 -0.3305434 2.2009835 -6.2573752 0.7200543 -3.9797773 -4.792595
0.12955248 5.140811 2.4773002 -5.526827 0.2980268 -20.962534 0.08972913 -0.11326733
-0.34831336 -0.80186176 -2.3423252 10.814887 -1.7730129 1.3442097 -0.17140225 -0.2962961
13.7334175 1.1699275 -5.524989 -0.20608798 -0.2172314 -6.1992116 0.8899192 -0.24284601
2.3820162 -0.0062745945 2.3294103 16.782444 0.3786819 2.3341389 9.973759 0.6949424
-2.1976988 -16.246708 -0.18023606 -1.4568465 0.0013974655 -3.075692 -1.4481621 0.73223454
-2.1591384 -2.5613537 -21.199644 -3.4420738 0.11980179 1.2168837 1.5745615 -1.342177
2.7635133 0.4350645 -0.00925681 -5.0216446 17.74039 0.27203533 0.48385307 0.05048275
-2.3880754 -0.25029916 0.037094533 0.11951715 5.456587 6.8490415 1.6375571 7.628685
0.33399203 7.0371995 8.487254 -0.507442 0.21033934 0.09550977 1.1564136 2.1937196
00000000: d21c 0b3f 7a04 c13f 19a5 d3bf f023 19c0
00000010: 46ac 93be 0201 9f40 ed44 dc40 09bf 96c0
00000020: 0370 b03f 68a7 bb3f 79d8 5bbe 3cd2 9ac0
00000030: b91d 1540 7a38 4b3f 0062 91ba 112f 0dbe
00000040: e02d 9f3f 41d0 07c0 86b8 edbf 2ecf a6be
00000050: 6462 9c3f d827 f7c0 bc7c 3240 9235 3bbe
00000060: 79da 0441 d9b5 86c1 ee06 45c1 a00c 3abd
00000070: 11b0 0d41 fcff 1040 3966 bdbf c637 1541
00000080: 04f0 bdbf 30f9 8f3d 2b6c 7cbe cf29 1e40
00000090: c3f0 f440 6a96 e340 7f77 d93f 66d0 eebe
000000a0: 95c4 91bf 135a 38c1 9f1e e93f 9634 8e3f
000000b0: baa8 08c0 5053 8d3f 8ecb 0c40 b337 b5c1
000000c0: 53e1 7140 29e6 b53f 1434 c23f 1b24 1a3f
000000d0: 5ef7 36c1 2cee 8bc0 1190 26bf 94fe cd3f
000000e0: e379 873f b184 2b40 f754 0041 1c2c c0bd
000000f0: 9f97 133d d501 993f ff0b 2c40 ec15 863e
00000100: a53e 63be 4258 703f 6fcd 00bf 48d1 893f
00000110: 294b a1bd ea7a 84be 0184 3041 32f1 d340
00000120: 13bb 5c41 ffef c93f 305f a8be 0067 94bc
00000130: be8e 7140 4ca7 ce3d 2532 e2be ce08 f73f
00000140: 2c72 da3d 70f4 b3bf f6a2 2ec0 c6ee 363f
00000150: 28f1 74bd 1344 7dbe 96a6 123e c5e1 aebe
00000160: dd3f ca3f b54a 8d41 70a7 16c0 9c95 40c0
00000170: ee0f 89c1 22c8 5f3f 4504 56be b382 09c0
00000180: 828d f63f 5027 c13f 0e44 6140 f218 e9bf
00000190: 70b1 093e 47c6 1f3f a645 233e 8b6d 53c0
000001a0: be24 1ec1 cac1 04bf 8ef8 40c0 b8da adbd
000001b0: 54ef e9bd bc1f 32c1 c470 febf d117 4c40
000001c0: 45d1 b1bf c50f 073e 8d90 c73f 9c87 eac0
000001d0: 8b42 b4c0 f945 d7bf 83c5 e73f df6a b7c0
000001e0: c0ca cb3c 5469 9abe 2bf8 1a40 9175 0c40
000001f0: 6053 0c40 607b 2bbe 80b3 4bbe 3159 3b41
00000200: f962 54c0 8aeb 1dbf 7689 25be 8c36 b3be
00000210: 7869 26c0 e7c4 1a41 9f78 e43f bfb4 a63e
00000220: 1b3f 0e40 d356 afbe 030f 8e3e 6c26 903d
00000230: 094c e23f ba6a b540 c6ed b4c1 fa45 173e
00000240: cbfc 8a3e 6385 7640 ddce 8f3e dc07 b5bf
00000250: 51e7 2340 cc24 ec3d 060d 783e f3b7 a03e
00000260: e387 43c0 a151 e1bf 29a2 ab3f a8fc f140
00000270: 0c28 0c40 b089 fc3d fda5 2441 6fbd fdbd
00000280: 2a4a 29c1 23ea f1c0 299b 8041 4a06 853f
00000290: 740b 2f40 5069 dac0 570a 65c0 df10 11c0
000002a0: d06a 45c0 439a 9ebe cb60 bb3c 3d66 c13f
000002b0: d8d9 2d40 af95 5e41 c6aa 373e adf9 e540
000002c0: 7f5d 0340 928e 2b3e fc3c a9be eadc 0c40
000002d0: 6b3c c8c0 7b55 383f acb4 7ec0 f05c 99c0
000002e0: 68a9 043e 8681 a440 168c 1e40 c4db b0c0
000002f0: f896 983e 45b3 a7c1 e8c3 b73d b4f8 e7bd
00000300: 2156 b2be d046 4dbf a8e8 15c0 c709 2d41
00000310: 16f2 e2bf 100f ac3f 1284 2fbe 1fb4 97be
00000320: 14bc 5b41 2fc0 953f b6cc b0c0 ba08 53be
00000330: e871 5ebe f15f c6c0 bfd1 633f a0ac 78be
00000340: f472 1840 1d9b cdbb 0f15 1540 7242 8641
00000350: 98e2 c13e 8862 1540 8494 1f41 bfe7 313f
00000360: 19a7 0cc0 42f9 81c1 cd8f 38be f279 babf
00000370: 292b b73a 23d8 44c0 605d b9bf b973 3b3f
00000380: 532f 0ac0 38ed 23c0 df98 a9c1 f04a 5cc0
00000390: a45a f53d d8c2 9b3f 3b8b c93f 75cc abbf
000003a0: 67dd 3040 c6c0 de3e e0a9 17bc 50b1 a0c0
000003b0: 52ec 8d41 3748 8b3e 97bb f73e 00c7 4e3d
000003c0: 3ad6 18c0 3627 80be 70f0 173d 68c5 f43d
000003d0: 5c9c ae40 592b db40 799b d13f 301e f440
000003e0: 0101 ab3e bd30 e140 cbcb 0741 b8e7 01bf
000003f0: 3263 573e a09a c33d 5c05 943f e765 0c40

fc2.weight f4 [256, 256]
-0.5948242 -0.07533972 0.104483284 -0.09217671 0.08744077 -4.729098 -1.5952795 -0.8864575
0.035305373 -0.04438494 -0.08425147 -1.1492947 -0.066905305 -0.874018 -0.07279793 0.07801436
-0.019520937 0.10564516 -0.062229738 0.014020816 0.029545287 0.110504664 0.19819173 0.12620647
0.0052497215 0.07709677 -0.18777384 -0.07618988 0.19290756 -0.088975325 -0.08211027 0.49145097
0.07018245 -0.09925113 0.04633983 -0.67085767 -0.32637334 0.4428751 -0.09576614 0.20839271
-0.07976809 0.029394802 -0.11136737 -0.01886308 -0.08135523 0.064018436 0.12349077 -0.42832187
-0.5384137 -0.062471025 -0.26614937 1.2542002 -0.2895348 -0.080572605 -0.5652386 0.09016646
-0.121333264 0.076264545 -0.24327531 -0.031793542 -0.035190027 -0.07002554 -0.14438695 -0.07204951
0.44193542 0.14495443 0.095312595 0.041702144 -0.42843792 0.040684424 0.03382271 -0.15739982
0.20475394 -0.02900881 0.23621623 -0.08699051 -0.80604243 0.02380757 0.16602223 0.09463052
0.041586854 0.104518466 0.25890642 0.16676645 0.07770694 0.38583207 0.024927823 0.05511756
-0.09732901 0.12740827 0.13119215 0.018916931 -0.31235796 -0.497477 0.09009978 0.22132085
-1.1591939 0.006593636 -0.01459079 0.110104926 0.013722702 -0.0061581396 -0.031343 0.17152765
-0.18301024 -0.4236885 0.3320055 -0.03637316 -0.062119376 0.13304478 -0.014460169 0.17065229
0.117826365 0.02486495 0.020880632 -1.3536512 0.5907962 0.03471769 -0.046206467 -0.028426124
-0.086787775 0.022992583 -0.048032302 -0.11885343 -0.012262164 -0.006572413 0.05200567 -0.9853013
0.17132926 0.10028919 0.039896727 -0.09580426 0.36356154 1.385671 -0.31066304 -0.0460275
-0.8857479 -0.031225363 0.08914024 -0.018655812 0.015819347 0.12567201 -0.1414955 0.04377357
0.05456428 -0.23392904 -0.36899015 -0.443722 -0.084966 0.046931587 -0.060751986 -0.029350227
-0.22303501 -0.055074304 -0.35028702 -0.28273758 -0.12837122 -0.07302557 -0.13009891 -0.07278065
-0.13514248 0.08600237 0.8670171 -0.023535246 -0.13629797 0.31034902 0.1450571 -0.47604927
0.06592551 -0.017436344 -0.03274973 1.2071106 -0.57062685 0.28255007 0.0037364124 -0.037359998
0.12202132 0.053132933 0.063686825 0.038441744 0.5919548 0.028999735 0.09525025 -0.62094945
0.061876595 0.052019205 0.148064 -0.25097018 -0.051581297 0.38637334 0.05321925 -0.007504951
-0.032424275 0.03813465 0.11048317 0.5674518 0.17005289 -0.0967109 -0.09868064 0.00567364
-0.9079887 -1.3892859 0.07562624 -0.02963981 -0.0951156 -0.28219524 0.014538617 -0.043873247
0.16996583 0.46649182 -0.32666543 0.011665597 -1.1565058 -0.88274485 0.022973852 0.05621944
-0.079110384 0.32082346 -0.097548194 -0.8433187 -0.00096826506 -0.6538792 -2.8500724 0.08816858
0.077719085 0.07536489 0.047804903 -0.20231524 -0.041281715 -0.09456621 -0.08689425 0.10470197
0.79557735 -0.17203052 0.03595842 0.81946653 -0.18177286 0.030024903 -0.0010795329 0.037002288
1.359597 0.04565226 -0.04166693 0.14566018 -0.42576486 0.61914515 0.06133394 0.04378811
0.030359099 -0.71287405 -0.35799626 0.2794832 -0.060260683 -0.02799858 -0.115834385 -0.981147
00000000: 6646 18bf b64b 9abd 55fb d53d 25c7 bcbd
00000010: 2514 b33d c554 97c0 1e32 ccbf e1ee 62bf
00000020: 5e9c 103d fccc 35bd 098c acbd 171c 93bf
00000030: a605 89bd a5bf 5fbf 1517 95bd fec5 9f3d
00000040: 5fea 9fbc 7d5c d83d 9ce4 7ebd 91b7 653c
00000050: f508 f23c 4550 e23d c6f2 4a3e 453c 013e
00000060: db05 ac3b e9e4 9d3d c947 40be 7109 9cbd
00000070: 8f89 453e b238 b6bd 6e29 a8bd 769f fb3e
00000080: d1bb 8f3d 2d44 cbbd d5ce 3d3d 54bd 2bbf
00000090: 681a a7be 86c0 e23e 0a21 c4bd e664 553e
000000a0: 745d a3bd 5ecd f03c 9314 e4bd bf86 9abc
000000b0: 929d a6bd 191c 833d bbe8 fc3d 014d dbbe
000000c0: 7bd5 09bf 9ee1 7fbd bb44 88be a289 a03f
000000d0: e83d 94be 4003 a5bd 7ab3 10bf 31a9 b83d
000000e0: 937d f8bd 9630 9c3d 2a1d 79be f239 02bd
000000f0: 6b23 10bd 8d69 8fbd 2cda 13be b28e 93bd
00000100: 5c45 e23e ef6e 143e 4033 c33d decf 2a3d
00000110: 375c dbbe b6a4 263d af89 0a3d 6b2d 21be
00000120: 04ab 513e e2a3 edbc abe2 713e 1528 b2bd
00000130: cc58 4ebf 1808 c33c bb01 2a3e a5cd c13d
00000140: fa56 2a3d c70d d63d 628f 843e d3c4 2a3e
00000150: d124 9f3d c88b c53e 6f35 cc3c f3c2 613d
00000160: 6f54 c7bd 5077 023e 3c57 063e aef7 9a3c
00000170: 62ed 9fbe 4eb5 febe 3c86 b83d efa1 623e
00000180: 7760 94bf 6d0f d83b 350e 6fbc b17e e13d
00000190: 2fd5 603c 38ca c9bb 8461 00bd f2a4 2f3e
000001a0: 0967 3bbe b3ed d8be a0fc a93e 06fc 14bd
000001b0: e370 7ebd e43c 083e 58ea 6cbc 79bf 2e3e
000001c0: f34e f13d 94b1 cb3c dc0d ab3c 7144 adbf
000001d0: 6b3e 173f 2334 0e3d fe42 3dbd e7dd e8bc
000001e0: cabd b1bd f15a bc3c 85bd 44bd 6d69 f3bd
000001f0: 3ee7 48bc 655d d7bb e603 553d b53c 7cbf
00000200: f070 2f3e 6b64 cd3d c06a 233d 0635 c4bd
00000210: bd24 ba3e ab5d b13f 3a0f 9fbe 5587 3cbd
00000220: 60c0 62bf 55cc ffbc 288f b63d 13d4 98bc
00000230: 9397 813c 2ab0 003e 32e4 10be ea4b 333d
00000240: cb7e 5f3d 188b 6fbe 47ec bcbe 882f e3be
00000250: a702 aebd 563b 403d 13d7 78bd e36f f0bc
00000260: 4a63 64be 9895 61bd d258 b3be fbc2 90be
00000270: bf73 03be 6e8e 95bd a638 05be 050e 95bd
00000280: ca62 0abe 0322 b03d d5f4 5d3f fdcc c0bc
00000290: b291 0bbe 11e6 9e3e d989 143e bbbc f3be
000002a0: f403 873d aad6 8ebc 9524 06bd 9a82 9a3f
000002b0: 9a14 12bf 67aa 903e 99de 743b cc06 19bd
000002c0: 50e6 f93d eba1 593d 3d6e 823d 1775 1d3d
000002d0: 5a8a 173f da90 ed3c 9012 c33d 8bf6 1ebf
000002e0: 5072 7d3d 1712 553d 179e 173e 2a7f 80be
000002f0: e946 53bd bad2 c53e 6efc 593d 18ec f5bb
00000300: 51cf 04bd 1433 1c3d 0045 e23d 8544 113f
00000310: 5822 2e3e 5d10 c6bd 1319 cabd f1e9 b93b
00000320: f371 68bf 1fd4 b1bf eee1 9a3d 30cf f2bc
00000330: f8cb c2bd e57b 90be 6133 6e3c 6fb4 33bd
00000340: 860b 2e3e 04d8 ee3e b140 a7be 0f21 3f3c
00000350: 6208 94bf 91fb 61bf a933 bc3c 5b46 663d
00000360: a004 a2bd f942 a43e 59c7 c7bd bce3 57bf
00000370: 2bd3 7dba a164 27bf 9667 36c0 ba91 b43d
00000380: 2f2b 9f3d e858 9a3d 13cf 433d ba2b 4fbe
00000390: 0417 29bd eeab c1bd 9df5 b1bd fd6d d63d
000003a0: f5aa 4b3f c528 30be 2349 133d 8fc8 513f
000003b0: aa22 3abe c9f6 f53c 1d7f 8dba b68f 173d
000003c0: 4607 ae3f ddfd 3a3d f1aa 2abd f127 153e
000003d0: dafd d9be 4c80 1e3f 4c39 7b3d 295b 333d
000003e0: a5b3 f83c ea7e 36bf 494b b7be 6c18 8f3e
000003f0: e8d3 76bd 475d e5bc 943a edbd 732c 7bbf

fc2.bias f4 [256]
-3.6012247 0.093813054 3.6778736 1.8712691 -0.057113245 5.3109055 -0.07896207 -2.793723
2.5753074 3.5685167 -1.5163107 -1.8618686 1.1717728 -0.06414695 -0.03807789 -0.08750686
4.3315706 0.007757167 3.0112586 -0.009509644 3.0586407 -0.0026617658 3.6680818 1.8712074
0.34084123 1.3823845 -0.5235347 -0.5053087 0.02660842 1.8448706 1.5579543 2.2867436
-0.0010664468 -0.10825301 -5.1079607 -2.9287324 6.568503 -1.7927686 -0.8482173 -0.05891302
5.024152 3.9305387 1.910304 2.3127964 -2.4686177 -1.0873575 4.3163595 -2.1287882
-0.05322935 2.0209112 2.127659 -0.4941485 -0.08202746 -0.07345202 -3.3181572 3.0221407
2.8299208 -2.0419183 2.1955938 0.0133686615 -0.113782376 -1.34529 -0.05295458 -3.1291173
1.8856916 1.8747783 4.25885 -0.095710605 2.086593 0.9910074 -1.3939108 -0.024999654
-1.6394668 -1.8402823 -0.044169717 1.5982579 -0.06585133 -3.9084823 1.7866697 1.8002497
-0.014060254 -0.83953345 -0.0690354 -0.27542338 1.7364792 -3.407854 1.7729427 -0.04713115
1.9455538 -0.10697047 -1.7018225 1.489507 -0.52137935 -0.997739 -1.1430585 -1.6102237
-1.2738886 1.0256032 -3.140791 1.9894546 0.009526756 2.2814124 -0.08530567 -2.5181878
-3.314241 -0.052128896 -0.69207335 -0.07894914 4.3315578 -0.008811955 5.401034 5.452098
9.15204 1.6652399 -0.79850745 2.1363518 2.239981 -0.01779749 -1.4785326 2.2454774
3.602682 -0.47101432 1.6213086 1.6772856 1.3182853 -0.0154893445 -0.17694052 -0.43861184
-2.0736103 -1.8756279 -1.9760445 -0.043088675 -0.6288624 -0.74107486 4.5723023 -2.2237241
-0.9997417 -0.07684424 -0.13573332 -0.08308188 0.7098766 -1.7100605 4.3750725 -1.4887183
-1.7794058 1.8436437 3.7309422 -5.0916796 1.6019899 -1.9494271 3.8764148 -0.019897018
-0.8148973 -0.06899658 -3.25367 1.7085584 -0.44682494 -0.06577002 0.8302229 2.1908057
1.6118526 -0.045810644 -1.7435473 -1.224256 2.933077 -0.046917222 1.016982 -4.6735563
0.83346754 0.18209101 2.722395 -1.8224963 -2.6122172 6.215886 1.153324 1.544889
-0.055762716 -1.8593433 1.9435651 -1.013204 0.288801 1.0006028 -0.088113904 4.0467925
1.2756252 0.7725717 2.1601493 -0.06833535 1.1335357 -0.6479505 2.995095 -0.38290966
2.2501156 -0.0105092395 -0.09995303 -0.05546386 3.49368 0.8348622 -2.0714288 -0.035421234
-1.0911201 3.6337848 0.018503048 0.007978492 4.725414 0.82187647 -1.8420707 -2.8494143
1.2207977 -2.4336932 -0.021909883 -1.0183908 -0.023310665 1.3905045 -3.6463268 0.30662245
-0.07079451 -0.09468856 0.0018948654 -1.2768058 3.9718523 0.0048218463 -1.1136268 -0.65279764
-8.007885 0.19096118 -0.06290391 -0.06433343 -2.7581556 1.1900154 -0.045696795 -0.02863392
-0.08115391 -0.0059913443 -2.6753995 -0.07397319 -0.9834226 8.361137 -0.013090214 -0.10231912
-2.2684193 -0.011932788 -0.051708285 0.3727779 7.159838 -2.110034 -1.1407194 1.073462
-0.020693444 4.3008933 0.7547012 0.015875313 -0.051347338 -0.04234468 -1.6759902 -2.4312832
00000000: 777a 66c0 0f21 c03d 4862 6b40 bf85 ef3f
00000010: 94ef 69bd f0f2 a940 deb6 a1bd 5ccc 32c0
00000020: d6d1 2440 9462 6440 7816 c2bf b651 eebf
00000030: a7fc 953f 7a5f 83bd 90f7 1bbd cc36 b3bd
00000040: 3a9c 8a40 d52f fe3b 76b8 4040 56ce 1bbc
00000050: c5c0 4340 0571 2ebb dac1 6a40 b983 ef3f
00000060: be82 ae3e faf1 b03f 5f06 06bf e95b 01bf
00000070: e7f9 d93c b824 ec3f 0c6b c73f 025a 1240
00000080: 04c8 8bba c1b3 ddbd 6a74 a3c0 5a70 3bc0
00000090: 2d31 d240 7179 e5bf c524 59bf c74e 71bd
000000a0: dac5 a040 f28d 7b40 d784 f43f db04 1440
000000b0: d5fd 1dc0 882e 8bbf 9e1f 8a40 113e 08c0
000000c0: 0507 5abd 9c56 0140 912b 0840 0801 fdbe
000000d0: 03fe a7bd 036e 96bd b05c 54c0 c16a 4140
000000e0: 6c1d 3540 caae 02c0 9c84 0c40 3b08 5b3c
000000f0: bc06 e9bd 7632 acbf e7e6 58bd 7543 48c0
00000100: 585e f13f bcf8 ef3f 8048 8840 ec03 c4bd
00000110: bd8a 0540 a9b2 7d3f ab6b b2bf 13cc ccbc
00000120: 0cda d1bf 5f8e ebbf 4eeb 34bd b793 cc3f
00000130: 10dd 86bd 9324 7ac0 98b1 e43f 956e e63f
00000140: fb5c 66bc aaeb 56bf 6f62 8dbd 4b04 8dbe
00000150: f344 de3f 481a 5ac0 c9ef e23f 980c 41bd
00000160: e807 f93f 5513 dbbd 52d5 d9bf 2aa8 be3f
00000170: 1e79 05bf d36b 7fbf be4f 92bf cf1b cebf
00000180: c80e a3bf f746 833f b802 49c0 73a6 fe3f
00000190: 1c16 1c3c a902 1240 bdb4 aebd fd29 21c0
000001a0: 861c 54c0 1c85 55bd b82b 31bf 16b0 a1bd
000001b0: 1f9c 8a40 0560 10bc 45d5 ac40 9677 ae40
000001c0: c16e 1241 9526 d53f fc6a 4cbf fdb9 0840
000001d0: d95b 0f40 0bcc 91bc 8e40 bdbf e7b5 0f40
000001e0: 5892 6640 ca28 f1be 0a87 cf3f 4bb1 d63f
000001f0: 93bd a83f 05c7 7dbc e52f 35be bb91 e0be
00000200: 08b6 04c0 9314 f0bf 07ef fcbf c07d 30bd
00000210: 20fd 20bf 15b7 3dbf 4d50 9240 7f51 0ec0
00000220: 12ef 7fbf 8360 9dbd adfd 0abe d526 aabd
00000230: 79ba 353f 43e3 dabf 9800 8c40 528e bebf
00000240: 92c3 e3bf 84fc eb3f c2c7 6e40 0aef a2c0
00000250: 010e cd3f d486 f9bf 2e17 7840 12ff a2bc
00000260: 1c9d 50bf 144e 8dbd 213c 50c0 0bb2 da3f
00000270: 3dc6 e4be 6fb2 86bd 7d89 543f 2936 0c40
00000280: 3051 ce3f f1a3 3bbd 8f2c dfbf 6cb4 9cbf
00000290: 89b7 3b40 462c 40bd 772c 823f c68d 95c0
000002a0: 215e 553f 1176 3a3e b83b 2e40 8f47 e9bf
000002b0: 912e 27c0 8ae8 c640 1fa0 933f ecbe c53f
000002c0: 7267 64bd f6fe edbf bec6 f83f abb0 81bf
000002d0: badd 933e c113 803f 1075 b4bd 537f 8140
000002e0: b047 a33f 42c7 453f e33f 0a40 67f3 8bbd
000002f0: b317 913f 15e0 25bf a3af 3f40 bc0c c4be
00000300: e501 1040 f22e 2cbc 2db4 ccbd 132e 63bd
00000310: 7498 5f40 87b9 553f 4a92 04c0 db15 11bd
00000320: d3a9 8bbf ee8f 6840 b493 973c 39b8 023c
00000330: 9736 9740 7f66 523f f9c8 ebbf ce5c 36c0
00000340: 1943 9c3f a1c1 1bc0 5b7c b3bc a15a 82bf
00000350: 02f6 bebc 0dfc b13f 6b5d 69c0 9efd 9c3e
00000360: b6fc 90bd 13ec c1bd 225d f83a 5f6e a3bf
00000370: d432 7e40 9400 9e3b 538b 8ebf bf1d 27bf
00000380: 4c20 00c1 548b 433e c4d3 80bd 3fc1 83bd
00000390: 9f85 30c0 6d52 983f 902c 3bbd af91 eabc
000003a0: 0534 a6bd 0a53 c4bb bf39 2bc0 417f 97bd
000003b0: 95c1 7bbf 38c7 0541 5678 56bc b08c d1bd
000003c0: c82d 11c0 be81 43bc 11cc 53bd bfdc be3e
000003d0: 651d e540 cc0a 07c0 1803 92bf 3467 893f
000003e0: 4c85 a9bc eba0 8940 1934 413f f20c 823c
000003f0: 9651 52bd 9d71 2dbd d986 d6bf 259a 1bc0

fc3.weight f4 [1, 256]
-0.7200163 1.4347084 -0.5034989 -0.65979224 0.020078197 -0.6060973 0.0016844016 0.9956961
-0.453738 1.156579 0.3456375 0.041961107 -0.28820926 0.00357188 -0.09790561 0.08580417
-0.39816055 0.105968304 -0.62372893 0.0033272745 0.90531224 -0.03501874 -0.859649 -0.61726314
0.85928524 -0.24235906 1.5570037 0.31181264 0.03040547 -0.84796137 -1.1921766 1.4421775
-0.056766883 0.07938648 -2.0365317 0.2609763 -0.9174022 0.103365034 2.1808867 -0.02361235
-0.35689074 2.42398 2.6732364 -0.6441781 0.34136668 0.3679672 0.42461526 0.12092886
-0.062319193 -0.94261485 1.404149 0.29412967 0.0045037344 0.033444982 0.17283764 -0.634035
-0.3168678 1.8184434 -0.55511945 -0.009286094 0.0033408415 2.0184665 0.003672779 0.26463535
-0.36199117 -0.33442116 -2.1987007 0.03463444 -0.62369 1.8948876 0.11956024 -0.0016050957
0.36798486 0.23774639 -0.008543308 -0.5211303 0.013793165 0.42616653 -0.92315215 -0.33544546
-0.0042232266 -0.91938007 0.0045572566 -2.7433305 -1.102205 0.18011177 -0.6235525 -0.0043221633
-0.22455254 0.07135408 -0.28399727 -1.1728995 1.3297561 -2.0549514 0.2487698 -1.9124352
-0.8945773 -0.6145168 1.8524708 -0.489894 0.10658598 2.2773046 -0.009018758 -1.9040413
-0.9902171 0.05536015 0.25907397 -0.06691155 -0.47390404 -0.01189249 -0.36329684 -1.6367514
-0.73290676 -1.0213476 3.4454517 0.67111653 -1.7675053 -0.05907421 2.8725126 -1.1001118
-0.42696306 1.8703187 -1.1390477 -0.75455284 -0.5376808 1.162579 1.4350075 -0.001061615
1.8945549 -1.6151416 0.13113645 -0.03681035 -2.8942945 0.57571226 -0.39027178 0.84075415
2.9158564 0.075807594 0.8163072 0.006520917 -2.5195525 -0.58679897 0.87309825 -1.6650494
-2.076829 -0.15215749 -0.18804695 -1.7399075 -0.46174142 0.3449197 -0.2824031 -0.00786053
-2.4894261 0.08456043 0.22934678 -0.99759495 -0.28555763 0.008227661 1.3371036 -3.0854475
-0.7289117 -0.006898162 0.23027383 0.25609192 0.34222817 -0.033480916 -0.43327576 -0.58222926
-2.218808 -2.7576082 -0.28301626 0.12438292 0.22145738 -0.4640083 -1.927978 -0.011098758
-0.030934518 0.104340784 -0.57203037 0.370652 1.4750836 -1.433247 -0.046300814 -0.5146914
-0.7046129 -1.4198762 -0.36310026 -0.025459256 0.2617838 0.7093997 -1.0945612 1.2015017
-1.169738 0.0030394017 -0.0030121566 0.00010193319 -0.8989753 -1.5137893 0.40834254 -0.0052650464
0.36330894 -0.24182478 -0.005287759 -0.08738606 -0.4166293 0.46918583 1.1055185 1.1238828
-0.40550995 1.6319467 -0.008446231 1.9849387 0.011606677 -2.0125554 -0.7310711 2.320801
0.072973475 -0.31487438 -0.09345957 2.6207376 -0.32094854 -0.07876787 0.2610952 -0.43827695
-0.7327654 -0.6558248 -0.0049646585 -0.020412453 0.3541164 -2.0123346 -0.06504783 -0.026941447
0.0018942545 -0.0038309994 -0.36072385 0.089165196 -3.397628 -0.60634506 -0.06370758 0.0020674232
0.17934465 -0.08613641 0.21744783 -1.2391281 -0.50940716 0.35125023 0.23521908 -0.31807154
-0.011186354 -0.5815563 -0.81102616 -0.0609387 0.3366622 0.0072192475 0.31446865 0.28184426
00000000: fd52 38bf 86a4 b73f 4ee5 00bf 25e8 28bf
00000010: 087b a43c 3129 1bbf 24c7 dc3a f1e5 7e3f
00000020: 5950 e8be c80a 943f 66f7 b03e 69df 2b3d
00000030: 2a90 93be 3416 6a3b bd82 c8bd 19ba af3d
00000040: b3db cbbe e905 d93d b3ac 1fbf 670e 5a3b
00000050: 8bc2 673f cf6f 0fbd f511 5cbf f504 1ebf
00000060: 1efa 5b3f f92c 78be e64b c73f e8a5 9f3e
00000070: e414 f93c ff13 59bf 3e99 98bf 4699 b83f
00000080: 6484 68bd 6195 a23d 8956 02c0 b09e 853e
00000090: dfda 6abf 0cb1 d33d a693 0b40 b06e c1bc
000000a0: 62ba b6be 7d22 1b40 4e16 2b40 dbe8 24bf
000000b0: 9dc7 ae3e 3266 bc3e 2c67 d93e 8da9 f73d
000000c0: 6942 7fbd 354f 71bf 28bb b33f 2a98 963e
000000d0: 1094 933b 9bfd 083d 5afc 303e 1e50 22bf
000000e0: 7f3c a2be c1c2 e83f 4f1c 0ebf b424 18bc
000000f0: 05f2 5a3b 8e2e 0140 02b3 703b 497e 873e
00000100: e856 b9be 4039 abbe 83b7 0cc0 d8dc 0d3d
00000110: 26aa 1fbf ad8b f23f 00dc f43d 1362 d2ba
00000120: 8368 bc3e ca73 733e 3bf9 0bbc cc68 05bf
00000130: bafc 613c 8032 da3e b353 6cbf 82bf abbe
00000140: fe62 8abb 7e5c 6bbf 0a55 953b ba92 2fc0
00000150: 0e15 8dbf 386f 383e 23a1 1fbf efa0 8dbb
00000160: 1af1 65be 1722 923d 1768 91be 9221 96bf
00000170: 7335 aa3f 5384 03c0 83bd 7e3e adca f4bf
00000180: 0503 65bf f950 1dbf c31d ed3f 63d3 fabe
00000190: c049 da3d 5cbf 1140 6ac3 13bc a0b7 f3bf
000001a0: de7e 7dbf 53c1 623d 58a5 843e ec08 89bd
000001b0: 8da3 f2be b8d8 42bc 0b02 babe 1281 d1bf
000001c0: c79f 3bbf 85bb 82bf 4882 5c40 4bce 2b3f
000001d0: 9d3d e2bf ccf7 71bd 3fd7 3740 77d0 8cbf
000001e0: e79a dabe 9a66 ef3f 51cc 91bf 602a 41bf
000001f0: 73a5 09bf 64cf 943f 53ae b73f e325 8bba
00000200: c680 f23f f6bc cebf a248 063e 73c6 16bd
00000210: 1f3c 39c0 e161 133f b4d1 c7be aa3b 573f
00000220: 649d 3a40 0341 9b3d 82f9 503f 6bad d53b
00000230: 5940 21c0 7538 16bf 5e83 5f3f 5720 d5bf
00000240: c4ea 04c0 2ccf 1bbe 618f 40be 4ab5 debf
00000250: 5f69 ecbe 5199 b03e 2497 90be 74c9 00bc
00000260: c252 1fc0 052e ad3d e2d9 6a3e 6262 7fbf
00000270: 9c34 92be 50cd 063c 3626 ab3f f977 45c0
00000280: f599 3abf fa09 e2bb e7cc 6b3e 7b1e 833e
00000290: 8838 af3e 4923 09bd 52d6 ddbe fa0c 15bf
000002a0: f300 0ec0 a77c 30c0 82e7 90be 79bc fe3d
000002b0: b9c5 623e 7f92 edbe fcc7 f6bf 91d7 35bc
000002c0: 636a fdbc 9fb0 d53d 9570 12bf 19c6 bd3e
000002d0: 8acf bc3f a374 b7bf eca5 3dbd d1c2 03bf
000002e0: 8361 34bf 81be b5bf 47e8 b9be ee8f d0bc
000002f0: 8708 863e 389b 353f 951a 8cbf cfca 993f
00000300: fab9 95bf b330 473b 9a67 45bb f7c4 d538
00000310: 3f23 66bf d9c3 c1bf 4612 d13e 6986 acbb
00000320: a103 ba3e eaa0 77be f044 adbb 76f7 b2bd
00000330: 7050 d5be 2039 f03e a181 8d3f 64db 8f3f
00000340: 009f cfbe a1e3 d03f 0f62 0abc 7912 fe3f
00000350: ef29 3e3c b5cd 00c0 7a27 3bbf 0188 1440
00000360: 1e73 953d 3737 a1be bb67 bfbd 2aba 2740
00000370: 5e53 a4be 0d51 a1bd 45ae 853e d665 e0be
00000380: 8396 3bbf 22e4 27bf 93ae a2bb 0438 a7bc
00000390: bf4e b53e 17ca 00c0 cc37 85bd 4fb4 dcbc
000003a0: a248 f83a 8111 7bbb ccb0 b8be 3e9c b63d
000003b0: bd72 59c0 6e39 1bbf 1f79 82bd 9b7d 073b
000003c0: 20a6 373e 4968 b0bd a5aa 5e3e c09b 9ebf
000003d0: 8268 02bf 12d7 b33e 45dd 703e 46da a2be
000003e0: f846 37bc e0e0 14bf 699f 4fbf dc9a 79bd
000003f0: fd5e ac3e 708f ec3b 0902 a13e e44d 903e
