model/sac_mha_sac_ff/agent2_sac_ff_q1_1000000.pth (torch, 275871 bytes, 5 tensors)

fc1.weight f4 [256, 8]
000000 6d 03 05 c0 3f a0 3c c1 79 fc 64 bc 2f b7 37 3f
       -2.078334 -11.789123 -0.01397621 0.7176389
000010 aa f8 87 bf 57 10 55 3c 7a 89 a2 3c 1f f6 04 c0
       -1.0622761 0.013004384 0.019840945 -2.077522
000020 81 fb 2d bf 7b cf 89 be d3 4a ca 3b 07 8e 01 3f
       -0.6796189 -0.26916108 0.0061734705 0.5060734
000030 ee 92 8f bd 91 53 ba 3c a0 65 f8 bf e1 59 d7 be
       -0.070104465 0.022744926 -1.9406013 -0.4206076
000040 b0 23 7b bd 30 6f a9 3d 61 4f c8 bd 70 92 01 3e
       -0.06131333 0.082731605 -0.09780765 0.12653518
000050 2a d4 17 3d 0e 27 46 bd 0b ee ba 3d cf 06 f3 3d
       0.03706757 -0.04837709 0.09127434 0.11866533
000060 5e a4 bd 3f d0 a2 73 3d 07 27 1d bd fe f4 2f be
       1.4815786 0.059481442 -0.038367298 -0.17183301
000070 94 53 0d be d8 23 6f bd fe 9b b3 bd bd 9e 01 3f
       -0.13801414 -0.058383793 -0.087699875 0.5063284
000080 22 06 f6 be 27 f6 fd be 9b e2 3f 3e 8c 67 b5 bf
       -0.48051554 -0.49601862 0.18738787 -1.4172225
000090 9e 1b e2 bf c9 1f 25 bf 7c 4d 88 3d 46 d8 90 c0
       -1.7664678 -0.64501625 0.06655404 -4.5264006
0000a0 01 af f0 c0 34 ac cc be 17 9d cb bc a0 54 48 3f
       -7.521363 -0.3997513 -0.02485518 0.7825413
0000b0 19 4f 97 3f b0 57 1a bb ac c9 af b9 7a c5 e4 3f
       1.1821014 -0.00235508 -0.00033528858 1.7872765
0000c0 9e f1 f4 3d 27 84 fa bf e0 7c 18 3d 0c 1c 81 bf
       0.11960147 -1.957158 0.037228465 -1.0086684
0000d0 bd cf 47 bf 28 90 56 3d 1c c3 ca bd 00 48 cd 3e
       -0.7805136 0.052383572 -0.099004954 0.40093994
0000e0 f8 9f e3 be fb b6 ab bb 32 95 62 bc ab 29 35 be
       -0.44457984 -0.005240319 -0.013829516 -0.17691676
0000f0 ff 40 64 bd 80 6c 3c b9 07 1c 0a 3c ba 3c 96 3e
       -0.055726048 -0.00017969497 0.008429534 0.29343206
000100 32 dc 1d bf 95 7a cd bd c9 1f 25 3c 41 e5 c8 3d
       -0.61664116 -0.10033146 0.010078379 0.09809352
000110 26 9f 5a bd 3a c1 00 be 24 ae 81 bd d1 85 2c bf
       -0.053374432 -0.1257371 -0.06332043 -0.6739169
000120 b0 60 ae bd 0b be 3b be ee 52 c4 bc f3 2e 83 3e
       -0.085145354 -0.18334214 -0.023965325 0.25621757
000130 12 8b 4b bc f5 04 46 bd ed ff 3d be 4a 42 67 3f
       -0.012423294 -0.04834457 -0.18554659 0.90335524
000140 bb e3 aa 3d 1e 79 07 be ec 36 05 be be ce 8a 3d
       0.083442174 -0.13229796 -0.13009232 0.06777714
000150 e2 39 e9 bd 9d 69 22 bd 35 93 1f bd 2c a3 d1 3d
       -0.113879934 -0.039651502 -0.038958747 0.10236201
000160 40 a4 49 3d e2 0a b1 3d 16 4e c5 ba 7c 03 6d bd
       0.049228907 0.08644654 -0.0015053179 -0.05786465
000170 47 aa 2a 3d c5 1a c2 bd 0d 67 8a 3c b8 39 cc 3d
       0.041666295 -0.09477762 0.016894842 0.099719465
000180 da 15 dd bd 1a aa 07 be ac 41 00 be ce 98 0d 3d
       -0.107951835 -0.13248482 -0.12525052 0.034569554
000190 20 f4 03 bc 9e d3 61 bd ee 0b da bd 9a 18 ba bc
       -0.008053809 -0.055133455 -0.10646807 -0.022716809
0001a0 1a 9a 58 bf d3 02 80 be ef b1 b5 bb ed a4 8f bc
       -0.8461014 -0.25002155 -0.005544893 -0.017534697
0001b0 85 18 3b be c3 d8 d2 bc b5 6d 94 3d c8 76 38 bf
       -0.18271072 -0.025738126 0.072474875 -0.72056246
0001c0 ae cb 8f bf 57 2c ca bd db 8a a0 3b 3b 3a 9d 3e
       -1.1234033 -0.098717384 0.0048993654 0.3070849
0001d0 08 a9 90 3e 7b 15 43 be 3c 7b 49 be 12 37 07 bf
       0.2825396 -0.19051163 -0.19675916 -0.52818406
0001e0 8b 43 7a bd 50 da 15 3e c7 79 63 bd 09 8c 02 bd
       -0.06109957 0.14634061 -0.055536058 -0.03187183
0001f0 e7 3a e4 bd de 5a 2b bd c3 37 82 3d 33 e3 23 bd
       -0.11144047 -0.041834705 0.06358292 -0.040011596
000200 8d c8 9b 3f e6 06 95 3f a1 c2 57 38 54 f9 0f bf
       1.2170578 1.164273 5.1441257e-05 -0.5623982
000210 54 6e 83 bf af 8c a0 bc 2e d4 84 bd 3a f6 c4 3f
       -1.0268044 -0.019598333 -0.064857826 1.5387642
000220 6d fd 71 bc 03 a4 7b 3b 5c 21 5d 3c bf 60 55 bd
       -0.014769894 0.003839732 0.013496723 -0.052094217
000230 76 6a d8 bd 46 3b f9 bd 57 95 d8 bd 65 8e 84 3d
       -0.10567181 -0.12169509 -0.10575359 0.06472472
000240 13 9b 69 3f fd 2a 9e bc f9 9f 95 bc 77 94 66 be
       0.9125225 -0.019307608 -0.018264757 -0.22517572
000250 7a ee 78 3d 10 90 34 bd 6f 25 39 3d b4 9b 3b bf
       0.060774304 -0.0440827 0.045201715 -0.7328446
000260 16 cf 49 c0 70 f0 9e 3d 25 2a 6f 3d d6 03 a9 bf
       -3.1532645 0.077607036 0.0583898 -1.3204296
000270 ff df 1b 3f 69 10 a5 b9 52 94 05 bd ee 40 03 40
       0.60888666 -0.0003148348 -0.032612152 2.050838
000280 5a 8c f2 c0 53 47 15 bf d2 8f aa 3c 6b 20 cc 3e
       -7.5796328 -0.5831196 0.020820532 0.39868483
000290 32 c3 5f 3f 9d d5 a2 36 77 df 9a bc 62 65 16 3f
       0.8740722 4.852844e-06 -0.018905384 0.5874845
0002a0 2a 63 e3 c0 4e 70 d1 c0 c1 01 f8 bf b5 1e c6 3f
       -7.105855 -6.544959 -1.9375535 1.5478121
0002b0 27 db 41 3f 2a 1f c4 3a 5f c3 4c 3d 6a 36 11 40
       0.75725025 0.0014962901 0.049991008 2.2689462
0002c0 17 ac 48 3f d9 c7 31 be 48 bf e4 bb 0b 47 8f 3d
       0.7838759 -0.17361392 -0.0069808103 0.06995972
0002d0 58 b7 0a 3c 9a 3b 21 bd 7b 5b 1d bd 0e 76 0e bf
       0.008466564 -0.03936348 -0.03841732 -0.5564889
0002e0 eb 6d ca 3f df 9b b5 be 97 7d 5e bb 23 b5 90 3f
       1.5814794 -0.35470483 -0.003394937 1.1305279
0002f0 cd a2 fe bc 98 b0 4a bc 80 35 e5 3d 8e ed 62 c0
       -0.031083489 -0.012371205 0.11191845 -3.5457492
000300 43 43 5a c0 a9 95 fe bf 09 10 03 c0 ff 07 e5 bd
       -3.4103553 -1.9889423 -2.0478537 -0.11183166
000310 6a 49 4d c0 22 f6 86 3d b6 be 35 bd 23 36 e0 bf
       -3.2076058 0.06589915 -0.04437133 -1.7516521
000320 1b 2f 06 c0 76 56 8b 3e db 6d 48 bc 03 80 07 be
       -2.096625 0.27214402 -0.012233223 -0.13232426
000330 14 c1 35 3e a1 f6 05 bb 6c bb 39 3d ba 0b e1 3f
       0.17749435 -0.0020441192 0.045344755 1.7581704
000340 b4 b2 0b c0 68 9e 66 40 46 a4 cd be 4d 52 c6 3f
       -2.1827822 3.6034184 -0.40164393 1.5493866
000350 e5 83 da 3e 29 da c0 3a 6b 11 37 bc 5f ce 1a 3f
       0.42678753 0.0014713454 -0.011173586 0.6047115
000360 d3 bc 6d c0 8c 4d e0 3f c4 3f df bd f9 e3 e9 3f
       -3.71465 1.7523665 -0.10900834 1.8272697
000370 c3 98 a7 bf 07 42 36 bb f6 a7 86 bc fd 96 34 bd
       -1.3093494 -0.0027810351 -0.016437512 -0.044089306
000380 db 13 8d bd 09 cf fd 3d 57 cd 3a bd 7c f6 d5 bd
       -0.06888553 0.123930044 -0.045605984 -0.10447404
000390 98 51 ce bd 96 11 f8 bd 46 45 9a 3d 9a 3b 46 bd
       -0.100741565 -0.12112729 0.07532744 -0.048396684
0003a0 85 b9 57 bf a6 7d cc bc d0 83 24 3a 95 d6 22 3b
       -0.84267455 -0.024962258 0.0006275745 0.002484714
0003b0 b1 93 18 be 53 04 c5 bc 4a e3 3c 3d b3 3f 88 bf
       -0.1490009 -0.024049914 0.046115197 -1.064444
0003c0 9f 02 45 c0 99 20 e0 3e d0 15 d7 3c f9 ee 89 be
       -3.078285 0.4377487 0.026255518 -0.26940134
0003d0 48 b7 18 be 41 e1 ad bc 76 0b 52 3b 5f c3 0d 3f
       -0.14913666 -0.021225573 0.0032050288 0.5537624
0003e0 1f 21 bc 3f 26 71 fb be ad da 8c 3d bb 53 3c 3d
       1.4697608 -0.49109763 0.068776466 0.04597829
0003f0 48 09 19 bf eb 6d fe bb 2d a3 a5 3d 83 7a d9 40
       -0.5977979 -0.007764568 0.08087764 6.796205

fc1.bias f4 [256]
000000 87 42 41 41 e5 7d 16 3f 22 61 dc bd 25 a2 e9 bf
       12.078742 0.5878585 -0.10760714 -1.8252608
000010 80 da e8 bd a3 c3 99 c0 69 6e 00 40 af 53 1a 40
       -0.113698006 -4.8051314 2.006739 2.4113576
000020 5b 13 d3 3f 69 21 f5 be 15 92 92 3e 38 d2 93 be
       1.6490282 -0.47877052 0.28627077 -0.28871322
000030 98 a2 8d bd 73 c3 e7 3f 0a 56 46 bf 69 9d 8c 3e
       -0.06915778 1.8106521 -0.77475035 0.27463844
000040 ea 46 0c c1 d7 52 a6 3e 6a 04 0c c0 dd af bd 40
       -8.767313 0.32485077 -2.1877694 5.9277177
000050 b0 b6 28 c1 28 e0 83 bf cd 5a 51 c0 d8 11 80 c1
       -10.544601 -1.0302782 -3.271167 -16.008713
000060 aa 14 8f 40 74 cb b4 41 c1 ad ff c0 20 3d 85 40
       4.4712725 22.599342 -7.98996 4.1637115
000070 c9 59 83 3e c1 1e 6d 3e 5f 48 b9 40 f0 de 07 c1
       0.25654438 0.23156263 5.7900844 -8.491928
000080 38 85 1a bd 23 1f fe 3f 00 d0 0c bd 98 5a c9 3f
       -0.037724704 1.9853252 -0.03437805 1.5730772
000090 7f 53 85 3f d8 a6 32 40 7c 75 0f 3f b2 8f 59 40
       1.0416106 2.7914333 0.5603864 3.3993955
0000a0 69 43 b4 c1 c9 a9 09 41 e1 26 69 3e 5a d6 b8 3f
       -22.532915 8.603951 0.22768737 1.4440415
0000b0 50 71 61 be 4a 3e f8 be f7 3b 8b 3e de bf 84 c0
       -0.22015882 -0.48485023 0.27194187 -4.1484213
0000c0 89 22 19 40 e2 e2 14 c1 12 90 87 bf 9c 05 33 c0
       2.3927329 -9.305391 -1.0590842 -2.7972174
0000d0 b4 92 d1 3f 1d ee db c0 d4 2e 07 3f c0 99 8f 3c
       1.6372895 -6.8728166 0.5280583 0.017529368
0000e0 55 93 08 41 51 26 0b c0 92 6e 80 41 44 03 64 be
       8.53597 -2.1742136 16.05399 -0.2226687
0000f0 ed cf 01 40 12 a8 79 40 90 57 b4 be 78 ce ee 3d
       2.0283158 3.9008832 -0.35223055 0.116604745
000100 34 de 33 40 d5 87 af 3e f9 2e f1 c0 ef ce 23 40
       2.8104372 0.3428332 -7.536984 2.5595052
000110 52 0c 8d 3f cd 5d 13 40 54 99 ac be 8b ca 8c 3f
       1.1019385 2.3026001 -0.3371073 1.0999311
000120 0a 63 df 3f 0f fe 9e 40 96 b4 88 be 9a 33 c8 40
       1.7452099 4.968513 -0.26700276 6.256299
000130 33 a1 4a 40 aa ed e9 bf 78 3a 8a 41 22 fe 35 40
       3.1660888 -1.8275654 17.27855 2.843636
000140 04 71 45 3f 12 53 cc 3e fa 95 2f 3d 64 6d 1e 40
       0.77125573 0.39907128 0.04286764 2.4754267
000150 e3 61 1a 40 45 ad b0 3f 81 86 eb 3f f2 85 44 40
       2.4122245 1.3802878 1.8400422 3.0706754
000160 48 9e e2 3f 78 77 d7 40 6d b5 11 be 40 85 ea 3b
       1.7704554 6.7333336 -0.14229365 0.007156998
000170 5c c8 08 be 90 c3 dd 3d f1 54 06 41 7e ce 6a 3e
       -0.13357681 0.10828316 8.395738 0.22930333
000180 66 28 4a 3e 4f 64 0d 3e dd bc 65 3e ad 8c 3e 40
       0.19741973 0.13807796 0.22435327 2.9773362
000190 3e 50 d6 be fe 81 b4 be da a7 11 41 cf 8e 01 c1
       -0.41858095 -0.35255426 9.103479 -8.097365
0001a0 75 c3 79 be f8 52 87 c1 a3 fc 19 40 86 34 79 3e
       -0.24390967 -16.915512 2.4060447 0.24336442
0001b0 11 d0 52 3f 09 9c 34 40 70 3c aa 40 ce e2 cf bf
       0.82348734 2.8220236 5.3198776 -1.624109
0001c0 af 38 47 c0 ab a1 71 c0 14 82 13 c1 12 cf 77 c0
       -3.1128347 -3.7754924 -9.219257 -3.8720136
0001d0 c2 38 65 3f 2e 92 8f 40 35 92 d1 3f 59 50 ba bf
       0.8953973 4.486594 1.6372744 -1.455577
0001e0 08 d9 09 c0 56 0b 05 41 d1 8f 07 c0 c7 b6 01 3f
       -2.1538715 8.315268 -2.1181529 0.5066952
0001f0 7d 20 5c 3f df 34 d2 40 97 99 10 3f fd 09 1b c0
       0.85987073 6.568954 0.5648436 -2.4224846
000200 9b 2a b3 c0 39 f8 7f bf 99 0f 9d 3e 1a b0 14 40
       -5.598951 -0.9998813 0.30675963 2.3232484
000210 5e 72 e3 bf 34 8e 01 3f 43 9a 87 3d 88 43 1a c0
       -1.7769277 0.5060761 0.0662122 -2.4103718
000220 8a cc 3c 3e 2f 72 1b 40 6f 3f bd 3f ce d1 5d 3e
       0.184374 2.4288442 1.4784983 0.21662065
000230 5d 09 39 3e d8 80 8b bf dd a7 67 be 93 d2 3b bf
       0.18069978 -1.0898695 -0.22622629 -0.73368186
000240 2b 08 9e be e6 42 b0 be ea b0 37 3e b4 f4 b6 bd
       -0.30865607 -0.3442604 0.17938581 -0.08933392
000250 52 08 c6 40 93 42 bf bf 22 5f ec bf 8b 1c 51 40
       6.1885157 -1.4942192 -1.8466532 3.2673671
000260 6a f1 02 41 2c 0d 78 41 6e 2b 14 be 06 85 f2 c0
       8.183939 15.503216 -0.14469692 -7.578738
000270 87 8e 90 bf cc c6 40 bf 62 08 cd bf db 71 61 3f
       -1.1293496 -0.7530334 -1.6018183 0.88064355
000280 e3 d1 56 41 77 e5 4c bf 1b 85 67 be ff 17 01 c1
       13.426242 -0.80037636 -0.2260937 -8.068358
000290 35 47 44 40 98 c4 f8 bf 82 2d 11 3e d5 03 08 40
       3.0668461 -1.9434996 0.14177516 2.125234
0002a0 0b 80 28 3f b1 8b f4 bf c2 d6 d8 c0 56 18 8c c1
       0.6582038 -1.910513 -6.7762156 -17.511883
0002b0 67 a2 98 3f 4a cb aa c0 7b 08 05 c0 8d 07 05 3f
       1.1924561 -5.3373156 -2.0786426 0.51964647
0002c0 3c 52 a7 bd a1 00 61 be 62 8e d5 bd b2 75 fb bf
       -0.08169982 -0.21972896 -0.10427548 -1.9645293
0002d0 1c e7 c1 3f 7d cd 33 c0 c5 82 a9 c1 75 1e 0e bf
       1.5148654 -2.809417 -21.188852 -0.55515224
0002e0 2d 6c 4d 40 10 6b 29 3d 39 3c fe 40 31 6c 0c 3f
       3.2097275 0.04136187 7.9448514 0.54852587
0002f0 e0 aa 4b bd 8a db 6c 40 ea 10 0d c0 fc 6b bd 40
       -0.049723506 3.7008996 -2.2041574 5.9194317
000300 cc 1f a4 bd 22 41 fb 3f 8d 04 44 3f 20 65 16 c0
       -0.08013877 1.9629252 0.76569444 -2.3499222
000310 8c 94 e6 bd e7 a3 94 bf e8 63 93 40 1a f5 50 3e
       -0.11258802 -1.1612519 4.6059456 0.20405999
000320 29 f6 c8 bf 0c 16 81 41 e3 36 81 c1 af 13 0d c0
       -1.5700122 16.135765 -16.1518 -2.2043264
000330 a8 83 2c be ee 77 0d be d4 e4 60 3f 20 cd 93 be
       -0.16847098 -0.13815281 0.87849164 -0.28867435
000340 8d f9 2e 3d 16 c8 5f 3f d9 84 eb bf 66 05 3e 40
       0.04271846 0.8741468 -1.8399917 2.9690795
000350 2a 3a 62 c0 5b 40 65 be 3f db 5e 40 e1 39 13 41
       -3.5348 -0.22387831 3.4821317 9.201631
000360 4e 4f 14 c0 1a ad f8 3f 6c 00 2e c0 61 0d 8b bf
       -2.3173404 1.9427826 -2.7187757 -1.0863458
000370 ff 8b 25 3e b3 5b 22 c0 29 46 24 3f a1 72 21 40
       0.16166686 -2.5368469 0.64169556 2.5226214
000380 25 a6 49 3e f0 d7 62 3e f9 0f a9 3e 14 ff 87 bf
       0.19692285 0.22152686 0.3302 -1.0624719
000390 61 f6 30 c0 76 20 11 c0 78 68 99 40 2a cc f6 bd
       -2.7650378 -2.2676063 4.7940025 -0.1205066
0003a0 2e 11 e8 be c6 f1 31 3e a8 a8 87 40 5b 22 99 3e
       -0.45325607 0.17377385 4.239338 0.29909024
0003b0 bc 89 fd c0 cc 7f f8 3e 45 88 a3 3f d2 7c 7a 3e
       -7.9230633 0.48535 1.2775961 0.24461678
0003c0 d9 9e 7d 40 40 86 84 be 49 36 94 be 87 48 ba bf
       3.9628203 -0.25883675 -0.28947666 -1.4553384
0003d0 d2 10 7a 3f b2 99 16 3e e1 23 0c 3f ba a9 d2 bd
       0.97681916 0.14707068 0.54742247 -0.10286279
0003e0 45 8b 37 c0 89 1c c3 bf db 4c a7 40 ed 3d ae be
       -2.8678753 -1.5243083 5.228132 -0.3403162
0003f0 15 bc 12 3e 4b ed e4 c0 84 03 93 3f ac 49 0e 40
       0.1432956 -7.1539664 1.1485448 2.2232466

fc2.weight f4 [256, 256]
000000 f6 e9 a7 3e e9 bb df be 0b 40 dd bc 82 e9 09 3e
       0.32795686 -0.43698052 -0.027008077 0.13467982
000010 2d 68 37 bd 70 cc 6f be 3d d9 b7 bd 1c ad b3 3d
       -0.044777084 -0.2341783 -0.08976982 0.08773252
000020 b8 57 d8 bd c6 f3 35 3d 5a ce ce 3d 66 1d 61 bd
       -0.10563606 0.044421934 0.10097952 -0.054959677
000030 37 c1 59 bd 71 88 9a bd 78 74 d1 3d a9 fb c4 bd
       -0.05316278 -0.075455554 0.10227293 -0.09618313
000040 fd e2 a1 bd b0 4a 12 bd d0 c1 2a 3c da 56 ea bd
       -0.07904623 -0.03571576 0.010422185 -0.11442347
000050 06 fc 25 3e b9 bf 0a 3e 66 26 0b 3e 95 78 99 be
       0.1620942 0.13549699 0.13588867 -0.2997481
000060 13 d4 ea bd af 95 66 3e 61 06 50 be c8 e6 ad 3e
       -0.11466231 0.22518037 -0.20314933 0.33965135
000070 f9 07 fc ba 28 52 dd 3d c5 ef 1d be 30 1c e0 be
       -0.001922845 0.10806686 -0.15423496 -0.43771505
000080 22 3f b0 bd e9 42 2a bf ec a4 bf 3d 94 ac 64 3c
       -0.08605792 -0.66508347 0.09357628 0.013957161
000090 9e 54 06 bd 9e d7 c1 be 76 8f 47 bc 15 4e 11 bd
       -0.03279554 -0.37859815 -0.0121802 -0.035474855
0000a0 9e d7 39 be e9 19 22 be f0 b3 e5 bd d9 a2 a1 bd
       -0.18148658 -0.15830196 -0.11215961 -0.07892389
0000b0 df 02 c2 bd 5b 80 a7 3c 04 6a 8b bc c9 27 20 3d
       -0.09473204 0.020446947 -0.017018326 0.039100442
0000c0 44 09 19 bd bb 21 14 bb d4 c1 4f bb 3f 52 ec 3d
       -0.037362352 -0.0022603113 -0.0031701224 0.11539125
0000d0 ea 3e ab bd a2 c3 8b be 09 b8 54 bd 1a 4c 1e 3d
       -0.08361609 -0.27297693 -0.051933322 0.038646795
0000e0 ca 98 48 be a3 7b d4 3d 54 40 94 bf fa 07 75 bc
       -0.19589534 0.10375144 -1.1582131 -0.014955515
0000f0 f4 44 01 be 63 4f ca bd 35 e2 cf 3c 92 54 06 3c
       -0.1262396 -0.09878423 0.025376419 0.008198874
000100 29 ca 12 3d b9 a4 2e bd 65 6d 78 be 0a c4 dc bd
       0.035837326 -0.04263756 -0.2426048 -0.10779579
000110 31 39 34 be 72 6f 39 be 3c e3 8f bd 70 49 d5 bc
       -0.17599942 -0.1810892 -0.070257634 -0.026035994
000120 4c 9d ce 3c 73 2e 6c be 69 48 a4 bd 93 0c 3b 3d
       0.02522149 -0.23064594 -0.08021624 0.04566629
000130 9d 14 4c bd 84 b5 ed 3d 17 5e 67 bf 26 d9 40 be
       -0.049824346 0.11606887 -0.90377945 -0.18832836
000140 24 26 c7 be 02 3b 12 bd e0 81 f7 bc 57 b6 51 bd
       -0.38896286 -0.035700805 -0.030213296 -0.051199283
000150 42 65 be bd f7 fa 04 3d 8d 0a 90 be 14 97 c2 bd
       -0.09296657 0.0324659 -0.2813305 -0.09501472
000160 16 ee c8 3d b6 4b 9e 3e 3b f2 94 bd 2c 07 b7 3d
       0.09811036 0.30917138 -0.07272764 0.08936915
000170 bc ac df 3b b0 20 89 bd 01 58 8a be 3a 18 9a 3d
       0.0068260115 -0.06695688 -0.27020267 0.07524152
000180 ba 2d 8f bd 7e 45 9a 3e e5 77 c8 bc d8 27 6b be
       -0.069911435 0.30131143 -0.024471233 -0.22964418
000190 d0 b0 44 3f 4e a2 7a be aa 36 46 3c 7a 83 f6 bd
       0.76832294 -0.24475977 0.012097994 -0.12036796
0001a0 2f 72 fc bc 57 93 03 be 50 bf 40 bf 64 a6 13 bd
       -0.030816166 -0.12849174 -0.7529192 -0.036047354
0001b0 52 1b ac bd 84 c3 06 3d 10 4b 0d bf 31 c2 d7 3d
       -0.084036484 0.032901302 -0.5519266 0.10535086
0001c0 ce 75 d5 38 87 af a7 3e 7f 39 b1 bd a4 a4 b4 3c
       0.00010178574 0.32751104 -0.08653545 0.022051163
0001d0 b0 7a 8b bd 31 87 a4 be e1 de af bd 08 41 9f 3d
       -0.0681051 -0.32134393 -0.08587433 0.077760756
0001e0 ea 0a 22 3e 81 30 8b be 3d 5c d3 3d 16 cd b8 be
       0.15824476 -0.27185443 0.103203274 -0.36093968
0001f0 1a 0e 7f bc 64 01 b5 bd 33 71 65 3d 43 e1 cc 3d
       -0.015567327 -0.08838156 0.05601616 0.10003903
000200 4d 6b aa be 84 35 66 3d 28 ab a5 bb 42 25 9e bc
       -0.3328499 0.05620338 -0.005055804 -0.019304875
000210 48 53 25 3d 48 bb b2 bd fb d9 82 3c a3 14 0f 3d
       0.040362626 -0.08727127 0.015973082 0.03493179
000220 bb 70 da bd 44 dc 9e 3d 68 e4 59 bd 20 81 90 3d
       -0.10666033 0.07756856 -0.05319634 0.07055879
000230 39 31 32 3d 47 50 a1 3d 44 20 a9 bd 22 89 9e bf
       0.043503974 0.0787664 -0.08258107 -1.23856
000240 ee 89 33 bd b4 48 13 3d 5c e7 13 3d ba 07 d7 3d
       -0.043832712 0.035958007 0.036109313 0.104995206
000250 69 2d a0 be 86 f1 c0 bb f6 5d a0 3d 26 c2 19 bf
       -0.31284645 -0.005888167 0.078304216 -0.6006187
000260 ca f6 00 bf 25 42 ac be f7 49 c0 bb f7 27 06 3f
       -0.5037657 -0.33644214 -0.0058681923 0.5240473
000270 81 fe 83 3d b8 79 99 be 23 0d 24 3e 2b 24 1e bf
       0.06445027 -0.29975677 0.16020636 -0.6177394
000280 81 1f e9 bd b7 01 89 3c 02 af 50 3d 11 e6 4c bd
       -0.11382962 0.01672445 0.05094815 -0.050024096
000290 de c7 b2 bd dc dd 1d bd e9 30 e9 3d 85 38 b1 bc
       -0.08729528 -0.03854166 0.11386282 -0.021633396
0002a0 f6 94 6e be 9f 21 17 3e 32 bd 87 3d d5 67 51 bf
       -0.23299012 0.14758919 0.06627883 -0.8179906
0002b0 c8 a9 b5 bd e7 89 47 be 91 7b 09 3e a6 aa 9c bc
       -0.08870274 -0.194862 0.13426043 -0.01912434
0002c0 fd 59 82 bc ba 00 c3 3d 50 66 11 3c 10 88 0e 3d
       -0.01591205 0.09521623 0.008874491 0.034797728
0002d0 fd 87 8a bc bd f4 31 3d 46 a5 d0 bc 8e 60 13 be
       -0.016910547 0.04344629 -0.025469434 -0.14392301
0002e0 b1 5d 06 be 0d 0e 81 3d 3a c8 ed 3d 5d 98 27 3c
       -0.13121678 0.06301508 0.11610456 0.010229197
0002f0 dc 70 72 3d 1a e3 ba ba 5e 71 f6 bd 45 32 e1 bd
       0.059189662 -0.0014258355 -0.12033342 -0.10995916
000300 7c 73 80 bd 58 32 8a 3d 1e 2b ea bc d6 63 ec 3a
       -0.06272027 0.067478836 -0.028585013 0.0018035125
000310 fe 14 46 bd df d6 af 3d bb c8 40 be be f8 5d 3c
       -0.048359863 0.08585905 -0.18826573 0.013548074
000320 5f 9b c1 bc 47 f9 a3 3d 35 30 ae bd a4 07 16 3d
       -0.023633657 0.0800653 -0.085052885 0.03662838
000330 c4 3a 4f 3b a2 c6 83 3d 0f 66 52 3c 72 19 e3 3c
       0.003162072 0.064343706 0.0128417155 0.027722094
000340 90 a3 23 3e 6d 97 ea 3d b2 01 74 bd 1f 75 46 be
       0.15980363 0.114546634 -0.05957193 -0.19380616
000350 b0 fa 5b 3e 22 50 04 be 4e 6f 91 3e 97 d6 00 bd
       0.21482348 -0.12921193 0.2840523 -0.03145465
000360 47 15 e2 3d 00 dd 3e 3d 80 e0 01 bf a1 b1 1f be
       0.110392146 0.04659748 -0.50733185 -0.15595104
000370 7d 2b 62 3d 32 48 2c be 27 a5 19 3f 5a 1f cf bc
       0.055217255 -0.16824415 0.6001763 -0.025283504
000380 34 ce 3e bc a4 d0 3f bd 9f 84 4e 3c af fe 82 bf
       -0.011645842 -0.046829835 0.0126048615 -1.0233973
000390 f8 16 13 bb 44 e9 0b 3c 68 74 fc 3e 96 af 09 bc
       -0.002244411 0.008539502 0.4930756 -0.008403679
0003a0 29 a9 a6 3d ca 70 a4 3d ea 8a 6d be b6 99 27 bd
       0.081377335 0.08029325 -0.23197523 -0.040918075
0003b0 7f 1c df 3d ce 69 6e 3d 94 61 d1 3b a5 74 93 bd
       0.10894107 0.058206372 0.006389806 -0.071999826
0003c0 1e 0c 6e be 9b ca 06 3d 84 2a 77 bd 59 f0 43 3c
       -0.2324681 0.032908063 -0.06034328 0.011959159
0003d0 fc eb b4 3d 07 3c d3 3d de 73 6b bd 41 5c ed 3c
       0.08834073 0.10314184 -0.057483546 0.028974654
0003e0 dc cb 25 3d 97 79 e8 3d 6c 74 1a 3e e4 fd 63 3d
       0.04047762 0.113513164 0.15083474 0.05566205
0003f0 5e 56 e0 3b 85 97 00 3d 47 15 1d be be d1 e9 bd
       0.0068462333 0.0313945 -0.15340148 -0.11416958

fc2.bias f4 [256]
000000 08 7d a5 bf e0 bd df 3c 0d fb 63 bd fe 7f 12 be
       -1.2928782 0.02731222 -0.055659343 -0.14306638
000010 71 9e eb 3f ea 94 bd 3f 84 6b 16 bf 8f 48 e3 3f
       1.8407727 1.481107 -0.58757806 1.7756518
000020 0d 49 84 3f a6 02 cd bb aa 76 0a 3d ab 8c a0 bf
       1.0334793 -0.0062564192 0.033804573 -1.2542928
000030 ea a9 ca 3f 0c bb 9a 3d 92 d4 5d bf 3d 08 9c 40
       1.5833104 0.075552076 -0.8665248 4.8760056
000040 2f 94 b7 bf 52 0e 1d bf 31 06 1d 40 ed f4 a4 bf
       -1.4342097 -0.61349976 2.453503 -1.2887245
000050 90 aa df 3e ad 00 05 40 56 93 a7 40 a8 6f 19 c0
       0.43684816 2.0781662 5.2367353 -2.39744
000060 23 3f 21 bc df e5 f1 3b 8a 02 0f bf 96 24 14 3f
       -0.009841713 0.007382139 -0.5586325 0.57868326
000070 7e 54 53 bf 0e a4 9f 3f 6f 3c 80 bf ba ad 84 bf
       -0.825508 1.247194 -1.0018443 -1.0365517
000080 14 fd 23 c0 34 5f 3d c0 c9 51 2f bf 20 f5 d6 3b
       -2.5623217 -2.9589357 -0.6848417 0.006559983
000090 1a 16 b1 bd 41 8f 50 40 8f 73 7b 3c eb 4f 84 be
       -0.08646794 3.2587435 0.015347376 -0.25842223
0000a0 a7 60 82 bd 5d e7 2b 3f 14 c5 61 3e 6f ae bf 3f
       -0.06366091 0.6714991 0.22047836 1.4975108
0000b0 af c9 3b 40 e3 c0 a2 40 e0 e7 04 40 1c 65 22 bd
       2.9341848 5.0860457 2.0766525 -0.039647207
0000c0 d2 94 de 3f ee 1b cd bf 9e 36 42 3f cb 39 94 3f
       1.7389166 -1.6024148 0.7586459 1.1580137
0000d0 1b 4e a2 bd 03 e6 e0 bd 81 f4 88 bf 61 1a 20 3c
       -0.07925054 -0.10981371 -1.0699617 0.009771914
0000e0 85 a0 aa 3f 88 dc 9d 40 a7 25 2c c0 f5 a6 54 3c
       1.3330237 4.9331703 -2.689798 0.012979259
0000f0 8f d7 a5 bd d0 c9 06 3e bb 7b 20 3f 58 51 e3 bd
       -0.08097755 0.13162923 0.626888 -0.110994995
000100 39 14 6c bf f5 f5 37 c0 77 1b 8e 40 f7 9b 55 40
       -0.9221836 -2.874387 4.4408526 3.3376443
000110 ad a7 93 bf 35 46 03 c0 c1 64 93 3f 2a e6 78 bd
       -1.1535546 -2.05116 1.1515123 -0.060766377
000120 b2 cc 27 3f 58 55 f7 bd ec 81 7a c0 6b 02 56 bf
       0.65546715 -0.12076825 -3.9141798 -0.8359744
000130 a0 9f 7a bf 08 3d 69 bd 12 e7 b9 3f 32 5a 9d bd
       -0.9789982 -0.05694297 1.4523642 -0.07683219
000140 45 83 c3 bd e3 bd b4 40 4f b3 0a 3f 01 8d 9a bf
       -0.09546522 5.6481795 0.54179853 -1.2074281
000150 6a 76 2f bd 2a 95 a0 3f 63 06 8d bf b6 29 62 3f
       -0.042837538 1.2545521 -1.1017574 0.88344896
000160 28 86 18 40 4f 7b c7 3f d5 38 80 bd 9d 6c 93 bf
       2.3831882 1.5584506 -0.0626084 -1.1517521
000170 af 83 82 bd 2c d8 d7 bc 88 90 9a bf b1 a1 39 bd
       -0.06372773 -0.026348196 -1.2075357 -0.045320217
000180 e7 28 10 bd 6b 06 ef 3f f8 08 e2 bc b8 ea c9 3e
       -0.035195258 1.8673834 -0.027592167 0.3943689
000190 2c 65 02 c0 ab 68 cb 3f a9 92 45 c0 1e 6d 0c c0
       -2.037425 1.5891317 -3.0870764 -2.19416
0001a0 c8 73 b0 bf 8d 4c ad bf 0f 8f 76 bf af d0 4d bc
       -1.3785334 -1.3538986 -0.9631204 -0.012561961
0001b0 65 e5 e7 3f 66 8e b6 bb f9 33 62 c0 f4 0c f1 bd
       1.8116881 -0.0055711744 -3.5344222 -0.11770049
0001c0 72 d1 0b 3f db 88 bb 3e 91 39 cc bf 85 84 83 bf
       0.54616463 0.3662785 -1.5955068 -1.0274817
0001d0 c5 ea f8 bd 02 0f 96 3e ad 29 a0 bd 36 ce d6 be
       -0.12154154 0.29308325 -0.07820449 -0.419542
0001e0 7f 20 f1 3f b4 ca 72 3e 93 39 cc 3e 23 67 71 bf
       1.8838042 0.23710138 0.39887676 -0.94298
0001f0 78 d4 ec bd 0e 27 1f 3f 35 6c af bc 42 f8 a6 bd
       -0.11563963 0.6216897 -0.021413902 -0.0815282
000200 5e c8 0e be 99 fe 7e bf 2a a6 22 3f 7b ca d8 3f
       -0.13943622 -0.99607235 0.63534796 1.6936792
000210 e2 38 16 40 e5 b5 1c 40 a3 28 24 bd 73 76 41 40
       2.3472219 2.448602 -0.040077817 3.0228546
000220 03 d8 2f bd 9c 4c 3e c0 89 f0 87 be 15 0f 35 be
       -0.042930614 -2.9734259 -0.265507 -0.17681535
000230 10 32 94 bd 38 5d 96 bf 75 f3 69 40 2d 2c 42 bb
       -0.07236111 -1.1747198 3.6554844 -0.0029628382
000240 a0 bd e2 bd 03 bc 65 bf 23 6e 2f c0 a5 17 28 c0
       -0.11071324 -0.8974001 -2.7410972 -2.6264431
000250 68 b3 4f 3f fd 78 17 c0 2d 73 05 40 47 d6 60 3f
       0.8113313 -2.3667595 2.0851548 0.8782696
000260 fb 08 85 c0 db 29 f8 40 2e b8 be 3f 2a bf 19 c0
       -4.1573462 7.7551093 1.4899957 -2.4022927
000270 1e 29 07 40 8e 1d 1f c0 59 5b 83 bf a5 e9 a4 bf
       2.1118846 -2.4861789 -1.0262252 -1.2883803
000280 41 1b d4 bd ee f7 2f bd 66 4e b8 40 9f 1a 67 bd
       -0.10356761 -0.042961054 5.75957 -0.056421872
000290 f4 0f 02 c0 66 2b ad 40 bb da a5 bf 33 50 05 bd
       -2.0322237 5.4115477 -1.2957376 -0.032547187
0002a0 50 77 38 bf ad 47 07 40 e5 2f 9d bf c1 c1 40 40
       -0.72057056 2.1137497 -1.2280241 3.0118258
0002b0 84 78 2c 3a b4 c3 3e bd a0 46 2b bd 5b b7 a9 bd
       0.00065792375 -0.046573356 -0.0418154 -0.082869254
0002c0 27 0f 88 bf 34 ce 20 40 a6 78 59 40 4b 54 56 bd
       -1.0629624 2.5125856 3.3979888 -0.05232648
0002d0 bd 17 ec 3f ac 21 e7 3f 24 16 81 3e ce 57 37 3f
       1.8444744 1.8057151 0.25212204 0.71618354
0002e0 38 65 08 3c de 1b 1c 3d 8b 82 ff 3c df 94 79 bf
       0.008324914 0.038112514 0.031190177 -0.97492784
0002f0 0d a9 7f be 62 2f 84 bc 52 35 b8 3f ba 7f 58 40
       -0.24966832 -0.016135875 1.4391272 3.3827958
000300 93 54 ce 3f e3 34 13 be 60 3b 38 bd 9c ba 34 bb
       1.611956 -0.14375643 -0.0449785 -0.0027577048
000310 4d 23 28 c0 c8 f2 3b bf 70 95 3e bc 55 e0 80 bf
       -2.6271546 -0.7341733 -0.011632308 -1.0068461
000320 b5 6e 36 c0 9f 30 9d bf 73 04 c6 3f 87 76 cf 3f
       -2.850507 -1.2280463 1.5470108 1.6208047
000330 70 76 c6 3f 11 98 2b c0 d8 e1 7a 40 8b 60 29 bd
       1.5504894 -2.6811564 3.9200344 -0.041351836
000340 b5 a8 94 bf 03 ea b3 c0 3f 9e 08 3c 48 a9 8f bf
       -1.1613985 -5.622316 0.00833851 -1.1223536
000350 de 49 35 bd 57 26 7d 3f 48 b5 5e 3f 20 02 a9 bd
       -0.0442599 0.98886627 0.86995363 -0.082523584
000360 13 c8 8b bc fa 83 92 40 17 c0 79 40 6b 0c ef 3e
       -0.017063176 4.5786104 3.9023492 0.46689162
000370 fe b2 65 bf fc 07 4e 40 7a 1c 8a bf e6 16 39 c0
       -0.89726245 3.2192373 -1.078994 -2.8920226
000380 da 33 28 bd 64 f6 d9 3f 8a 5b 80 bf fc 09 b9 bf
       -0.041065075 1.7028317 -1.0027936 -1.4456172
000390 7f 6a 47 3f ae 23 0c 40 3c 55 31 bf 05 6b 26 bd
       0.77896875 2.1896777 -0.6927068 -0.040629406
0003a0 68 cb ef 3f 83 8c 1c bd 91 21 b3 bf 83 98 53 bf
       1.873395 -0.03821994 -1.3994619 -0.8265459
0003b0 40 2e 07 40 46 dd 0a c0 6e 17 9f 3d 9e f2 2d 40
       2.1121979 -2.1697555 0.07768141 2.7179332
0003c0 f5 a0 63 3f 4b ff 2b c0 68 e5 92 bf fb 2e 0f 40
       0.88917476 -2.6874568 -1.1476259 2.2372425
0003d0 e1 a1 fa 3f 31 03 47 40 50 c5 40 40 f3 54 a8 bf
       1.9580652 3.1095698 3.012043 -1.3150924
0003e0 5d d7 d9 bf a7 81 fb 3f c6 28 c8 bf df 10 45 40
       -1.7018849 1.9648942 -1.5637443 3.0791547
0003f0 dc df a0 3d ad 14 4d c0 f0 89 22 3f ff a7 a0 bd
       0.07855198 -3.204387 0.63491726 -0.07844543

fc3.weight f4 [1, 256]
000000 42 3a c0 3e 26 59 56 3b 81 32 99 3d e1 c2 ef 3b
       0.37544447 0.0032706945 0.07480336 0.0073169325
000010 de 28 3c bf 67 56 9e bf ab 1b a5 3f 9c e8 85 bf
       -0.7349986 -1.2370118 1.2899069 -1.0461612
000020 59 9e 8a be ae 99 c9 bd 19 1c 63 3f a4 db 76 bf
       -0.27073935 -0.09843765 0.8871475 -0.96428895
000030 c0 ae c9 be 0f 64 ce bf 15 de c3 3e 8b ac d5 be
       -0.39391136 -1.6124285 0.38255373 -0.41733202
000040 7a aa b3 bf b2 52 0b 40 19 7b a6 bf e9 6d ae 3f
       -1.40364 2.1769223 -1.3006316 1.3627292
000050 4a e4 b3 3f 02 db 25 bf b3 b1 f7 be 82 2b 44 bf
       1.4054043 -0.64787304 -0.4837776 -0.7662889
000060 e7 45 d5 bd 86 00 d6 ba ff fc 24 3f c4 1d 25 bf
       -0.104137234 -0.001632706 0.6444854 -0.64498544
000070 e4 eb ab 3e b0 61 c4 3f 37 f0 f7 3e ed 64 1a c0
       0.33578408 1.5342312 0.48425457 -2.41241
000080 4c 8e 9e 3e 20 69 22 bf ed 1c 8b 3d 5e 0b 8c 3c
       0.3096794 -0.6344166 0.067926265 0.017095264
000090 ca cf e8 bb db 49 a1 be 96 2e b8 3d b4 00 66 3f
       -0.0071048485 -0.3150166 0.089932606 0.8984482
0000a0 6a 38 79 3d 1c f5 3e bf 4c e8 aa bf f6 81 ca be
       0.060844816 -0.7459276 -1.3352141 -0.39552277
0000b0 07 11 e7 be cf 60 c0 be 60 36 50 bf 50 cb df 3a
       -0.45130178 -0.3757386 -0.8133297 0.0017074142
0000c0 96 ef 34 bf 23 15 9e 3f 73 65 f0 bf 90 31 cf 3e
       -0.7067808 1.23502 -1.878096 0.404675
0000d0 f2 c2 f3 bd 47 e6 79 bb 23 65 14 3e f4 58 9b bc
       -0.11902417 -0.003813164 0.14491706 -0.018963315
0000e0 f9 1d b9 be 8b 4f 76 be 51 21 e0 be 48 d4 98 bd
       -0.3615568 -0.2405378 -0.43775418 -0.074623644
0000f0 a6 01 51 3d 86 10 09 c0 ec d6 74 bf 60 2b 17 3c
       0.051026963 -2.1416335 -0.95640445 0.00922665
000100 cc 9f c8 3f 70 f4 17 3f 7e 61 92 be 1b 19 c4 bf
       1.5673766 0.5935736 -0.28590006 -1.5320162
000110 cf 61 b1 bb 9e 59 54 3e 9d d7 7a bf bd aa 47 3c
       -0.005413271 0.20737311 -0.9798525 0.012186703
000120 72 a7 9a bf 7b 73 81 bb 7c 91 fb bf c7 29 39 3e
       -1.208235 -0.003950534 -1.9653773 0.18082343
000130 4c 20 80 3e 46 c6 f8 3b 44 94 0c 40 b5 30 88 bb
       0.2502464 0.0075919954 2.1965494 -0.004156197
000140 a5 44 aa 3d c6 dd 89 be 00 ef 90 3e 1a 09 f4 3d
       0.08313874 -0.26927012 0.28307343 0.119157985
000150 76 70 fa 3b 2a 8d 93 3f 0f bc 36 3f c3 f5 c1 3f
       0.007642801 1.1527455 0.71380705 1.5153126
000160 35 1a 83 3f 19 c0 7e 3e 93 a6 93 3c c0 8d 9a 3f
       1.0242373 0.24877967 0.018023765 1.2074509
000170 ab 4e f2 3b 8b cb 1b 3c 46 eb 4c 3f 98 69 e7 bd
       0.007394632 0.009508978 0.800465 -0.11299437
000180 49 39 d0 bd bf 62 21 bf e2 f7 dc bc 84 2b ab 3e
       -0.10167176 -0.630413 -0.026973668 0.33431637
000190 32 34 ea 3f 63 f2 35 bf 4d 89 8b bf d1 71 c6 be
       1.8297179 -0.7107298 -1.0901276 -0.3875871
0001a0 91 e3 f6 3f 67 5e bb 3f 32 04 d8 3f 6b 66 b4 bc
       1.9288198 1.4638184 1.687628 -0.022021493
0001b0 e1 6d b5 be 6b 8e 4e bd 5b 48 74 3e 79 2d 2e 3b
       -0.35435393 -0.05042879 0.23855726 0.0026577397
0001c0 8b a2 9b be f2 2c 94 bf bf 27 44 3e e3 e6 42 bf
       -0.30397448 -1.1576216 0.19155787 -0.76133555
0001d0 d8 b0 3f bf b6 b3 1d 40 e5 c3 ca bd a7 fd a0 bf
       -0.7487922 2.4640937 -0.09900645 -1.2577409
0001e0 80 fd 30 3f 6e 97 be 3f 1b 64 7e 3e 14 f1 26 3e
       0.6913681 1.4889963 0.24842875 0.16302902
0001f0 19 d9 b9 bf a1 f1 b8 3e 6b e1 a3 bc de 5f 1a 3c
       -1.4519378 0.36121848 -0.020004949 0.009422271
000200 e7 ba 32 3e f3 e4 04 3d 76 2f 03 3f 8f 97 51 bf
       0.1745411 0.032444905 0.51244295 -0.81871885
000210 a3 32 5c 3f 0b 03 8c 3f 52 47 ca bd be 24 1a bf
       0.86014766 1.0938429 -0.098768845 -0.60212314
000220 84 9f 07 3e 4b 56 9a bf 1e 36 33 40 3b 55 58 3f
       0.13244444 -1.2057585 2.800178 0.8450505
000230 17 63 cc 3b 67 24 90 3f 21 4a 3d bf 19 4f da 3d
       0.0062373984 1.1261109 -0.73941237 0.10659618
000240 8a 52 d6 ba 2c 6b 17 be 4b dc e0 be 41 18 9d 3e
       -0.0016351503 -0.14786977 -0.4391807 0.30682567
000250 f3 88 74 3f 2a ad 3b bf 9a 1c 5d bf a0 3f 7f 3f
       0.9552147 -0.733111 -0.8637177 0.9970646
000260 36 e0 ca bf 25 7f 7e bf d0 18 e5 3e 42 6f f6 3e
       -1.5849674 -0.9941276 0.44745493 0.48131758
000270 3c 83 88 bf 1d 00 0e 3e c6 6b bd be 77 c8 31 c0
       -1.066505 0.1386723 -0.36996287 -2.7778604
000280 8b ed a2 3d 9f 45 da bd b6 9b b0 be aa 1a 44 3c
       0.07955464 -0.106578104 -0.34493798 0.011969248
000290 13 7c 5e 3e a2 68 92 3f 0c 35 e3 3f b3 20 06 bc
       0.21727018 1.1438181 1.7750564 -0.008186507
0002a0 f8 e0 aa bf ff af cd be 68 e6 a9 3d 1c a4 e5 3f
       -1.3349905 -0.40173337 0.082959 1.7940707
0002b0 e8 13 b0 bc 80 12 d7 3d 57 69 9b bc 70 20 55 3b
       -0.021493867 0.105015755 -0.018971128 0.0032520555
0002c0 f1 ae ad 3e 7f d7 93 3e 51 f2 de be 2b 3f e3 bb
       0.33922532 0.28875348 -0.43544248 -0.0069350204
0002d0 63 2f d4 3e 59 cb 39 bf e6 cf 92 3f 45 ea 53 40
       0.41442403 -0.7257591 1.1469696 3.3111737
0002e0 65 be e0 3d a1 04 ad 3f 47 72 cf bf 21 11 b2 bf
       0.10973815 1.3517038 -1.620675 -1.3911477
0002f0 98 ca 96 3e 0a 16 a6 3d b1 51 17 c0 4a 84 87 be
       0.29451442 0.08109672 -2.364361 -0.26468116
000300 f8 e4 b8 be b4 4a 01 40 f2 01 bc be 27 34 d7 bb
       -0.3611219 2.0201845 -0.36720234 -0.0065674963
000310 b1 7b be bf 38 d3 da 3f ef 50 88 3c 33 3a 36 3e
       -1.4881498 1.7095709 0.016640155 0.17795639
000320 a4 5c ca bf 0c d2 ff 3d 0d 2b 95 bf 19 48 5c bf
       -1.5809522 0.12491235 -1.1653763 -0.8604751
000330 90 01 ee be e1 3c 40 3e af b0 16 bf 94 72 e9 bb
       -0.46485567 0.18773223 -0.5886335 -0.0071242545
000340 af ec 80 40 d0 c4 8c bf c3 7e 2c 3d 22 07 12 c0
       4.028892 -1.0997562 0.042113077 -2.2816854
000350 77 95 54 39 2f 38 c6 3d d8 fe 79 3f 78 bf ae bc
       0.00020273576 0.09678685 0.97654486 -0.021331534
000360 d1 32 84 3d 0a 8f 36 3f 43 77 14 be b8 21 a1 be
       0.06455005 0.7131201 -0.1449862 -0.31471038
000370 64 7f 75 be 44 69 62 bf fc 32 82 3d e2 c1 5d 3f
       -0.23974377 -0.8844187 0.06357381 0.86623967
000380 b1 84 c0 bd 21 f5 2b bf 82 43 9d 3d 9d ae f8 bf
       -0.09400309 -0.6717091 0.07678892 -1.9428288
000390 9b 7d 64 3f cb df 59 bf 55 ce 27 c0 36 cd d5 bc
       0.8925416 -0.85107106 -2.6219685 -0.026098829
0003a0 09 cc 15 bf d3 02 cc 3b 10 02 43 3f 07 93 85 3d
       -0.5851446 0.0062259226 0.7617502 0.06522184
0003b0 bc 08 70 3f d6 09 53 3e f4 f8 91 3f 57 2c da be
       0.9376333 0.20609221 1.14041 -0.42611954
0003c0 c5 3b e6 be b3 ab 18 3e d2 5a 97 3f 61 3b 9d be
       -0.44967476 0.14909248 1.1824591 -0.30709365
0003d0 98 dd 01 bf 60 c4 bb be 81 2c fb be 47 87 cc 39
       -0.5072875 -0.3667326 -0.4905739 0.00039010702
0003e0 e1 c2 80 3f 45 58 73 bf 71 cc c8 3e b2 91 2b 3f
       1.0059472 -0.95056564 0.39218476 0.6701919
0003f0 cc d7 37 40 40 3d 47 3e e9 4c 31 c0 4f 7f 36 bb
       2.8725462 0.19456959 -2.7703192 -0.0027846878
