model/sac_ff_dqn_ff/agent1_sac_ff_q2_1000000.pth (torch, 275223 bytes, 5 tensors)

fc1.weight f4 [256, 8]
0	0x3ff8eef2	1.944792
1	0xbfe27e65	-1.7694823
2	0x3dbedf39	0.0931992
3	0xbf4c981b	-0.79919595
4	0x3f531660	0.82456017
5	0xb948b831	-0.00019142103
6	0x3bf5ef51	0.0075053354
7	0x3feaf5b5	1.8356234
8	0xbf3056fc	-0.6888273
9	0xbf73f2a2	-0.95292103
10	0xbe826fa0	-0.25475788
11	0x3ff8352f	1.939123
12	0x3f4f5c30	0.8100004
13	0xbc79907b	-0.015232201
14	0x3d3609cc	0.044442937
15	0xc05d7e11	-3.4608195
16	0xbfadc0ee	-1.3574502
17	0xbf58b875	-0.8465646
18	0x3c552fcb	0.013011883
19	0xbeffba6f	-0.49946925
20	0xbedb63be	-0.42849535
21	0xbd48a7d1	-0.048988167
22	0x3db54b8e	0.088523015
23	0xbcac0286	-0.020997297
24	0xbe03823e	-0.12842652
25	0xbe129f53	-0.1431859
26	0xbdc5344c	-0.096291155
27	0xbdd57642	-0.104229465
28	0xbc4bd3a1	-0.012440593
29	0xbc062775	-0.008188118
30	0xbcbde6be	-0.023181316
31	0xbd1d4ab4	-0.03840132
32	0x3fff5568	1.9947939
33	0x3d9c6a1b	0.076374255
34	0xbc9dbc36	-0.019254785
35	0x3ec563f8	0.38552833
36	0x3f873721	1.0563699
37	0xbc0f9061	-0.00876245
38	0xbcb689e2	-0.022282545
39	0xc0114b23	-2.270211
40	0x3f7299a9	0.94765717
41	0xbd095424	-0.03352751
42	0xb9f9fee0	-0.00047682878
43	0x3fdaacc4	1.7083974
44	0xbfd9ea7a	-1.7024682
45	0x39db17ca	0.0004178866
46	0xbcaefab2	-0.021359775
47	0x3ed3d214	0.41371214
48	0x3fa09fcb	1.2548765
49	0xc134cdcc	-11.300243
50	0xbf003069	-0.5007387
51	0xbf212911	-0.6295329
52	0x3fcb8be7	1.590207
53	0xbb1dd256	-0.0024081669
54	0x3be9329a	0.007116628
55	0xbdb945dc	-0.09046528
56	0x3fc4c2a4	1.53719
57	0xbde6d838	-0.11271709
58	0x3ba9a4e2	0.0051771263
59	0xbfb66893	-1.4250664
60	0x3fe48e52	1.7855933
61	0xbaee7b74	-0.0018194751
62	0x3a5dff78	0.0008468549
63	0xbf1329ae	-0.57485473
64	0x3d65f768	0.056144148
65	0x3dae1468	0.08499986
66	0xbd48aa38	-0.04899046
67	0xbc98fff0	-0.018676728
68	0x3acbb000	0.0015540123
69	0xbd9d86eb	-0.07691749
70	0xbdecad26	-0.11556463
71	0xbc6dc290	-0.014511719
72	0x3c407550	0.0117467195
73	0xbdd347a2	-0.10316397
74	0xbb0aa280	-0.0021153986
75	0x3e033aaa	0.12815347
76	0xbe155bb3	-0.14585762
77	0xbddd58fa	-0.108079866
78	0xbd503120	-0.0508281
79	0xbd88c868	-0.066788495
80	0xc0ec5543	-7.385408
81	0x3e980999	0.29694822
82	0xbbdee683	-0.0068023815
83	0x3e07cb5a	0.13261166
84	0x3f4ef739	0.8084598
85	0xbad80be5	-0.0016483037
86	0x3b7048ed	0.003666456
87	0x3fa1149c	1.2584414
88	0xc0b75c78	-5.7300377
89	0x400e7e5b	2.2264621
90	0xbee3f405	-0.4452211
91	0x4006bd9c	2.1053228
92	0xbfd0248f	-1.6261157
93	0xb9c88bc8	-0.00038251118
94	0x3c2b814f	0.010467841
95	0xbe258c30	-0.16166759
96	0xc0ac26c1	-5.3797307
97	0xbe5873ec	-0.2113797
98	0x3cdb164e	0.026744034
99	0x3f9dbd86	1.2323463
100	0xbf099415	-0.5374158
101	0xbcb5bf2a	-0.02218588
102	0x3d0f9cde	0.03506171
103	0xc0ab6de1	-5.357163
104	0xc01401ac	-2.312602
105	0xbea88b9a	-0.32919008
106	0x3c49431b	0.012284066
107	0xbd447a7a	-0.047968365
108	0xbe5e7cc3	-0.2172728
109	0xbdb11fec	-0.08648667
110	0x3e5d42b0	0.2160747
111	0xbeb9d85e	-0.36297888
112	0xc04196c2	-3.0248265
113	0x3d52cb23	0.051463258
114	0x3cfd70ca	0.030937571
115	0x3f23ca20	0.63980293
116	0xbef8cc65	-0.4859344
117	0xbbab3109	-0.0052243513
118	0xbef44805	-0.47711197
119	0xbfd302ec	-1.6485267
120	0x3eef5da4	0.4675113
121	0x3de65726	0.11247091
122	0x3c7ea0b5	0.015541245
123	0x3e0bfb38	0.13670051
124	0x3e36fe2d	0.17870398
125	0xbebbdb0c	-0.36690557
126	0xbd86603d	-0.06561325
127	0xbc2cb177	-0.010540358
128	0xbde35d19	-0.11101741
129	0x3e057322	0.13032201
130	0xbd4502ac	-0.04809825
131	0xbd390536	-0.045170985
132	0x3d0956b4	0.033529952
133	0xbd7cb13e	-0.06169247
134	0x3bd7f620	0.0065906197
135	0xbc361a80	-0.0111147165
136	0x3f96182a	1.1726124
137	0xbec3a3ba	-0.3821085
138	0xbc8f4fd0	-0.017494112
139	0x3e54f247	0.20795546
140	0x3e41ea23	0.18936972
141	0xbe8ed30a	-0.27895385
142	0x3ef944be	0.4868526
143	0x3f29adad	0.66280633
144	0xbc0c4320	-0.008560926
145	0xbd10bb38	-0.035334796
146	0xbd1d11cc	-0.03834705
147	0xbd2eaef4	-0.042647317
148	0x3def5680	0.116864204
149	0xbde4c95f	-0.11171221
150	0x3dcbb4b8	0.09946579
151	0x3d9e02f8	0.0771541
152	0x3f9a2eaf	1.2045497
153	0x3fb10f4f	1.3832797
154	0xbe151e72	-0.14562395
155	0x3f3747ae	0.7159375
156	0x3f85d831	1.0456601
157	0xbd051f48	-0.032500535
158	0x3a1632cf	0.0005729617
159	0xbff7ad17	-1.9349698
160	0x3ee51416	0.44741887
161	0x3db3db68	0.08782083
162	0xbd4a71c0	-0.049424887
163	0xbdba6243	-0.09100773
164	0x3dffc487	0.124886565
165	0xbd8d147f	-0.06888675
166	0x3e04f2ac	0.12983197
167	0x3f90f27f	1.1324004
168	0xbd5ad6b2	-0.053427406
169	0x3cdb0778	0.02673696
170	0xbdf3a9ad	-0.118975975
171	0x3dd942fc	0.106084794
172	0xbd84e246	-0.06488471
173	0xbcf1b390	-0.029504567
174	0x3c8a04d8	0.016848013
175	0xbe085a39	-0.13315667
176	0xbe0cf6fc	-0.13766092
177	0x3da67b92	0.08129038
178	0xbdd9006e	-0.10595785
179	0xbcd432a8	-0.025903061
180	0x3d946ba0	0.0724709
181	0xbd16ed82	-0.0368476
182	0xbded24a2	-0.11579253
183	0xbd85a15d	-0.06524918
184	0xbfe21ddb	-1.7665361
185	0x3e33faf1	0.17576195
186	0xbb24b456	-0.0025131903
187	0x3d2db588	0.04240945
188	0xbe2591ae	-0.16168854
189	0xbd10837d	-0.035281647
190	0x3d0116e4	0.03151597
191	0x4022191a	2.532782
192	0xbfe32e5c	-1.7748523
193	0xbe1b3357	-0.15156303
194	0x3bae60d2	0.0053216005
195	0x3ea6eb14	0.32601225
196	0xbec64734	-0.387262
197	0xbbf4c7e1	-0.0074701165
198	0xbefdf7a2	-0.4960299
199	0xbf8f5ddd	-1.120052
200	0xbd8b88a5	-0.06813172
201	0x3da2eb10	0.07954991
202	0xbdfab91e	-0.122423396
203	0x3dae93c1	0.085242756
204	0x3da67161	0.08127094
205	0xbd0ee0b8	-0.034882277
206	0xbe1fbffc	-0.1560058
207	0xbd6ac9fd	-0.057321537
208	0xbfde237e	-1.7354581
209	0xbeaf5d59	-0.34250906
210	0xbd4be1f5	-0.049776036
211	0xbfaf6e77	-1.3705586
212	0xbf494a8d	-0.7862938
213	0x3d61a356	0.05508741
214	0xbdc677bc	-0.09690806
215	0x3f82501f	1.0180701
216	0x3ee415a2	0.44547755
217	0xbed09212	-0.40736443
218	0x3c0274fd	0.0079624625
219	0x3dd5c92e	0.104387626
220	0xbd2189f8	-0.039438218
221	0xbd13e171	-0.03610367
222	0xbdecfda0	-0.11571813
223	0x3f011894	0.5042813
224	0x3fa8817b	1.3164514
225	0xbdbab5fe	-0.091167435
226	0xbc93bb4f	-0.018033652
227	0xbe8e6473	-0.27811012
228	0xbd540992	-0.05176694
229	0xbd09abc8	-0.03361109
230	0xbe2ef97b	-0.17087357
231	0x3d997fae	0.07495056
232	0x3f985e97	1.1903867
233	0x3e42deb6	0.1903027
234	0xbd82d77f	-0.06388759
235	0x3dbcf7c4	0.09226945
236	0x3e237ebf	0.15966319
237	0xbd8d2e6b	-0.06893619
238	0xbea6d9a0	-0.3258791
239	0xbfaa8ecf	-1.3324832
240	0x3f6773d5	0.9041112
241	0x3f50ff3a	0.81639445
242	0xbe3324e8	-0.17494547
243	0xbd03689b	-0.03208218
244	0x3ff58725	1.9181868
245	0xbd0e82f0	-0.03479284
246	0x3c8846c8	0.016635314
247	0xbfdf4a72	-1.7444594
248	0xbd8565f7	-0.06513589
249	0xbc570110	-0.013122812
250	0xbde0860d	-0.10963068
251	0xbdb0ade8	-0.0862692
252	0x3ddb35cc	0.1070362
253	0xbdf03995	-0.11729733
254	0x3d052698	0.03250751
255	0xbcb1ed28	-0.02171953

fc1.bias f4 [256]
0	0xc11d1c63	-9.81943
1	0xc0edda9b	-7.432935
2	0x4002f08f	2.0459325
3	0xbe12d886	-0.1434041
4	0x3f15d82b	0.5853297
5	0xc100aa6a	-8.041605
6	0xbf6663a0	-0.89995766
7	0xc126b113	-10.418231
8	0xbe20c3e7	-0.15699731
9	0x3e5e9fda	0.21740666
10	0xc13a2a7e	-11.635374
11	0x4123cfb9	10.238214
12	0xc004ea7f	-2.0768125
13	0x3ff44348	1.9083033
14	0xc129d27a	-10.613886
15	0x3c1857c2	0.009298267
16	0xbdaf3b28	-0.08556205
17	0xbf8e3789	-1.1110698
18	0xbe503292	-0.20331791
19	0xc00b8c6a	-2.1804452
20	0xc04d85d4	-3.2112932
21	0xbe76553e	-0.24055955
22	0xbe13f82f	-0.14450143
23	0x3ffbd6df	1.9674948
24	0x3d852cd4	0.06502691
25	0xbc0fa30f	-0.008766904
26	0x40389abc	2.8844442
27	0xc040cd8b	-3.0125453
28	0xc0a649f6	-5.1965284
29	0xbfd0dc17	-1.6317166
30	0x40a5da99	5.1829343
31	0x3e8267b7	0.25469753
32	0x3e0e4144	0.13892084
33	0x4074fbc4	3.8278666
34	0xc10f72f0	-8.965561
35	0xc1420b8d	-12.12782
36	0x3fea9809	1.8327647
37	0x3bcd41f3	0.0062639653
38	0x3e6d334a	0.23164096
39	0x4003578f	2.0522192
40	0xbf8eb5f9	-1.1149284
41	0x3dcc3614	0.09971252
42	0x3ea0cf9b	0.3140839
43	0x413fca5d	11.986905
44	0xc0905a3d	-4.5110154
45	0xc06b1df7	-3.673704
46	0x3fac9faa	1.3486226
47	0xbd0b8f50	-0.03407222
48	0x404badaa	3.1824746
49	0xc027c31e	-2.621284
50	0xbd6ad430	-0.057331264
51	0x4008db0d	2.1383698
52	0xc0937b21	-4.6087804
53	0xc0f0f49d	-7.52986
54	0x3d902f0c	0.070402235
55	0xc09a4a30	-4.821556
56	0xbdd62be8	-0.10457593
57	0xc0f7a7bf	-7.739227
58	0xbeec1ece	-0.46117252
59	0xc11577d5	-9.341756
60	0xbf8ad962	-1.084759
61	0xbf7a9ed5	-0.9789861
62	0x3fea8ce8	1.8324251
63	0x4042b542	3.042313
64	0x3f653e86	0.8954853
65	0xc159788a	-13.5919285
66	0x4082c0cc	4.086035
67	0x401cc384	2.4494333
68	0xbfcdb2b3	-1.607016
69	0x3f2eef2e	0.6833371
70	0xbf678a9d	-0.9044588
71	0x3f55b7e4	0.8348372
72	0x3fa30d1c	1.2738376
73	0x4098ce35	4.7751718
74	0xc07f75cd	-3.991565
75	0xc0955a22	-4.6672525
76	0x3f3696a9	0.7132364
77	0x3eb10906	0.34577197
78	0xc0f62434	-7.6919193
79	0xc1211c25	-10.069371
80	0x3fbc8452	1.4727881
81	0x4038db1d	2.8883736
82	0xc0721fa0	-3.7831802
83	0xc0296bc4	-2.6472025
84	0x4159e729	13.618936
85	0x41070d39	8.440728
86	0x406e1c0d	3.720462
87	0xbeb40d62	-0.3516646
88	0x40b13a73	5.538385
89	0x3f6d9f95	0.9282163
90	0x40a60fa4	5.1894093
91	0xbe8479cd	-0.25874177
92	0x3dc9491c	0.09828398
93	0xbd3f79a0	-0.04674685
94	0xc052b4eb	-3.2922924
95	0x4038a48a	2.8850427
96	0xbe10ff7b	-0.14159958
97	0x3d5be780	0.053687572
98	0x412f9d3e	10.975889
99	0xc04fb233	-3.2452514
100	0x413210f8	11.129143
101	0x3fc82b21	1.5638162
102	0xc05603cf	-3.3439825
103	0xbe452c0b	-0.19255082
104	0xbbf72d80	-0.007543266
105	0x400c3788	2.1908894
106	0x3d146050	0.036224663
107	0x3f472ec7	0.7780575
108	0xbfbbac87	-1.4662026
109	0x400fa7ce	2.244617
110	0x409268c1	4.5752873
111	0xbe613215	-0.21991761
112	0xbe8a65a4	-0.2703067
113	0x40577787	3.3666704
114	0x3fb9315f	1.4468192
115	0x4088c0eb	4.2735496
116	0x40067c0c	2.1013212
117	0xc0328414	-2.7893114
118	0xc067ddc7	-3.6229112
119	0xc0058b05	-2.08661
120	0xbe64eab6	-0.2235516
121	0xbe86f611	-0.2635961
122	0xc03e54c4	-2.9739237
123	0x3e636d0c	0.22209567
124	0x41625c1b	14.147487
125	0xbe8d6e1c	-0.2762307
126	0xc033941d	-2.805915
127	0xc1580089	-13.500131
128	0xc0b699fa	-5.706296
129	0x3fbbb3bc	1.4664226
130	0x3ce5f570	0.028071135
131	0xbe3da892	-0.18521336
132	0x402626da	2.5961213
133	0x406bbb5a	3.68331
134	0xc0952673	-4.6609435
135	0x3fe8c083	1.818375
136	0xc0916c56	-4.5444746
137	0x4044b4c0	3.073532
138	0x3fef4ab7	1.8694676
139	0x408de292	4.4339075
140	0x3f931c4d	1.1493012
141	0x3f60731b	0.87675637
142	0x3fc3656e	1.5265329
143	0x3e942923	0.28937635
144	0x3e212f8a	0.15740791
145	0x3fd5a9f5	1.6692492
146	0x41466526	12.399694
147	0x3ca779d0	0.020443827
148	0x3f25ae54	0.6471913
149	0xbe81cc9e	-0.25351423
150	0xbd62d010	-0.055374205
151	0xbe0aa6a3	-0.1354013
152	0x3e0dca80	0.13846779
153	0x401c6ef5	2.4442723
154	0xbc7ef460	-0.015561193
155	0x40f5c9bb	7.6808753
156	0x3eb3dec1	0.35130885
157	0x3fd3c698	1.6544981
158	0xbdf2d764	-0.11857489
159	0x400e8683	2.22696
160	0x3f5c74b0	0.8611555
161	0xc1684056	-14.515707
162	0x3ddec514	0.108774334
163	0xbdbc2e38	-0.09188503
164	0x4028ec12	2.6394086
165	0xc07fd8eb	-3.9976146
166	0x3dae29b3	0.08504047
167	0x3fc659f9	1.5496207
168	0x3fb63277	1.4234151
169	0x3bbc1fc0	0.0057410896
170	0xbbaf0b80	-0.005341947
171	0xbdacbfe0	-0.08435035
172	0x3fc8a0e3	1.5674099
173	0xc1af10d8	-21.883224
174	0xbe6baebf	-0.23015879
175	0xc0bd3b73	-5.913507
176	0xbf74f06e	-0.95679367
177	0xbe89fe20	-0.26951694
178	0x3faf6433	1.3702453
179	0x410626e9	8.3845
180	0x4182d77c	16.355217
181	0xc0ddc818	-6.9306755
182	0x40523d78	3.2850018
183	0xbde01c7a	-0.109429315
184	0x40c10dfb	6.0329566
185	0x3e4c61ce	0.19959185
186	0x4112ecea	9.18284
187	0xbe4d3975	-0.2004145
188	0xbfbdba4b	-1.4822477
189	0x3e757114	0.23968917
190	0x4048fc61	3.140404
191	0xbfb063c6	-1.3780448
192	0xbe30c3d7	-0.17262207
193	0x3e805635	0.2506577
194	0x3f4a4e4e	0.79025733
195	0x4051fb3f	3.2809598
196	0x3d27b3b8	0.040942878
197	0x3fc5714c	1.54252
198	0xbeae7955	-0.34076944
199	0xc01ed1da	-2.4815583
200	0x3fbb41d6	1.4629467
201	0x4086c0d0	4.2110367
202	0xc0251cfd	-2.5798943
203	0xbfbfc277	-1.4981221
204	0x3fd1244c	1.6339202
205	0xc14d9960	-12.849945
206	0xc053c93c	-3.3091574
207	0xbf96cf5f	-1.1782035
208	0xc0942163	-4.6290755
209	0xbf093895	-0.5360196
210	0x4005084a	2.078631
211	0x40250ef4	2.5790377
212	0x3ebd0233	0.3691574
213	0xc133b865	-11.232518
214	0x3fbb2f68	1.4623842
215	0x40c9adb5	6.3024545
216	0x3e788d7c	0.24272722
217	0xbe6be6c4	-0.23037249
218	0xbe80bb1d	-0.25142756
219	0xc1628d33	-14.159472
220	0x3e955ed8	0.29173923
221	0x40a21bd6	5.065898
222	0xbf2295f2	-0.6351005
223	0x40b17589	5.5455976
224	0xc00a23ce	-2.1584353
225	0x408fc726	4.49306
226	0xc09ada11	-4.8391194
227	0xbe3d6f0d	-0.18499394
228	0xc14153fb	-12.083003
229	0x4025daba	2.591475
230	0x3eaca8a7	0.33722422
231	0xc01beb9f	-2.4362562
232	0xbeaa2aee	-0.33235878
233	0xbc5bf420	-0.013424903
234	0x3e9ddb51	0.30831388
235	0x40b4b1a1	5.646683
236	0xc0c3b775	-6.1161447
237	0xc017854a	-2.3675103
238	0xc101ac9f	-8.104644
239	0xc090fbe1	-4.530747
240	0x3ffffb64	1.9998593
241	0x40b69f71	5.706963
242	0xc03adc1e	-2.919685
243	0x3e8ead63	0.2786666
244	0xbe219978	-0.157812
245	0xbd484530	-0.048894107
246	0xbf2b31ac	-0.6687267
247	0xc00a6431	-2.1623652
248	0xc0074f98	-2.114233
249	0xbfad937c	-1.3560634
250	0x40489898	3.1343136
251	0x40bbbeca	5.8670397
252	0x416ce3ed	14.805646
253	0x3caa9270	0.02082178
254	0xc0af7efc	-5.484251
255	0xbe2f286d	-0.17105265

fc2.weight f4 [256, 256]
0	0xbf112aee	-0.5670613
1	0x3ecd6c0b	0.40121493
2	0x3da1084a	0.07862909
3	0xbd867242	-0.06564762
4	0xbbe68d7e	-0.00703591
5	0x3eaaceb6	0.33360833
6	0x4013f0f5	2.3115819
7	0x3e6adfbc	0.2293691
8	0x3a154200	0.00056937337
9	0xbd56402d	-0.052307297
10	0x3f179b46	0.59221303
11	0x3e7f5408	0.24934399
12	0xbdfdb391	-0.12387765
13	0x38a54072	7.879817e-05
14	0xbc1ea614	-0.009683151
15	0xbd30b20c	-0.04313855
16	0x3dce8283	0.10083487
17	0xbc9794d0	-0.018503577
18	0xbdb303e8	-0.087409794
19	0x3f1e9815	0.6195081
20	0x3d9ce6d1	0.07661212
21	0x3db4d513	0.08829703
22	0xbdd93250	-0.106052995
23	0xbd6ed422	-0.058307774
24	0xbdcf38c2	-0.101182476
25	0x3db14a8b	0.08656796
26	0xbdff6f82	-0.1247244
27	0xbdb9d2fc	-0.09073445
28	0x3d785bb4	0.06063433
29	0x3cdda6b4	0.02705703
30	0xbde0c9ef	-0.10976016
31	0x3d6b306a	0.057419218
32	0xbd7d55a7	-0.061849263
33	0x3d4004f5	0.046879727
34	0x3da583a6	0.080817506
35	0xbd8187ec	-0.06324753
36	0xbdb16e9b	-0.086636744
37	0x3d8519eb	0.06499084
38	0xbd5f5053	-0.054519963
39	0xbf1e9873	-0.6195137
40	0x3c0a74ee	0.00845073
41	0xbda66a97	-0.08125799
42	0x3d90f0c5	0.07077173
43	0x3e61c065	0.22046049
44	0xbcc564d6	-0.024095934
45	0xbfe91897	-1.8210629
46	0x3c90a430	0.017656416
47	0xbd9d2a66	-0.076741025
48	0x3d96d1e3	0.073642515
49	0x3da89ecd	0.08233414
50	0xbd4a015e	-0.04931771
51	0xbefdecb4	-0.49594653
52	0xbdfa5215	-0.12222687
53	0x3e39e5d1	0.18154074
54	0x3c8bd3c4	0.017068751
55	0xbdb53f82	-0.08850004
56	0x3c8449fc	0.01614856
57	0x3c7a7811	0.015287415
58	0x3d3d2586	0.046178363
59	0xbec5c94c	-0.3863014
60	0x3d75dca5	0.060024876
61	0xbf4f47d5	-0.8096898
62	0xbd3e6fb1	-0.046493236
63	0x3d9f41a3	0.07776191
64	0x3ca755b7	0.020426614
65	0x3e597cd5	0.21239026
66	0xbc392ef2	-0.011302697
67	0xbd4a6525	-0.049412865
68	0xbd103b4a	-0.035212792
69	0x3e33d43b	0.17561428
70	0xbd83526f	-0.06412207
71	0xbf0b6817	-0.54455703
72	0xbd1a2b8d	-0.03763919
73	0xbdb5ad90	-0.08870995
74	0xbcf8d8fa	-0.0303769
75	0xbdd2bc8e	-0.1028987
76	0x3da438a6	0.08018617
77	0x3ef85aab	0.48506674
78	0x3e0163b4	0.1263569
79	0xbfacc4be	-1.3497541
80	0x3d89f569	0.067362614
81	0x3e8e74f8	0.27823615
82	0xbd20674f	-0.039161023
83	0x3c22c405	0.00993443
84	0xbe19c701	-0.1501732
85	0xbe2a6b90	-0.16642594
86	0xbf9ef7fb	-1.2419428
87	0xbd760b2a	-0.06006924
88	0x3f113a3a	0.5672947
89	0xbe0538a8	-0.13009894
90	0x3d878ca0	0.06618619
91	0xbd9cd9cd	-0.0765873
92	0xbdcf23f6	-0.10114281
93	0xbd7bd244	-0.06147982
94	0xbd14fada	-0.036372043
95	0x3e817461	0.25284103
96	0x3dd26da3	0.10274818
97	0x3b781fc0	0.0037860721
98	0x3f07a051	0.52979
99	0xbfed1a7b	-1.8523706
100	0xbe59289c	-0.21206897
101	0xbe0c79b7	-0.13718306
102	0x3f9d2ea1	1.2279855
103	0xbcd27450	-0.025690228
104	0xbd43a8b7	-0.04776832
105	0xbce0c836	-0.027439218
106	0x3d2d1646	0.04225757
107	0x3da6b255	0.08139483
108	0xbeea9120	-0.45813847
109	0x3cea6d0a	0.028616447
110	0x3cce4482	0.025179151
111	0xbdc32f18	-0.09530467
112	0xbcda5664	-0.026652522
113	0xbd5a10f3	-0.05323882
114	0xbdbdab74	-0.09261218
115	0xbca6e030	-0.020370573
116	0xbe32ae15	-0.1744922
117	0x3e6573e6	0.22407493
118	0x3d3a67b4	0.045509055
119	0x3ce23f64	0.027618118
120	0xbdc801f9	-0.09766001
121	0x3db2ee81	0.08736897
122	0xbfa28c4c	-1.2699065
123	0xbdbd1fcb	-0.0923458
124	0x3da94d30	0.082666755
125	0x3cbb0df4	0.022833802
126	0xbe2f0cf4	-0.17094785
127	0xbdfe8a46	-0.12428717
128	0xbfaf62b4	-1.3701997
129	0xbcf0774e	-0.029353764
130	0x3d6f0f42	0.05836416
131	0xbd3d0165	-0.046143908
132	0x3ec2c30b	0.3803943
133	0x3c711b0f	0.014715924
134	0x3f9bb891	1.21657
135	0x3d290666	0.041265868
136	0xbb7c54f9	-0.0038502796
137	0xbe27bfbf	-0.16381739
138	0x3d860659	0.065441795
139	0xbddbb9b0	-0.107287765
140	0xbf394a06	-0.72378576
141	0x3d8a94ff	0.067667
142	0x3c376320	0.011193067
143	0x3d306366	0.043063544
144	0x3b314500	0.0027049184
145	0x3cd04874	0.025425173
146	0x3e8f8018	0.28027415
147	0xbd7dff45	-0.062011022
148	0xbeaf2cb0	-0.3421378
149	0x3da549a7	0.08070689
150	0x3dd614d5	0.10453192
151	0xbdd6c305	-0.10486416
152	0xbce99ea8	-0.028518036
153	0xbdabe9ee	-0.08394228
154	0xbd80b4fc	-0.0628452
155	0xbb6abcf3	-0.003581819
156	0xbdca18ed	-0.098680355
157	0x3d9006ea	0.07032569
158	0x3dd21287	0.1025744
159	0xbc4d13b8	-0.012516908
160	0x3d84f7c3	0.06492569
161	0x3d56a58b	0.052403968
162	0xbd649efc	-0.05581568
163	0x3d3ae5e6	0.045629404
164	0xbfd6abf0	-1.6771221
165	0xbc5f5583	-0.013631227
166	0x3cf3e50c	0.029772304
167	0x3f0db469	0.5535341
168	0xbda385c8	-0.07984501
169	0xbd840217	-0.06445711
170	0x3d583116	0.052781187
171	0x3cdfe764	0.027332015
172	0x3bf06bb2	0.007337057
173	0x3f22bc95	0.63569003
174	0x3c99623c	0.0187236
175	0xbdd93a1e	-0.10606788
176	0x3f033f2a	0.51268256
177	0xbddcb0a8	-0.10775882
178	0xbe29c5e9	-0.16579403
179	0xbf38fdf4	-0.722625
180	0xbd0a1bf1	-0.033718053
181	0x3e3f2792	0.18667439
182	0xbdbc03fb	-0.09180447
183	0xbd3163a6	-0.043307923
184	0x3e05a9eb	0.130531
185	0x3c133f10	0.008987203
186	0xbfdb02cb	-1.7110227
187	0xbdb5bcfd	-0.08873937
188	0xbf466997	-0.7750487
189	0x3d84512e	0.06460796
190	0xbedb1fbc	-0.4279765
191	0x3d8e80c7	0.06958156
192	0x3c30b100	0.010784388
193	0xbc973f98	-0.018462941
194	0xbf5acdb8	-0.8547015
195	0x3bfc95a2	0.0077082673
196	0x3dd7c1f5	0.10535041
197	0x3d9c8125	0.0764182
198	0xbdc0eced	-0.0942019
199	0xbdfecf8b	-0.124419294
200	0xbdbde280	-0.09271717
201	0xbdf94a4b	-0.121723734
202	0xbdd69168	-0.10476953
203	0xbdc77d80	-0.09740734
204	0xbdc8a400	-0.097969055
205	0x3e9d0f50	0.30675745
206	0x3cdb54ad	0.026773775
207	0x3d95e411	0.07318891
208	0xbde3683a	-0.11103864
209	0xbd8b4c59	-0.068016715
210	0xbed5fd9f	-0.4179506
211	0x3d8562f4	0.065130144
212	0xbd41001e	-0.047119252
213	0xbf260cc3	-0.6486322
214	0x3da55817	0.080734424
215	0xbe8126cc	-0.25224912
216	0xbe34d5e8	-0.17659724
217	0x3c969564	0.018381782
218	0xbda6dec9	-0.08147962
219	0x3d916b90	0.07100594
220	0xbdba0a29	-0.09083969
221	0xbcc4097e	-0.023930307
222	0xbf22c869	-0.6358705
223	0xbdc2a71d	-0.095045306
224	0xbd5fa1c8	-0.054597646
225	0xbd9ce804	-0.07661441
226	0xbca151d5	-0.01969234
227	0xbdbcbf7b	-0.092162095
228	0xbfb7f090	-1.4370289
229	0xbd6a4c5e	-0.057201736
230	0x3d50ac6a	0.050945677
231	0xbe7de9d4	-0.2479623
232	0x3c9a7f14	0.018859424
233	0x3d504c3e	0.05085396
234	0x3f22e7a8	0.6363473
235	0x3e124f52	0.14288071
236	0x3e794be4	0.24345356
237	0xbd065ae1	-0.032801513
238	0xbe98e5ba	-0.29862767
239	0x3d940c89	0.072289534
240	0x3ea1bc55	0.31588998
241	0xbe586430	-0.21131968
242	0xbf20096b	-0.6251437
243	0xbd756115	-0.059907038
244	0x3ce6c314	0.028169192
245	0xbc9139e0	-0.017727792
246	0xbdd2fb37	-0.10301822
247	0xbd0a98c6	-0.033837102
248	0x3cd38eeb	0.025824985
249	0xbf0a9408	-0.5413213
250	0xbe085e63	-0.13317256
251	0x3c8de28e	0.017319944
252	0xbd905bba	-0.070487455
253	0x3c3c05e8	0.011476018
254	0xbd96cf02	-0.07363702
255	0x3d0d1b26	0.03444972

fc2.bias f4 [256]
0	0xbf4e1b48	-0.8051038
1	0xbf408a2f	-0.7521085
2	0x404160ba	3.0215287
3	0x3f48f38c	0.78496623
4	0x3f10ff6f	0.5663976
5	0x3eb9762e	0.36222976
6	0x400cb71c	2.198676
7	0xc0820512	-4.063119
8	0x3bfbab4f	0.0076803337
9	0xbd9cd9f3	-0.07658758
10	0x3ef8f8f6	0.48627442
11	0xc0923334	-4.5687504
12	0x3f777053	0.9665577
13	0xbfd255df	-1.6432456
14	0x404518d5	3.0796406
15	0x3f839ef3	1.0282882
16	0xbcfcc826	-0.030857157
17	0xbf607cb9	-0.8769031
18	0xbee73a72	-0.45161778
19	0xbf441da3	-0.7660772
20	0xbf4ae475	-0.7925485
21	0xbf7467f2	-0.9547111
22	0x3fce6224	1.61237
23	0x3ebaff2f	0.36522815
24	0x40481e07	3.1268327
25	0x4035a153	2.8379714
26	0xbf344c29	-0.7042871
27	0x3fd0ec43	1.6322101
28	0xbdad7021	-0.084686525
29	0xbf7c5d47	-0.9857983
30	0x40042db2	2.065289
31	0x3f98de1c	1.1942782
32	0xbf239d0a	-0.639115
33	0x3f2c1c4e	0.6723069
34	0xbf3a5608	-0.72787523
35	0xbd96f6fe	-0.07371329
36	0x3f7a8ee0	0.9787426
37	0x3b903734	0.004401112
38	0x40393067	2.8935792
39	0x402aad25	2.666818
40	0xbd90e386	-0.07074647
41	0x3ffe0b17	1.9847134
42	0xbf81f41e	-1.0152624
43	0x4064dc0d	3.5759308
44	0xc0171334	-2.360547
45	0x409bd508	4.869755
46	0x3f9a2812	1.2043478
47	0xbf4a451b	-0.79011697
48	0xbf52e3ac	-0.8237865
49	0xbc4d826b	-0.012543301
50	0xbf6b41d6	-0.9189733
51	0xbfa5d01d	-1.2954136
52	0xbf52e499	-0.8238006
53	0xc08a7c25	-4.3276544
54	0xbd8c49c1	-0.06850005
55	0x4044790d	3.0698884
56	0xbde346a0	-0.11097455
57	0x403b3443	2.9250648
58	0x3f5a4286	0.85257757
59	0xbf6c6b10	-0.92350864
60	0xbf5835e7	-0.8445725
61	0xbf60a7b6	-0.87755907
62	0xbf735874	-0.95056844
63	0x40113486	2.2688308
64	0xbd69b3ae	-0.05705612
65	0x3f7c2185	0.98488647
66	0x4045b2f0	3.0890465
67	0x4034031b	2.8126895
68	0xbf811806	-1.0085456
69	0xbea73061	-0.32654098
70	0xbf2e5183	-0.68093127
71	0x3f1660df	0.58741564
72	0xc0169e7a	-2.3534226
73	0xbdc503c9	-0.096198626
74	0xbd437314	-0.04771717
75	0x400a29a1	2.1587908
76	0xbfed1ddb	-1.8524736
77	0xbe383ebb	-0.1799268
78	0xbf0bf31e	-0.5466784
79	0xbf90aae0	-1.1302147
80	0xbf34960b	-0.7054145
81	0xbe33e976	-0.17569527
82	0xbf94ac9d	-1.1615177
83	0xbf0541a4	-0.52053285
84	0x3f64bfc1	0.89355093
85	0xbcbd0c92	-0.023077283
86	0xc038c528	-2.8870335
87	0x405196c8	3.274828
88	0x4035a81f	2.8383863
89	0xbc1fe3a2	-0.009758862
90	0xbd634325	-0.055483956
91	0x3f63b548	0.8894849
92	0x3fd701f4	1.6797471
93	0x3fa2e787	1.2726907
94	0xbfaa06d5	-1.3283335
95	0xbebbc29d	-0.36671916
96	0xc0049545	-2.0716107
97	0xbfac0750	-1.3439732
98	0xbde032e2	-0.10947205
99	0xbd22cc96	-0.03974589
100	0x406f383c	3.7378073
101	0x3f0c89ec	0.5489795
102	0x408a9af5	4.3314157
103	0x3a210a52	0.00061432004
104	0xbfcea45b	-1.6143907
105	0x404c4361	3.1916125
106	0xbde69b3e	-0.11260079
107	0xbf190299	-0.5976959
108	0xbde970e9	-0.11398489
109	0xbf617c81	-0.880806
110	0x3f1c59a3	0.61074275
111	0xbf816740	-1.0109634
112	0xbf553f5c	-0.83299804
113	0xbff425eb	-1.9074072
114	0xbf797b29	-0.9745355
115	0x3f140258	0.57816076
116	0xbfd830ce	-1.6889894
117	0x3f41f8a3	0.75770015
118	0x40624eec	3.536067
119	0xbfb9c90f	-1.4514483
120	0x3c8c3f1e	0.01711994
121	0xbf41f0b3	-0.757579
122	0x3f533360	0.8250027
123	0x3fe5ac7b	1.7943262
124	0x3fe2c97e	1.771774
125	0xbf54d87f	-0.83142847
126	0x3f879859	1.0593368
127	0x4052bb5e	3.292686
128	0xbf4161bb	-0.7553975
129	0x403729b8	2.8619213
130	0x4045af18	3.0888119
131	0x4032fee4	2.7968073
132	0xbd4021db	-0.046907287
133	0xbeeb88a3	-0.46002683
134	0x4033e68c	2.8109465
135	0x40422037	3.0332162
136	0x3f3dfbca	0.74212325
137	0x3fcca2eb	1.5987219
138	0xbfd1c534	-1.6388307
139	0x3f3bbb3a	0.7333256
140	0x404b9ef2	3.1815763
141	0x3f8cbc02	1.0994875
142	0x40418292	3.0235944
143	0x3f1c06ad	0.60947686
144	0xbf9a9036	-1.207526
145	0xbdab89e7	-0.08375912
146	0xbf4e65ef	-0.8062429
147	0x3cf96769	0.030444818
148	0xc0062914	-2.0962572
149	0xc0469dd7	-3.1033838
150	0xbde7f5c8	-0.11326176
151	0x404809ad	3.1255906
152	0x403762a3	2.8653953
153	0x3f309412	0.6897594
154	0x3fb9dd2b	1.452062
155	0x40421a68	3.0328617
156	0x403e65ee	2.9749713
157	0xbf8a2cd2	-1.0794928
158	0x402f11fb	2.7354724
159	0xbc93dc38	-0.018049344
160	0xbf2734c0	-0.65314865
161	0x40c065ab	6.0124106
162	0x404fc68e	3.2464938
163	0x401808d9	2.37554
164	0xc00d31e8	-2.206171
165	0xbe7d3d43	-0.247304
166	0x404c4190	3.1915016
167	0xbecc4ae0	-0.39900875
168	0x3fd5f357	1.6714886
169	0xbf959852	-1.168711
170	0x403ff64e	2.9994082
171	0xbd72cb08	-0.059275657
172	0x3a38a749	0.00070439704
173	0xbfcca540	-1.598793
174	0x3f9246b2	1.1427824
175	0x3a36f6f6	0.0006979549
176	0x4091e14e	4.558753
177	0x3df0a3a6	0.117499635
178	0x3f22da63	0.6361448
179	0xbc8ac409	-0.01693918
180	0xbfb69253	-1.4263405
181	0xbf44ed37	-0.7692446
182	0x3ed67c69	0.41891792
183	0x403537bb	2.8315265
184	0x40403ff3	3.0039032
185	0x3f0e557d	0.55599195
186	0x405023fa	3.2521958
187	0x3eb4cc17	0.35311958
188	0xbf24ec26	-0.64422834
189	0xbc3ac4da	-0.011399472
190	0xbdadf598	-0.08494109
191	0x404210fb	3.0322864
192	0xbdc07d53	-0.09398904
193	0x405a829a	3.4142213
194	0xbfa0ad00	-1.2552795
195	0xbf191506	-0.59797704
196	0x40084179	2.1289961
197	0x3f09d333	0.5383789
198	0xc0acb05b	-5.396528
199	0x4034f2fa	2.82733
200	0xbd6db58d	-0.05803447
201	0x4042dade	3.0446086
202	0x3e7a1fe0	0.24426222
203	0xbdb58ced	-0.0886477
204	0x407baad0	3.9323006
205	0xbc665ff0	-0.014060959
206	0x3f1b8820	0.60754585
207	0x403643f8	2.8478985
208	0xbf9272c1	-1.144127
209	0x408ff97b	4.499204
210	0xc008c783	-2.1371772
211	0xc028e322	-2.638863
212	0x3fef9ce7	1.8719758
213	0xbd437297	-0.047716703
214	0xbdd5e740	-0.10444498
215	0xbf602d1c	-0.8756883
216	0x3d61134b	0.05495004
217	0x4041c51a	3.0276551
218	0x3fa3be0a	1.279237
219	0x403686b6	2.851972
220	0xbd1202ae	-0.035647087
221	0x4036d50b	2.856753
222	0xbf313f29	-0.69237
223	0x401091ff	2.258911
224	0x403ba492	2.9319196
225	0xbef95b16	-0.48702306
226	0x3fade63f	1.358589
227	0xc0522e8c	-3.284091
228	0xbf71d13c	-0.9445989
229	0x4014e587	2.3265092
230	0x4047536e	3.1144671
231	0x3f691725	0.9105094
232	0x3f69db54	0.91350293
233	0xbd1cdb57	-0.038295116
234	0xbda07836	-0.078354284
235	0x40301e87	2.7518632
236	0xbf159b8a	-0.5844046
237	0xbf4b2e24	-0.7936728
238	0x4020629d	2.5060189
239	0xbc258f36	-0.010104945
240	0xc00ba7c5	-2.1821148
241	0x403632e4	2.846856
242	0x3fa408b0	1.2815151
243	0x4040379e	3.0033946
244	0xbf6dbf91	-0.9287043
245	0x3fe545f2	1.7911971
246	0x400db71d	2.2143013
247	0xbf6f745a	-0.93536913
248	0xc0374f27	-2.864206
249	0xbd976583	-0.07392409
250	0xbdd0535c	-0.101721495
251	0x401af9f1	2.4215052
252	0xbfec670b	-1.8468946
253	0x3ff6cf5d	1.9282032
254	0x4026cc71	2.606228
255	0xbf933f17	-1.1503628

fc3.weight f4 [1, 256]
0	0x3f52dd56	0.8236898
1	0x3e4ff481	0.20308115
2	0xbff0c56e	-1.8810251
3	0x3f9bdcd6	1.2176769
4	0xbfe8cacf	-1.8186892
5	0x3f0464db	0.51716393
6	0xbefcb4dd	-0.49356738
7	0xbf50a8fc	-0.8150785
8	0xbd941bdd	-0.07231877
9	0x3cc2d5b6	0.023783546
10	0xbeef8fcc	-0.46789396
11	0x3fe6de18	1.8036528
12	0x3f962582	1.1730196
13	0x3ffe2019	1.9853545
14	0xbf632f19	-0.8874374
15	0x401b8cc4	2.4304667
16	0xbcf7b66f	-0.030238358
17	0x3e07d77a	0.13265792
18	0x3f64d39b	0.89385384
19	0x3ec25393	0.37954387
20	0x3e63df02	0.2225304
21	0x3ce344b2	0.027742717
22	0xbecd3636	-0.40080422
23	0x3f9a99e8	1.2078218
24	0xbf9cd12e	-1.2251337
25	0xbf8b9c77	-1.0907124
26	0x3ee939c5	0.45551887
27	0xbeb32a8d	-0.349934
28	0xbd7bc740	-0.061469316
29	0x3c55d114	0.013050336
30	0xbf1319a9	-0.5746103
31	0xc05778e6	-3.366754
32	0x3f156c44	0.58368325
33	0xbeb829de	-0.35969442
34	0x3f40a4bf	0.7525138
35	0xbb560760	-0.0032658204
36	0xbeb9b163	-0.36268148
37	0x3be78628	0.007065553
38	0xbfd887d9	-1.6916457
39	0xbe889661	-0.2667723
40	0xbd762b4b	-0.06009988
41	0xbf471845	-0.7777141
42	0x3e35d203	0.17755894
43	0xbff686c2	-1.9259875
44	0x3efc4a75	0.49275556
45	0xbeb82f52	-0.35973603
46	0xbfb782a1	-1.433674
47	0x3e821932	0.25409847
48	0x3e0d4f35	0.13799746
49	0x3d8fdddd	0.07024739
50	0x3dc24f73	0.0948781
51	0xbf99435f	-1.1973685
52	0x3efa1151	0.48841336
53	0xbf72bd9a	-0.9482056
54	0xbc08ed6a	-0.008357385
55	0xbf90e883	-1.1320957
56	0x3d81ac03	0.06331637
57	0xbf97fd17	-1.1874112
58	0x3f6d86f2	0.92784035
59	0x3d483c9a	0.04888592
60	0x3d444454	0.047916725
61	0x3e173928	0.14767897
62	0x3ea54bb1	0.3228431
63	0xbf6190a4	-0.8811133
64	0xbb4a1091	-0.0030832628
65	0x3f2dcb65	0.6788848
66	0xbfb59902	-1.4187319
67	0xbf08e54b	-0.53474873
68	0x3e28833d	0.16456313
69	0x3ec03e80	0.37547684
70	0x4030e1bb	2.7637775
71	0xbfa14c38	-1.2601385
72	0x3f81d8c3	1.0144275
73	0x3cb71e1a	0.02235322
74	0x3ccdfee6	0.02514596
75	0xbfcbf004	-1.5932622
76	0x3fda5df5	1.7059923
77	0x3c5dd0b1	0.013538525
78	0x4007a503	2.1194465
79	0x3f8c1d63	1.0946468
80	0xbf64de5f	-0.8940181
81	0xbde9330e	-0.11386691
82	0x3fff3bd8	1.9940138
83	0x3f99eaa6	1.2024734
84	0xbf4fcebd	-0.8117483
85	0x3d2b7a0d	0.041864444
86	0x3fdf4aa2	1.7444651
87	0xbfa78996	-1.3088863
88	0xbf987645	-1.1911093
89	0x3d0be0bb	0.034149867
90	0xbc05de66	-0.0081707
91	0xbe901df7	-0.2814786
92	0x3f21f698	0.632669
93	0xbf8a0470	-1.0782604
94	0x3f800401	1.0001222
95	0x3ee7be2f	0.45262286
96	0xc07b254a	-3.924151
97	0x406a7901	3.6636355
98	0x3adb2049	0.0016717996
99	0x3a694a73	0.00088993384
100	0xbffb09db	-1.9612383
101	0xbeb516c9	-0.35368946
102	0xc0341484	-2.8137522
103	0x3d7de0c4	0.06198193
104	0x3e8448b9	0.25836733
105	0xc01d79ad	-2.4605515
106	0xbbdfbc46	-0.006827864
107	0x3f0bbd93	0.5458614
108	0x3b9a08cd	0.004700756
109	0x3ea261a7	0.31715128
110	0x40259226	2.5870452
111	0x3e734ecc	0.23760527
112	0x3da31fdb	0.0796506
113	0x3f5ee450	0.8706713
114	0x3e55cf14	0.20879775
115	0x3e932a6b	0.287433
116	0xbf0ae565	-0.5425628
117	0x3ff5024d	1.9141327
118	0xbfe9d648	-1.8268518
119	0x3ec214b4	0.3790642
120	0xbb21595c	-0.0024619913
121	0x3f8e808c	1.1132979
122	0xbeb6d3cd	-0.35708466
123	0xbf265ec1	-0.64988333
124	0x3f4069bd	0.75161344
125	0x3e178c35	0.14799578
126	0xc001506c	-2.0205336
127	0xbfad3c18	-1.3533964
128	0x3e2037a9	0.15646233
129	0xbf1aa2c9	-0.6040464
130	0xbfcf0599	-1.6173583
131	0xbf19fbb2	-0.6014968
132	0xbdaed3fc	-0.085365266
133	0xbfae5f88	-1.3622904
134	0xbf9f5255	-1.2447001
135	0xbf8e39ca	-1.1111386
136	0xbfab9475	-1.340468
137	0xbe91a44d	-0.28445664
138	0x3f01b874	0.5067208
139	0x3f2f59f4	0.6849663
140	0xbf72b2c7	-0.9480404
141	0xbfc35a2e	-1.5261896
142	0xbf8dbb1b	-1.1072725
143	0xbed9e35d	-0.42556277
144	0x3fc5303c	1.5405345
145	0x3c00d1f0	0.007862553
146	0x3e119168	0.14215624
147	0x3fb73aef	1.431486
148	0x3eab06c5	0.33403602
149	0xbf00dfe8	-0.50341654
150	0xbc8879aa	-0.016659576
151	0xbfb9ef7c	-1.452621
152	0xc00002ee	-2.0001788
153	0xbf0952d6	-0.5364202
154	0x3f36ea05	0.71450835
155	0xbffa6730	-1.956274
156	0xc0089595	-2.1341298
157	0xbfadb55f	-1.3570975
158	0xbf294b71	-0.6613074
159	0xbb9a9224	-0.0047171284
160	0xbfc17d15	-1.5116297
161	0xbf7ff51a	-0.9998337
162	0xbfb9f57c	-1.4528041
163	0xbf9d0790	-1.2267933
164	0x3f91d95f	1.1394461
165	0xbf3a9546	-0.72884023
166	0xbf9cba4e	-1.2244356
167	0x3f888e39	1.0668403
168	0x40050030	2.0781364
169	0x3eed1a37	0.46309063
170	0xbfa3527e	-1.275955
171	0x3cda5d48	0.026655808
172	0xbc432d59	-0.011912667
173	0x3f424e8e	0.75901115
174	0xbe9a85f1	-0.30180314
175	0xbd0b9ab7	-0.034083094
176	0xbfffc085	-1.9980627
177	0x3f9f06be	1.2423933
178	0xbfcdaf26	-1.6069076
179	0x3f1c166b	0.6097171
180	0x3ec8e71d	0.39238825
181	0x3df1dc38	0.118095815
182	0xbf8a1f6d	-1.079084
183	0xbfe74384	-1.8067479
184	0xbff8eddc	-1.9447589
185	0xc064c372	-3.574429
186	0xc00d0e54	-2.2039995
187	0xbfc12197	-1.5088376
188	0x401fe530	2.4983635
189	0x3cf67f4d	0.030089999
190	0x3c0f3e20	0.008742839
191	0xbf9aa595	-1.2081782
192	0xbc24d674	-0.010060895
193	0xbfe7cb70	-1.8108959
194	0xbf775139	-0.9660831
195	0xbf2ea992	-0.68227494
196	0x3f4d966d	0.80307657
197	0x3fc6847b	1.550918
198	0x400d066c	2.203517
199	0xbf14fbf9	-0.5819698
200	0xba4278f9	-0.0007418539
201	0xbfbef2a5	-1.4917799
202	0xbfb94e03	-1.4476932
203	0xba592408	-0.0008283262
204	0xc05d4a9f	-3.4576795
205	0x39820657	0.00024800256
206	0x3f876a67	1.0579346
207	0xbfebaf91	-1.8412954
208	0x3f11d6f4	0.5696862
209	0xbfd98f85	-1.6996924
210	0xbf2786f9	-0.65440327
211	0xbf30ee20	-0.6911335
212	0xbf6e791a	-0.93153536
213	0x3d293e87	0.041319396
214	0x3dc74e25	0.09731702
215	0x3e226714	0.15859634
216	0x3e19aaaf	0.15006517
217	0xbf942e94	-1.1576715
218	0x3fa53c73	1.2909073
219	0xbfdb434e	-1.7129915
220	0xbed33e51	-0.4125848
221	0xbf1cc7b4	-0.6124222
222	0xbffc1ac3	-1.9695667
223	0x3f555221	0.83328444
224	0xbfc0c434	-1.5059876
225	0x3eed7dcb	0.46385035
226	0x3eab86f4	0.335014
227	0xbfca8988	-1.5823221
228	0x3ee618dd	0.44940844
229	0x3f1dcdd7	0.6164221
230	0xbfbb54de	-1.4635274
231	0xc050a1d3	-3.259877
232	0x40077ad0	2.1168709
233	0xbb64e4e2	-0.0034926464
234	0xbabd4a5d	-0.0014441718
235	0xbef85947	-0.48505613
236	0x3fc66975	1.5500933
237	0x3d8f9bdd	0.070121504
238	0xc01bd4f7	-2.4348733
239	0xbbc3375b	-0.0059575266
240	0x3f789ef6	0.97117555
241	0xc0055793	-2.08347
242	0x3f945839	1.1589423
243	0xbfe7ca76	-1.8108661
244	0x3e81fef3	0.25389823
245	0xbf230c4f	-0.63690656
246	0xbf6304c3	-0.8867914
247	0x3dcaf0fa	0.09909244
248	0x3fed5466	1.8541381
249	0xbb67acd5	-0.0035350819
250	0xbef9419a	-0.48682863
251	0xbf0883c8	-0.5332608
252	0xbf09ada3	-0.53780574
253	0xbfbb85b2	-1.4650176
254	0xbf059ad9	-0.52189404
255	0x3edc7142	0.4305516
