model/sac_ff_dqn_ff/agent2_dqn_ff_ff_eps1000000.pth (torch, 376983 bytes, 6 tensors)

fc1.weight f4 [256, 7]
0.1058127 0.057293028 -0.018850133 0.0006598085 0.025954962 -0.13120773 -0.07123683 0.03611359
0.12100211 -0.11482692 -0.10535525 0.07686262 -0.12768242 -0.14432296 0.4204691 -0.4563416
0.014686197 0.4638442 0.34395954 -0.0031995315 0.26116344 -2.3822796 -1.3515673 0.056502555
0.8798484 0.20943244 -0.0014459279 -0.08524553 2.7086957 -0.41903558 0.0027525236 1.0058516
-0.9787897 0.0038478118 0.2095142 -1.2896199 0.12464907 -0.012235366 1.2646325 -0.6139502
0.00020387345 0.06538806 0.49789956 0.18388301 0.028566698 0.21056864 -0.950124 0.0070523117
-0.2595177 -1.8751822 0.8043652 -0.027047556 0.94905865 -0.8788575 0.0017377639 -0.23195119
1.3549185 0.4653609 -0.01068941 0.3006566 -0.70170057 -0.0022933502 0.04430767 -1.1925156
-0.35608625 -0.033470426 0.22913897 1.5549338 -0.009150403 -0.4220083 -0.79654515 0.11626447
-0.02137213 -3.9892013e-05 0.5594249 0.016410327 -0.060813196 -1.7319019 0.015266823 0.005743748
-0.23484561 0.5732724 -0.0025676833 0.09596028 -0.07266827 0.061683014 -0.044967517 -0.018972367
0.1324957 -0.05256205 -0.044925444 0.54429173 0.14937457 0.007920997 1.2202365 -1.1564417
-0.018348211 -0.022099419 0.41238353 0.059779555 -0.10459598 -0.036893155 -2.3795722 0.12521097
-0.2775906 -0.101162955 0.04764694 -0.011959285 -0.00047509372 0.026059538 -0.12742178 -0.07988195
1.9888146 -0.15990119 0.009198911 1.1235999 -0.8675821 0.015953941 -1.1625369 -0.85403705
-0.15478066 0.0297282 -0.71516883 1.0650446 0.00090915815 -0.2997521 4.4260254 -0.82949567
0.008688441 0.4174896 0.55011934 -0.007467003 0.46196756 -1.11234 -1.377968 -0.0030614804
-0.09825946 -0.24324583 0.0790062 0.12773614 0.6375646 0.31851622 0.049780104 -0.3109553
-1.9455987 -0.004029561 -0.1753875 -0.67753786 0.3089643 -0.020405322 0.0033232972 0.8223545
-0.00027339833 -0.23522136 -0.13153061 0.054801375 -0.10269596 -0.06443841 0.06847082 -0.0983617
-0.03664711 -0.14013466 -0.06180291 -0.07116441 -0.14056753 -0.066225536 -0.09211536 -0.0004898459
-3.930466 0.25963992 -0.01719184 0.35231093 0.48051316 -0.0023781154 0.28804564 0.09062263
0.058928207 -0.09755219 -0.14594246 -0.085674696 -0.12714644 0.119099796 -0.87311745 -0.88852507
0.0076543614 0.3311729 1.1922216 -0.0063513815 0.03350006 1.8347813 0.28519687 -0.024088232
-0.38823965 0.71504015 -0.0060608857 -0.10639393 0.98916304 0.61648864 -0.021639006 -0.6194197
0.50007373 -0.0005071689 -0.01216493 -0.31892562 -0.20676956 -0.055281423 -0.9037384 0.5189064
0.08309261 -0.37846255 0.32633048 -0.15814929 0.077361874 -0.32438967 -0.73038936 -0.011140529
-0.29442716 -0.30781206 0.25393605 -0.022022432 0.09702098 0.6484516 0.0089386245 -0.058547627
-0.15264277 -0.0017788773 0.042094994 0.40182406 -1.2315185 3.4783287e-05 -0.105916806 0.10318759
0.06274839 -0.07635665 0.09540507 -0.010822773 -0.09807876 -0.032203592 -0.18184945 -0.20688602
-0.08056171 -0.98401386 -0.06370866 0.11079271 -0.21179421 0.10243583 0.050402746 -0.14151463
0.018179908 0.14399537 -0.067420065 0.0017154366 3.596906 -0.6806645 -0.10743042 1.3311902
00000000: 54b4 d83d 18ac 6a3d 986b 9abc 00f7 2c3a
00000010: 809f d43c 525b 06be 9de4 91bd d8eb 133d
00000020: f4cf f73d 602a ebbd 7ec4 d7bd 266a 9d3d
00000030: 2ebf 02be 66c9 13be ba47 d73e 9ba5 e9be
00000040: 609e 703c fd7c ed3e 771b b03e 3baf 51bb
00000050: 37b7 853e 4577 18c0 2800 adbf 396f 673d
00000060: bf3d 613f 7575 563e 4a85 bdba 3595 aebd
00000070: 455b 2d40 d58b d6be af63 343b bfbf 803f
00000080: f691 7abf 922b 7c3b e48a 563e 4412 a5bf
00000090: 0348 ff3d d876 48bc 7adf a13f d72b 1dbf
000000a0: ddc6 5539 2dea 853d b1ec fe3e d44b 3c3e
000000b0: b504 ea3c 4e9f 573e 543b 73bf 1417 e73b
000000c0: 81df 84be f805 f0bf e1ea 4d3f d692 ddbc
000000d0: 82f5 723f cefc 60bf aec5 e33a 9d84 6dbe
000000e0: f86d ad3f c943 ee3e a322 2fbc a9ef 993e
000000f0: a6a2 33bf 084c 16bb f67b 353d 5aa4 98bf
00000100: f050 b6be 4918 09bd 68a3 6a3e 1208 c73f
00000110: 92eb 15bc 7911 d8be 62ea 4bbf 111c ee3d
00000120: 9b14 afbc b951 27b8 7836 0f3f f36e 863c
00000130: 4217 79bd f6ae ddbf b221 7a3c 0d36 bc3b
00000140: 5e7b 70be fbc1 123f 9446 28bb d386 c43d
00000150: 1ad3 94bd 54a7 7c3d dc2f 38bd f06b 9bbc
00000160: f4ac 073e 4e4b 57bd be03 38bd b456 0b3f
00000170: a6f5 183e 12c7 013c b630 9c3f 4806 94bf
00000180: fd4e 96bc d709 b5bc ef23 d33e 68db 743d
00000190: 6b36 d6bd 471d 17bd e94a 18c0 4e37 003e
000001a0: 5b20 8ebe 862e cfbd 7029 433d e0f0 43bc
000001b0: 0016 f9b9 d07a d53c db7a 02be 2699 a3bd
000001c0: 7a91 fe3f 23bd 23be 07b7 163c 1fd2 8f3f
000001d0: dc19 5ebf d7b1 823c 02ce 94bf 2ca2 5abf
000001e0: d27e 1ebe 8e88 f33c 4e15 37bf 6253 883f
000001f0: 9254 6e3a 1b79 99be 00a2 8d40 d459 54bf
00000200: f659 0e3c 32c1 d53e 9fd4 0c3f c3ad f4bb
00000210: 0387 ec3e 2861 8ebf 4161 b0bf 1ea3 48bb
00000220: 413c c9bd 6f15 79be 01ce a13d 43cd 023e
00000230: 6f37 233f 8f14 a33e 39e6 4b3d 8835 9fbe
00000240: 6109 f9bf 680a 84bb c898 33be 1f73 2dbf
00000250: 9230 9e3e 1029 a7bc adcb 593b d385 523f
00000260: e756 8fb9 dedd 70be f6af 06be 6877 603d
00000270: 4252 d2bd 49f8 83bd 6e3a 8c3d dc71 c9bd
00000280: 481b 16bd 767f 0fbe 0c25 7dbd a5be 91bd
00000290: eff0 0fbe 41a1 87bd faa6 bcbd 0069 00ba
000002a0: c18c 7bc0 86ef 843e e7d5 8cbc 1962 b43e
000002b0: d205 f63e 28da 1bbb b87a 933e 5c98 b93d
000002c0: b45e 713d 71c9 c7bd f171 15be 3776 afbd
000002d0: ad32 02be 98ea f33d a084 5fbf 6176 63bf
000002e0: 70d1 fa3b 7f8f a93e b89a 983f 401f d0bb
000002f0: 5c37 093d 1dda ea3f 5305 923e af54 c5bc
00000300: 59c7 c6be df0c 373f 659a c6bb 10e5 d9bd
00000310: ca39 7d3f 33d2 1d3f 4944 b1bc 4a92 1ebf
00000320: d504 003f 87f3 04ba 6a4f 47bc 384a a3be
00000330: 66bb 53be c66e 62bd 665b 67bf 0dd7 043f
00000340: 752c aa3d d8c5 c1be ca14 a73e e3f1 21be
00000350: e76f 9e3d 6716 a6be ccfa 3abf c486 36bc
00000360: 28bf 96be 8b99 9dbe e803 823e 6368 b4bc
00000370: f0b2 c63d ed00 263f 4f73 123c a3cf 6fbd
00000380: 634e 1cbe 3829 e9ba cd6b 2c3d e2bb cd3e
00000390: 66a2 9dbf 45e4 1138 e9ea d8bd 0454 d33d
000003a0: 3a82 803d e060 9cbd bc63 c33d 0052 31bc
000003b0: 84dd c8bd eae7 03bd be36 3abe eed9 53be
000003c0: 8afd a4bd 55e8 7bbf b079 82bd 4ae7 e23d
000003d0: 95e0 58be e0c9 d13d 1c73 4e3d 36e9 10be
000003e0: 08ee 943c 8673 133e 8813 8abd 80d8 e03a
000003f0: b533 6640 0740 2ebf 7b04 dcbd 7164 aa3f

fc1.bias f4 [256]
0.20066991 -0.20707932 10.418176 3.7478247 -3.982054 -9.721059 9.920768 3.2329533
8.054938 0.9078368 -11.481889 -10.026742 -0.010463417 -6.7183332 1.9391493 -0.2856981
-3.300699 6.1639485 -2.7275844 4.6088505 2.131753 -10.40013 -0.153093 -0.26816812
-4.782646 -0.12079033 2.8589013 -4.143942 -8.8661995 -3.6860492 9.44097 -11.219753
7.5221996 0.25470635 -1.1202315 0.29818305 6.392224 0.05109611 -8.369129 -0.28629345
0.051912695 -6.7811365 -0.18586867 -9.764483 -9.393134 -10.164374 -0.018910073 -2.93241
-7.7531915 2.3003912 -9.35771 0.13350026 -0.32101625 -0.21441089 -6.8103704 -6.031544
0.26012993 -4.641479 -7.6642056 -9.539959 -4.751021 9.350296 -0.5333789 -10.914422
-9.793354 5.046575 8.91407 0.1566011 10.065449 -9.0386915 9.7638 -7.522682
-7.2219706 0.057788998 -0.047555864 -9.761058 -0.08993879 -10.137587 11.737635 0.21518454
-0.45095232 -0.25440246 -1.1066483 0.16460332 4.562695 -9.574541 -7.329835 4.217962
7.724567 0.35698155 -1.2474513 -6.229051 -6.8583 -0.31167322 -7.339136 -0.66567266
-1.25365 0.049131617 -8.80431 -11.557109 0.045063913 -7.615612 -2.425746 -7.7929816
-8.742034 4.072875 -8.161485 -7.269046 -9.115131 -0.17326707 6.537949 -10.559267
5.8662915 -10.932423 0.31392285 10.004458 -4.4557176 -0.0030447245 -0.04445961 4.132624
-10.165037 -0.3344401 -0.18798606 -10.338023 -9.488285 9.795851 -5.8630652 8.906504
2.6744056 0.06158474 -0.013008952 -8.680323 -9.288078 0.26106495 -0.31608683 -1.4313091
3.6479912 8.428402 2.1370046 0.24463072 0.08531943 7.016074 0.26903614 0.38698423
10.723176 -4.7264676 -0.22891507 0.1521497 -6.667449 -0.31621024 0.08673823 -2.303074
-12.161491 1.976583 0.21664849 6.220268 -11.47177 0.17591181 1.5412226 1.7635664
-0.3119551 8.023615 -0.0845595 -9.111238 -0.07749081 -2.7408946 0.049904764 -3.6636708
-8.656737 9.349973 -0.83435506 -0.8651508 7.588201 9.356 -1.3805807 10.295508
-10.188728 -7.2617736 0.85959303 -8.777495 0.03561935 -4.4752007 0.07271978 -4.9055967
-3.7262383 5.7195907 -9.601112 -4.461441 -9.878161 0.09091166 -5.397982 3.6326632
-0.16251619 -0.21632013 -11.1983185 -0.116324365 -10.923697 4.8647943 -9.481992 4.8633704
-10.547774 -3.6622555 0.5680025 -8.687372 5.4489646 -0.04832259 -0.080667675 -9.692724
-0.84569955 -4.265383 -10.549881 -0.19631009 -2.3654351 -0.15333742 0.3696712 -10.542228
1.4363165 -9.543231 -0.17962655 5.0100374 -8.151971 0.30030861 7.4886103 -9.220214
4.1740503 1.5954226 -4.1765447 -4.0312576 -9.660246 -8.397818 7.475495 6.172056
-9.410433 -2.8473618 -9.460388 -9.041958 0.26350293 0.21826711 -11.442453 -7.336374
0.28881606 -0.15767257 0.10300422 6.8041034 9.336881 -9.307475 0.16669187 3.5575447
-8.591797 3.9688714 -4.102721 -9.422469 0.27436432 -0.02758649 -10.586885 -7.1707635
00000000: 6a7c 4d3e 9a0c 54be d9b0 2641 5cdc 6f40
00000010: f9d9 7ec0 7589 1bc1 77bb 1e41 b5e8 4e40
00000020: 07e1 0041 fe67 683f d1b5 37c1 896d 20c1
00000030: c06e 2bbc 96fc d6c0 0b36 f83f 0547 92be
00000040: a73e 53c0 113f c540 be90 2ec0 b47b 9340
00000050: a46e 0840 ef66 26c1 69c4 1cbe 554d 89be
00000060: 700b 99c0 ec60 f7bd 3df8 3640 2c9b 84c0
00000070: f4db 0dc1 3be8 6bc0 370e 1741 1c84 33c1
00000080: dcb5 f040 df68 823e bf63 8fbf 73ab 983e
00000090: 198d cc40 284a 513d f4e7 05c1 0e95 92be
000000a0: 68a2 543d 12ff d8c0 5b54 3ebe 533b 1cc1
000000b0: 474a 16c1 47a1 22c1 4ce9 9abc 9bac 3bc0
000000c0: 251a f8c0 9c39 1340 2eb9 15c1 4bb4 083e
000000d0: 3e5c a4be 878e 5bbe 8eee d9c0 6902 c1c0
000000e0: c02f 853e ff86 94c0 2c41 f5c0 aca3 18c1
000000f0: 5d08 98c0 d09a 1541 858b 08bf 79a1 2ec1
00000100: 94b1 1cc1 8b7d a140 08a0 0e41 0a5c 203e
00000110: 140c 2141 7b9e 10c1 8638 1c41 d0b9 f0c0
00000120: 621a e7c0 28b4 6c3d f0c9 42bd 4b2d 1cc1
00000130: d431 b8bd 8e33 22c1 5acd 3b41 5659 5c3e
00000140: 39e3 e6be 0a41 82be a7a6 8dbf c68d 283e
00000150: 9901 9240 5231 19c1 028e eac0 8bf9 8640
00000160: a72f f740 49c6 b63e 7cac 9fbf 6354 c7c0
00000170: 3277 dbc0 a293 9fbe 34da eac0 8669 2abf
00000180: 9a77 a0bf 3c3e 493d 74de 0cc1 ebe9 38c1
00000190: f094 383d 18b3 f3c0 6c3f 1bc0 1b60 f9c0
000001a0: 5fdf 0bc1 fe54 8240 7195 02c1 069c e8c0
000001b0: 94d7 11c1 ec6c 31be e136 d140 c2f2 28c1
000001c0: a9b8 bb40 34eb 2ec1 7fba a03e 4312 2041
000001d0: 3d95 8ec0 008a 47bb 481b 36bd 753e 8440
000001e0: fea3 22c1 bc3b abbe 6b7f 40be 8b68 25c1
000001f0: 04d0 17c1 cebb 1c41 3b9e bbc0 0a81 0e41
00000200: 7629 2b40 4840 7c3d 8023 55bc 9ae2 0ac1
00000210: f89b 14c1 4eaa 853e 22d6 a1be 2335 b7bf
00000220: b078 6940 bcda 0641 afc4 0840 7a80 7a3e
00000230: f4bb ae3d ae83 e040 1bbf 893e cc22 c63e
00000240: 2192 2b41 393f 97c0 b668 6abe 22cd 1b3e
00000250: be5b d5c0 4fe6 a1be d0a3 b13d 9065 13c0
00000260: 7895 42c1 ac00 fd3f 1ad9 5d3e 6f0c c740
00000270: 5f8c 37c1 3a22 343e c846 c53f 8bbc e13f
00000280: 94b8 9fbe ba60 0041 882d adbd a1c7 11c1
00000290: 80b3 9ebd d16a 2fc0 f068 4c3d 9579 6ac0
000002a0: ff81 0ac1 7d99 1541 4b98 55bf 867a 5dbf
000002b0: 8bd2 f240 2db2 1541 deb6 b0bf 67ba 2441
000002c0: 0805 23c1 7360 e8c0 4a0e 5c3f 9f70 0cc1
000002d0: 98e5 113d d834 8fc0 1cee 943d a6fa 9cc0
000002e0: b07a 6ec0 e306 b740 289e 19c1 20c4 8ec0
000002f0: f30c 1ec1 e42f ba3d 45bc acc0 8e7d 6840
00000300: a56a 26be 0683 5dbe 502c 33c1 783b eebd
00000310: 77c7 2ec1 65ac 9b40 3db6 17c1 bba0 9b40
00000320: afc3 28c1 6562 6ac0 9d68 113f 7aff 0ac1
00000330: eb5d ae40 e8ed 45bd 1835 a5bd 6615 1bc1
00000340: c47f 58bf 047e 88c0 50cc 28c1 8305 49be
00000350: 4a63 17c0 7c04 1dbe 8b45 bd3e f7ac 28c1
00000360: 38d9 b73f 13b1 18c1 06f0 37be 3a52 a040
00000370: 796e 02c1 0dc2 993e b2a2 ef40 ff85 13c1
00000380: d291 8540 cf36 cc3f 41a6 85c0 1000 81c0
00000390: 5e90 1ac1 765d 06c1 4137 ef40 7c81 c540
000003a0: 2291 16c1 2d3b 36c0 c05d 17c1 dcab 10c1
000003b0: dbe9 863e 6a81 5f3e 4a14 37c1 93c3 eac0
000003c0: b3df 933e eb74 21be e0f3 d23d 37bb d940
000003d0: dd63 1541 6beb 14c1 46b1 2a3e d0ae 6340
000003e0: 0078 09c1 fd01 7e40 7e49 83c0 6fc2 16c1
000003f0: 7b79 8c3e 10fd e1bc e263 29c1 e576 e5c0

fc2.weight f4 [256, 256]
-0.045125343 -0.088220805 -0.014629121 0.17145783 -0.15113871 0.3722659 0.24936257 0.593957
0.1757545 -0.10661186 0.052682318 -0.028257929 0.0125968605 0.26899222 0.058688346 -0.035740525
0.083831705 0.2188512 -0.4838591 -0.101715885 0.43144193 0.025905171 0.048078544 -0.08119756
0.71722084 -0.039593242 0.2806438 -0.052664768 -0.39317352 -0.027322195 -0.069244966 0.03419855
0.035823498 0.07001064 0.0041623865 -0.0047206357 -0.6217654 -0.034678653 -0.22511111 0.08357441
0.074357204 0.43452072 0.17215447 -0.01885522 -0.33550844 0.064148396 -0.050068468 -0.5319662
-0.18592018 -0.14994772 -0.26041493 0.015292957 -0.074144654 0.0054629594 -0.26314598 -0.11607942
0.09438922 -0.46150637 -0.24343394 -0.072000295 -0.95277953 0.077901855 0.012510962 0.25692394
0.10060711 -0.06242809 -0.24299224 -0.016152427 0.15212071 0.03900029 -0.058147714 0.25744265
0.08371327 -0.08671066 0.10794867 -0.1575309 -0.038454913 0.14022608 -0.05110989 0.030869864
0.032262802 -0.09048526 0.10841578 0.01660452 0.17983615 -0.07662519 -0.49572977 0.060899243
-0.24604441 -0.030830793 -0.10656715 -0.7639623 0.46817648 -0.033760928 -0.08833106 0.059865367
0.36282882 1.8003182 -0.107310876 -0.4385786 -0.103759214 0.31478712 -0.1233141 0.73404855
0.11910433 0.04336073 0.20128909 1.0855739 -0.062189423 0.12025958 0.25951436 -0.08158851
0.09101056 -0.022065027 0.087110214 0.11653288 0.09586029 0.106748514 0.013596259 2.4888685
-0.14155771 0.07044592 0.031609286 -0.3435306 -0.2529795 0.2774811 -0.10296912 0.38385728
-0.19585851 0.075202815 -0.09311741 -0.37928867 -0.052559406 0.018751092 0.051825546 -0.8022109
-0.26084477 0.032062802 -0.23928028 -0.04249362 -0.08626583 -0.099165395 0.102437474 -0.009428022
0.09211289 -0.11229821 -0.09070645 -0.084043555 -0.45737088 -0.070281014 0.10107938 -0.31252867
0.13620853 0.081023656 -0.03616213 -0.17501903 0.2638179 0.055230774 -0.6014202 -0.32143852
0.051566564 0.054446924 -0.10296183 0.068433836 -0.05131048 -0.46492583 -0.05055168 0.05825325
0.42299095 -0.07254976 -0.9789318 0.17844708 0.07865716 -0.28562516 -0.2685368 0.17601104
-0.021243636 -0.10407463 0.103526965 0.036191996 0.032150455 0.12365495 -0.06337838 0.2718885
-0.944037 -0.024526393 -0.2549684 -0.0038475299 -0.7101351 0.089708544 -0.5292192 -0.2349152
-0.051826824 0.048824377 -0.018409265 0.054174237 0.45731446 -0.09408666 -0.028292786 0.03354734
-0.03712879 -0.021119848 0.22313082 0.28603387 0.07352703 0.035844408 0.035100795 -0.009487277
-0.16025338 -0.135108 0.18184386 0.63779825 -0.21602997 0.092979066 -0.046995725 0.26930428
0.24737337 -0.013162563 0.21237174 -0.59762084 0.36571774 0.030620955 -0.22460201 0.19950995
0.026029153 0.44707182 -0.26142296 0.13750465 0.19629 -0.131908 0.059835058 -0.7663347
0.5222155 0.28227794 0.89894676 0.67644143 0.10751385 -0.09209246 -0.020359982 0.1539304
0.0017827079 0.044850625 0.10465037 -0.33916175 0.18436204 -0.016251339 -0.048896316 0.12618268
0.054332968 -0.038018856 1.2194163 0.08324326 0.031876825 -0.085551694 0.11125829 0.1796926
00000000: 5ad5 38bd 1cad b4bd fbae 6fbc a492 2f3e
00000010: 1bc4 1abe a399 be3e e758 7f3e 910d 183f
00000020: fdf8 333e 5257 dabd 6ac9 573d 2c7d e7bc
00000030: 1063 4e3c 59b9 893e 3163 703d a864 12bd
00000040: f5af ab3d 871a 603e 61bc f7be 6b50 d0bd
00000050: f5e5 dc3e 1537 d43c 02ee 443d e84a a6bd
00000060: c99b 373f 862c 22bd 8bb0 8f3e 03b7 57bd
00000070: 0a4e c9be ccd2 dfbc 4ed0 8dbd c713 0c3d
00000080: a9bb 123d bd61 8f3d a164 883b 90af 9abb
00000090: 042c 1fbf 340b 0ebd 8783 66be 0f29 ab3d
000000a0: 9748 983d 8079 de3e 4349 303e 4376 9abc
000000b0: c3c7 abbe 3c60 833d 9814 4dbd f02e 08bf
000000c0: dc61 3ebe e58b 19be 1b55 85be 508f 7a3c
000000d0: 27d9 97bd a002 b33b 12bb 86be 0cbb edbd
000000e0: 234f c13d 904a ecbe bf46 79be e474 93bd
000000f0: 5ce9 73bf 028b 9f3d c7fa 4c3c 898b 833e
00000100: 1a0b ce3d 99b4 7fbd f5d2 78be 1852 84bc
00000110: 88c5 1b3e c5be 1f3d 4c2c 6ebd 86cf 833e
00000120: dd71 ab3d 5c95 b1bd 3114 dd3d c84f 21be
00000130: e682 1dbd 6d97 0f3e 9b58 51bd cce2 fc3c
00000140: 0026 043d 5650 b9bd 1809 de3d 3406 883c
00000150: f826 383e abed 9cbd 4bd0 fdbe 7c71 793d
00000160: 11f3 7bbe dc90 fcbc e13f dabd 0993 43bf
00000170: d4b4 ef3e e648 0abd eae6 b4bd 6335 753d
00000180: b3c4 b93e d470 e63f cec5 dbbd 608d e0be
00000190: b67f d4bd c72b a13e 1a8c fcbd 9bea 3b3f
000001a0: f9ec f33d 059b 313d ba1e 4e3e 16f4 8a3f
000001b0: 56ba 7ebd a84a f63d 11df 843e e017 a7bd
000001c0: bf63 ba3d b7c1 b4bc d766 b23d caa8 ee3d
000001d0: 6652 c43d f79e da3d d8c2 5e3c 9f49 1f40
000001e0: 81f4 10be f345 903d bd78 013d 3ee3 afbe
000001f0: 8786 81be 0112 8e3e 79e1 d2bd f188 c43e
00000200: 228f 48be ef03 9a3d 57b4 bebd 2032 c2be
00000210: 8848 57bd e49b 993c 0647 543d b25d 4dbf
00000220: 728d 85be 4954 033d e405 75be ca0d 2ebd
00000230: 24ac b0bd 3a17 cbbd bdca d13d fe77 1abc
00000240: afa5 bc3d 9bfc e5bd 4ec4 b9bd 071f acbd
00000250: 842c eabe 7eef 8fbd b502 cf3d c203 a0be
00000260: 407a 0b3e bbef a53d be1e 14bd 3038 33be
00000270: 2413 873e aa39 623d adf6 19bf 9793 a4be
00000280: 7637 533d bd03 5f3d a7dd d2bd 0a27 8c3d
00000290: f02a 52bd c20a eebe 470f 4fbd f69a 6e3d
000002a0: 4592 d83e f894 94bd 469b 7abf d5ba 363e
000002b0: 0117 a13d 763d 92be a87d 89be 3d3c 343e
000002c0: 2207 aebc 1425 d5bd f205 d43d 0f3e 143d
000002d0: 32b0 033d ce3e fd3d 86cc 81bd f834 8b3e
000002e0: 69ac 71bf 93eb c8bc 388b 82be d726 7cbb
000002f0: 6acb 35bf 1db9 b73d e97a 07bf 9c8d 70be
00000300: 5d48 54bd 12fc 473d 07cf 96bc cee5 5d3d
00000310: 1f25 ea3e 82b0 c0bd 46c6 e7bc f068 093d
00000320: 5c14 18bd 8803 adbc 687c 643e 0873 923e
00000330: 5795 963d 96d1 123d dac5 0f3d 8670 1bbc
00000340: 7619 24be c059 0abe 4735 3a3e bf46 233f
00000350: f636 5dbe cf6b be3d 977e 40bd 40e2 893e
00000360: 724f 7d3e caa7 57bc fa77 593e aefd 18bf
00000370: 5b3f bb3e ccd8 fa3c 12fe 65be 564c 4c3e
00000380: 173b d53c 99e6 e43e 3bd9 85be 05ce 0c3e
00000390: 3f00 493e e412 07be 9b15 753d 832e 44bf
000003a0: eaaf 053f bc86 903e 6021 663f 442b 2d3f
000003b0: 3930 dc3d f99a bcbd fac9 a6bc ee9f 1d3e
000003c0: c0a9 e93a 4ab5 373d ef52 d63d 9ca6 adbe
000003d0: 67c9 3c3e 8721 85bc 8147 48bd 0836 013e
000003e0: 3f8c 5e3d a9b9 1bbd d515 9c3f 717b aa3d
000003f0: 4691 023d ba35 afbd 63db e33d 5601 383e

fc2.bias f4 [256]
1.5254637 0.04555541 -2.6677082 -4.676731 -0.02524948 -8.589769 -6.908498 -8.392924
-6.3208714 -5.027116 -3.4120219 -0.05145339 -0.41737947 -9.088266 -0.025552314 -0.09649579
0.37605 -3.38596 -4.8257446 0.059303645 3.8028872 2.2791438 4.618984 4.269043
-6.673921 5.382902 0.6110453 -2.0521486 -5.6292195 0.02201703 0.011943106 -8.376438
10.5607395 -1.3757546 -0.039240975 -6.5411067 1.3828411 -0.3528987 -7.8843136 -0.5652544
-0.56114733 -6.361057 3.487641 0.7979706 -6.5139055 -7.386784 -0.29449853 -7.247442
0.72633046 -5.868393 -0.033073414 -5.224417 -9.404954 -5.2004375 -7.9812055 4.8513193
0.04680112 -0.02551469 -7.546716 -7.101029 -6.103082 -5.906554 3.8857946 -7.0649858
-0.094409116 -7.671791 2.2849462 -3.7376404 -0.021280684 2.7417753 1.1304266 -7.600978
-7.2709427 0.9018243 -5.995778 0.021149687 6.1036887 -1.3868166 -0.069921374 -8.781261
-8.96859 6.7505436 -8.528843 0.0035516222 -5.1156473 2.6213896 0.03587194 -6.711202
-8.139653 2.2677088 11.00987 -7.32357 0.02703222 -8.283886 -0.48880404 -1.13292
-6.6499653 -0.6293724 0.70352495 -5.5681005 7.425148 -0.008850691 0.02575979 -6.717623
0.2275439 -6.5263147 -6.113162 -0.022294903 -0.5666744 1.2143689 -10.264955 -0.06505816
-1.0532402 0.024924316 -1.6045957 -5.4699125 -0.019160854 -5.8238745 0.79859567 -0.033008974
-4.6981726 -7.867851 0.57709104 -0.08862096 -0.040107302 -6.7288723 -0.04391012 -0.036575567
-6.0333014 1.0693275 1.0003313 -0.02014935 -4.656815 0.30544358 -0.7483937 -5.8311563
-0.087164454 -6.8340583 -0.59003466 0.120927446 -8.631743 -0.061568275 -8.851065 -6.7681065
0.048637263 -6.6552663 0.03354832 -3.3769908 -5.049407 -2.3784583 9.346641 -7.7937284
1.586751 -7.713304 0.78343487 -10.522972 2.1489537 -1.6694444 2.910243 0.055604037
5.5313573 0.02433316 -1.7953742 -7.4893656 4.706913 -7.5562124 -7.516769 -6.3654323
0.010311009 -0.066900045 -0.051729757 5.5988016 -9.6770315 -8.874767 0.2087136 -6.1700697
2.0164578 -5.731229 0.48628417 -3.3149202 0.017274778 0.3005577 -7.6910133 -6.883644
0.031217227 3.8405106 5.2048616 -6.5285115 -5.3047137 -0.2708673 -0.39676782 -0.7935247
-0.07129424 1.0989096 -4.3499937 -8.589795 -0.04778747 1.6624407 -8.643351 -6.453267
-7.1959033 -7.602351 0.012114108 2.328684 -1.041285 -0.39556384 0.60264146 -0.8083073
-2.5198083 0.87499493 0.0054195845 0.03363325 6.1428585 0.5279611 0.0850523 -7.0891724
1.2010026 -8.847323 -5.5265746 1.4957128 -6.729969 -0.024478188 -0.057999775 -0.020729203
-8.796756 -0.23374853 0.2987115 3.3277445 -8.543148 -8.317871 -6.7875423 0.0012315318
3.9427168 4.1121354 0.016094467 -0.015769793 -5.6086946 -8.220802 0.22368716 3.9735124
-2.7498093 -0.21455517 0.21981587 5.1498733 -0.23120254 -7.797319 -3.2578688 -0.16302036
1.4006277 -2.487374 -1.3734577 2.3056188 -8.224657 -7.8068643 -0.025157372 0.0010139237
00000000: 6542 c33f 4f98 3a3d bbbb 2ac0 c8a7 95c0
00000010: ffd7 cebc b26f 09c1 6a12 ddc0 6b49 06c1
00000020: 9444 cac0 22de a0c0 915e 5ac0 cac0 52bd
00000030: c3b2 d5be 8a69 11c1 1653 d1bc 969f c5bd
00000040: a089 c03e 92b3 58c0 806c 9ac0 61e8 723d
00000050: 8162 7340 7edd 1140 b8ce 9340 009c 8840
00000060: c390 d5c0 bc40 ac40 776d 1c3f 6756 03c0
00000070: 9122 b4c0 0f5d b43c 04ad 433c e405 06c1
00000080: caf8 2841 ba18 b0bf 25bb 20bd bf50 d1c0
00000090: f000 b13f 23af b4be 4c4c fcc0 83b4 10bf
000000a0: 5aa7 0fbf c78d cbc0 8335 5f40 cd47 4c3f
000000b0: ea71 d0c0 8960 ecc0 83c8 96be 0beb e7c0
000000c0: cbf0 393f e0c9 bbc0 fd77 07bd 6d2e a7c0
000000d0: b17a 16c1 fc69 a6c0 0966 ffc0 023e 9b40
000000e0: 88b2 3f3d 2f04 d1bc b37e f1c0 a13b e3c0
000000f0: 734c c3c0 7e02 bdc0 dcb0 7840 5d14 e2c0
00000100: 9159 c1bd 507f f5c0 8f3c 1240 8035 6fc0
00000110: d454 aebc 3f79 2f40 d2b1 903f 363b f3c0
00000120: 90ab e8c0 f5dd 663f 6add bfc0 1c42 ad3c
00000130: 6b51 c340 3583 b1bf f032 8fbd 0c80 0cc1
00000140: 587f 0fc1 7404 d840 2476 08c1 55c2 683b
00000150: 62b3 a3c0 d9c4 2740 75ee 123d 2bc2 d6c0
00000160: 053c 02c1 2422 1140 6d28 3041 af5a eac0
00000170: ad72 dd3c cc8a 04c1 8644 fabe 8603 91bf
00000180: 84cc d4c0 8d1e 21bf 361a 343f e12d b2c0
00000190: d09a ed40 7d02 11bc 3206 d33c c5f6 d6c0
000001a0: 4501 693e 92d7 d0c0 069f c3c0 cda3 b6bc
000001b0: 9311 11bf 7170 9b3f 413d 24c1 363d 85bd
000001c0: 93d0 86bf 142e cc3c 6463 cdbf 8609 afc0
000001d0: 39f7 9cbc 2e5d bac0 c470 4c3f 6b34 07bd
000001e0: 6e57 96c0 6fc5 fbc0 3dbc 133f e87e b5bd
000001f0: 8e47 24bd ec52 d7c0 19db 33bd 43d0 15bd
00000200: ce10 c1c0 b9df 883f db0a 803f 4010 a5bc
00000210: a104 95c0 1a63 9c3e bb96 3fbf d598 bac0
00000220: 4783 b2bd 9bb0 dac0 830c 17bf cfa8 f73d
00000230: 9f1b 0ac1 042f 7cbd f69d 0dc1 5494 d8c0
00000240: de37 473d f1f7 d4c0 f769 093d 9e20 58c0
00000250: be94 a1c0 a938 18c0 d78b 1541 3966 f9c0
00000260: a81a cb3f 63d3 f6c0 308f 483f 185e 28c1
00000270: 7588 0940 5bb0 d5bf 6c41 3a40 0fc1 633d
00000280: e100 b140 5656 c73c d2ce e5bf e2a8 efc0
00000290: 089f 9640 7ecc f1c0 5f89 f0c0 9fb1 cbc0
000002a0: 82ef 283c e402 89bd 95e2 53bd 6229 b340
000002b0: 1fd5 1ac1 0cff 0dc1 05b9 553e 3671 c5c0
000002c0: a50d 0140 3a66 b7c0 3dfa f83e a727 54c0
000002d0: d683 8d3c b3e2 993e c81c f6c0 d046 dcc0
000002e0: 45bb ff3c edca 7540 3a8e a640 91e9 d0c0
000002f0: 37c0 a9c0 1eaf 8abe 2725 cbbe 6f24 4bbf
00000300: b702 92bd 12a9 8c3f 2633 8bc0 cd6f 09c1
00000310: cbbc 43bd dbca d43f 2a4b 0ac1 2a81 cec0
00000320: d744 e6c0 7646 f3c0 407a 463c 2909 1540
00000330: d448 85bf 5887 cabe b646 1a3f 3aed 4ebf
00000340: 8a44 21c0 abff 5f3f c596 b13b 05c3 093d
00000350: 4c92 c440 7528 073f e62f ae3d 80da e2c0
00000360: 74ba 993f a38e 0dc1 b3d9 b0c0 8473 bf3f
00000370: e85b d7c0 7b86 c8bc 2c91 6dbd 4ad0 a9bc
00000380: 83bf 0cc1 c65b 6fbe b7f0 983e c4f9 5440
00000390: bcb0 08c1 0016 05c1 8c33 d9c0 5a6b a13a
000003a0: 7955 7c40 9d96 8340 8bd8 833c a72f 81bc
000003b0: 6d7a b3c0 6888 03c1 3f0e 653e 074e 7e40
000003c0: e0fc 2fc0 5ab4 5bbe 6917 613e c3cb a440
000003d0: 5cc0 6cbe a383 f9c0 ec80 50c0 cfee 26be
000003e0: c547 b33f 2331 1fc0 76cd afbf 428f 1340
000003f0: 3298 03c1 d5d1 f9c0 d516 cebc a2e5 843a

fc3.weight f4 [101, 256]
-0.118501805 -0.10124096 0.3009978 -0.015812626 0.15666348 0.37596172 0.45322153 0.026178133
-0.326479 0.08095208 -0.31465977 0.089441076 0.03822774 0.08753014 -0.025788926 0.20652017
0.29508734 -0.20697968 -0.047905084 0.048097536 -0.05931602 0.1598701 -0.28108168 -0.14681321
0.39255664 -0.054088414 0.016888987 0.24062517 -0.07960686 0.03418541 0.06453688 -0.14903161
-0.2300067 -0.22680508 0.051753867 -0.40913326 -0.19191025 -0.091129586 -0.053062942 -0.1239145
0.5273457 0.078509316 -0.36199436 -0.014470396 -0.08168632 -0.30169153 -0.1674911 0.17400165
0.10632937 -0.5262203 -0.011118606 -0.01970404 0.3201405 0.18854527 0.15741108 -5.0886807e-05
-0.0999015 0.052976415 0.32620683 0.11218975 0.05093242 -0.004430513 -0.2425609 0.07301052
0.10228669 -0.056265928 -0.20038252 0.30931833 -0.012676444 0.2053092 0.13111722 -0.21969618
-0.19181892 -0.18851219 -0.21241358 -0.08867958 -0.50521153 -0.3567935 0.10072453 0.19087389
-0.22026806 0.07020616 -0.044915892 -0.062183574 -0.2661716 -0.16841973 0.096162766 -0.23199779
0.12934785 -0.4045002 -0.1585819 0.25745192 0.03526823 0.08680811 0.30762652 0.3033934
0.14248168 0.01385271 -0.1916652 0.008324755 -0.0715565 0.06192715 0.12904607 0.11990994
0.040202107 1.0156175 0.10132652 -0.10670139 -0.348172 -0.017138753 0.1916455 0.081996456
0.22944662 -0.04176708 -0.3291653 0.042287342 -0.017794237 0.029461257 0.104017735 -0.03282939
-0.13040794 -0.1382041 -0.58803684 -0.07881919 0.02853725 0.08792947 0.013504556 0.11785698
-0.1741613 -0.0688967 -0.1278273 0.07151595 -0.37801814 -0.06074824 -0.14040826 0.14028691
-0.15956742 0.08979386 0.19232218 0.12253625 0.098318085 0.070076704 -0.18631284 -0.42483738
-0.116889335 0.16135977 -0.0837446 -0.0049844827 -0.09341852 -0.16943318 -0.54645514 0.15151636
-0.43318495 -0.09511167 0.18383497 0.2513123 0.29307842 -0.030824248 -0.95030594 -0.24657081
-0.015698327 0.038155854 0.17244391 -0.051603626 -0.1436424 0.08071162 0.25367254 -0.16874228
-0.007847511 0.020681366 -0.014820646 0.18364958 0.15076816 0.13788323 -0.21567848 -0.35202542
-0.62414646 -0.21229139 -0.26558527 0.11156356 -0.040502626 -0.018235026 0.021262042 -0.019296387
0.121852264 -0.47095057 0.49393976 -0.013051797 0.21776976 0.2728027 -0.018923847 -0.013359719
-0.010095328 0.047453716 -0.09196266 -0.15336505 0.056176513 0.040729582 0.045182783 -0.052224927
0.10949116 -0.07560718 0.031332698 0.09674817 -0.15651771 0.10036292 0.14084902 -0.2883665
-0.6667912 0.084150515 0.060030226 -0.03377051 0.09253956 -0.20563856 -0.005374499 0.047259398
-0.32046652 0.22230385 0.058501203 -0.019900586 0.5035196 0.022829324 0.088541985 0.0655154
0.062001087 0.5701987 0.031662907 -0.12334419 0.2703587 0.14020792 -0.36246404 0.07964982
-0.06754527 -0.045224335 0.019232761 0.08624604 -0.308348 -0.17888387 -0.18877786 -0.15765488
-0.07026333 0.11838864 0.0490886 0.31289962 0.4258085 0.057705976 0.16532424 0.23355074
-0.17856339 0.21941511 0.011513324 0.05415838 0.33894688 0.02922991 0.003941857 -0.021160416
00000000: 13b1 f2bd 6c57 cfbd 621c 9a3e 7b89 81bc
00000010: 646c 203e 0e7e c03e a70c e83e 8673 d63c
00000020: 4128 a7be 34ca a53d 161b a1be e22c b73d
00000030: b194 1c3d 0143 b33d 4c43 d3bc 067a 533e
00000040: b015 973e 7bf2 53be 1f38 44bd ec01 453d
00000050: 5bf5 72bd fdb4 233e f0e9 8fbe 3456 16be
00000060: 2ffd c83e d08b 5dbd c65a 8a3c 7266 763e
00000070: ec08 a3bd 0006 0c3d e92b 843d be9b 18be
00000080: e086 6bbe 973f 68be ddfb 533d ea79 d1be
00000090: 1f84 44be 26a2 babd 8758 59bd e3c6 fdbd
000000a0: 2100 073f 7ec9 a03d 5357 b9be 3d15 6dbc
000000b0: 284b a7bd 5077 9abe c982 2bbe 7d2d 323e
000000c0: 36c3 d93d 60b6 06bf d02a 36bc 5e6a a1bc
000000d0: 75e9 a33e 0312 413e 5f30 213e 4b6f 55b8
000000e0: 2899 ccbd ccfd 583d 9504 a73e bdc3 e53d
000000f0: 839e 503d d62d 91bb e261 78be 8a86 953d
00000100: af7b d13d 1a77 66bd 1331 4dbe f95e 9e3e
00000110: dcb0 4fbc 933c 523e 9843 063e 09f8 60be
00000120: 2e6c 44be 5709 41be f282 59be a49d b5bd
00000130: 8b55 01bf a3ad b6be aa48 ce3d 7274 433e
00000140: f38d 61be 3fc8 8f3d baf9 37bd 34b4 7ebd
00000150: a547 88be 3976 2cbe fcf0 c43d d490 6dbe
00000160: c373 043e a61a cfbe 4b63 22be bdd0 833e
00000170: 6b75 103d 73c8 b13d 3981 9d3e 6156 9b3e
00000180: b8e6 113e 7af6 623c e243 44be 8e64 083c
00000190: 378c 92bd 53a7 7d3d a724 043e 5893 f53d
000001a0: f7aa 243d c1ff 813f 4784 cf3d 4286 dabd
000001b0: 9a43 b2be 9266 8cbc b83e 443e c2ed a73d
000001c0: 0ef4 6a3e f513 2bbd 5b88 a8be 7e35 2d3d
000001d0: 38c5 91bc bc58 f13c 4007 d53d 1c78 06bd
000001e0: a989 05be 6085 0dbe 9589 16bf f56b a1bd
000001f0: f3c6 e93c 5e14 b43d 3742 5d3c 005f f13d
00000200: 5757 32be b719 8dbd 29e5 02be f476 923d
00000210: 988b c1be 26d3 78bd 2fc7 0fbe 5fa7 0f3e
00000220: a465 23be d8e5 b73d 1bf0 443e 49f4 fa3d
00000230: fe5a c93d 6084 8f3d cbc8 3ebe 4984 d9be
00000240: ad63 efbd 7f3b 253e 4a82 abbd df54 a3bb
00000250: 3652 bfbd e47f 2dbe 7ce4 0bbf 1b27 1b3e
00000260: 6bca ddbe e8c9 c2bd 3c3f 3c3e 01ac 803e
00000270: 600e 963e 2283 fcbc 4047 73bf 0f7d 7cbe
00000280: c799 80bc 5049 1c3d 2395 303e 535e 53bd
00000290: fe16 13be 224c a53d 5ee1 813e c7ca 2cbe
000002a0: d992 00bc f86b a93c 4bd2 72bc a30e 3c3e
000002b0: f862 1a3e 4331 0d3e d2da 5cbe ad3c b4be
000002c0: 10c8 1fbf ea62 59be cbfa 87be 707b e43d
000002d0: 15e6 25bd 9f61 95bc bc2d ae3c 7513 9ebc
000002e0: ae8d f93d 6f20 f1be ace5 fc3e 34d7 55bc
000002f0: 09ff 5e3e ccac 8b3e 2f06 9bbc b9e2 5abc
00000300: e066 25bc d45e 423d eb56 bcbd ba0b 1dbe
00000310: 5819 663d 10d4 263d 9511 393d cee9 55bd
00000320: e73c e03d f0d7 9abd b756 003d e823 c63d
00000330: 2e46 20be 138b cd3d ba3a 103e c6a4 93be
00000340: d4b2 2abf 1b57 ac3d 41e2 753d f252 0abd
00000350: 6185 bd3d ea92 52be 911c b0bb 1293 413d
00000360: 3014 a4be 9fa3 633e f59e 6f3d 8e06 a3bc
00000370: a9e6 003f 9004 bb3c 8055 b53d f02c 863d
00000380: daf4 7d3d 8bf8 113f f7b0 013d e19b fcbd
00000390: 756c 8a3e aa92 0f3e e394 b9be 721f a33d
000003a0: 2d55 8abd 273d 39bd 068e 9d3c c4a1 b03d
000003b0: cadf 9dbe 552d 37be fc4e 41be 4870 21be
000003c0: 39e6 8fbd be75 f23d 2111 493d 6134 a03e
000003d0: 9203 da3e 1a5d 6c3d c24a 293e ed27 6f3e
000003e0: 52d9 36be 5bae 603e 62a2 3c3c 2dd5 5d3d
000003f0: 728a ad3e 9073 ef3c b12a 813b 9c58 adbc

fc3.bias f4 [101]
1.6914968 0.7596808 1.2241821 0.63620675 0.8501747 0.6584991 0.75045735 0.46504334
0.73324037 0.21202236 0.44687036 1.1264918 1.0422353 0.26639903 0.20739147 0.3065489
-1.2155371 -0.89022636 -0.30197868 0.14198121 2.6090355 1.3140019 -0.3014326 -1.2217803
-1.4925206 -1.5960883 0.24511366 0.0067438623 -1.5958763 -0.08940813 0.07629535 0.55738515
-0.9152536 -1.4384373 -0.2260224 -0.8458086 -0.47754693 -0.18250178 0.25454032 -0.25907832
0.04162957 -0.79992807 -0.031878546 -3.7267928 -0.26210332 0.5782055 -0.35924143 -1.8287461
-0.26838556 -0.3948919 0.09405252 0.10863298 -0.1466341 -0.4306186 0.20639075 -0.58341295
-2.6110342 -0.17074452 -0.07549019 0.22628215 0.3072906 -1.1991198 -0.3028076 -0.048327453
0.430093 0.52156454 0.44504035 0.4368526 0.23659095 0.026401028 0.08868862 -0.845186
0.35815725 0.3647772 0.022908444 0.81892484 -0.8787991 -4.5146265 -1.626265 -1.2257007
0.24343292 -1.4583873 -1.3924183 0.15616928 0.20563103 -1.9687718 -0.24753384 0.54673445
0.4898397 0.27968195 0.24339029 -0.37062708 0.48344213 0.5286365 0.45353103 0.43387154
0.64904046 0.6895078 0.2077281 -0.9032264 -1.1054279
00000000: f882 d83f 717a 423f 00b2 9c3f 72de 223f
00000010: 0da5 593f 6693 283f f91d 403f 291a ee3e
00000020: a4b5 3b3f 641c 593e 31cc e43e e230 903f
00000030: f767 853f 7465 883e 6e5e 543e faf3 9c3e
00000040: b896 9bbf e0e5 63bf f39c 9abe 8663 113e
00000050: 70fa 2640 3731 a83f 6055 9abe 4c63 9cbf
00000060: ea0a bfbf 9f4c ccbf 13ff 7a3e 9efb dc3b
00000070: ad45 ccbf 9c1b b7bd bd40 9c3d cbb0 0e3f
00000080: 0f4e 6abf b71e b8bf 6b72 67be ea86 58bf
00000090: 0881 f4be bfe1 3abe 1c53 823e eaa5 84be
000000a0: c583 2a3d 16c8 4cbf 1493 02bd c683 6ec0
000000b0: 6832 86be 4705 143f 7eee b7be 5a14 eabf
000000c0: d569 89be 452f cabe 9c9e c03d f87a de3d
000000d0: 4027 16be 0b7a dcbe 1958 533e 8d5a 15bf
000000e0: 2f1b 27c0 a7d7 2ebe 9a9a 9abd 82b6 673e
000000f0: 3255 9d3e c27c 99bf 9909 9bbe 02f3 45bd
00000100: 2635 dc3e 4185 053f 54dc e33e 25ab df3e
00000110: e644 723e f846 d83c 61a2 b53d 1c5e 58bf
00000120: 6360 b73e 14c4 ba3e 7daa bb3c 0fa5 513f
00000130: faf8 60bf d277 90c0 7429 d0bf c3e3 9cbf
00000140: 7b46 793e 6fac babf c33a b2bf d7ea 1f3e
00000150: f190 523e b700 fcbf 8379 7dbe caf6 0b3f
00000160: 45cc fa3e 7932 8f3e 4e3b 793e d5c2 bdbe
00000170: ba85 f73e b954 073f 3835 e83e 6924 de3e
00000180: 8427 263f 9583 303f adb6 543e d839 67bf
00000190: a97e 8dbf
