model/sac_ff_dqn_ff/agent1_sac_ff_q1_1000000.pth (torch, 275223 bytes, 5 tensors)

fc1.weight f4 [256, 8]
-1.0437675 -0.09326694 -0.00086668 0.08761834 -0.007244043 -0.017450681 -0.25322413 0.51768184
-3.7484796 -0.05226249 0.04100376 0.11063999 0.17653428 -0.016513404 -0.004782664 1.149636
-1.8602518 0.14769703 -0.025989406 -0.08197513 -0.023992816 0.001009455 -0.14510912 -0.074225605
0.73453766 -0.13589473 -0.040298026 -0.14641157 -0.051760912 -0.024887135 -0.012163795 1.2708716
-0.008633316 -0.1128491 -0.005509898 0.08782272 -0.14748873 -0.049320042 0.005905926 0.06428811
-1.658852 0.17562568 -0.03718843 0.79258204 1.3533039 -0.5064871 -0.025477981 3.5915077
0.54905933 -0.8576607 0.04924883 1.4510481 -1.6308686 0.0014401824 -0.0028992349 1.8137568
-1.9491867 -0.30067733 0.0010220094 0.12522797 -0.22104329 -0.054144915 0.041085225 -0.37854886
0.7212321 0.05489479 -0.3564871 -0.13128968 0.12372768 -0.0053738663 0.055530965 1.1237189
-0.69310415 -1.0889858 -0.17085458 0.23821422 -1.5491928 5.648907e-05 0.07370057 -2.0880785
-0.9558998 0.14821558 0.0040308987 -0.0036274528 0.3275515 -0.19234985 0.021895975 -0.6572268
-0.7378741 5.350675 -0.65147156 0.94301695 0.315218 -0.02023455 -0.011809615 -1.2647201
0.1309 -0.009039693 -0.036023904 0.0319532 -0.0519153 -0.035829123 0.07854745 0.014873767
-0.008239791 -0.08975229 -0.064832136 0.11683032 -0.05751189 -0.09680397 -0.10067549 -0.037253506
-0.5488636 1.2513915 -0.02829977 1.5094754 0.22157775 -0.5914334 -0.023160044 -1.5746757
-5.669201 -3.0479302 0.02393702 2.1781995 -1.900578 -0.0021374268 -0.02208752 -0.6729131
-0.08149557 1.6627736 -0.049326144 -0.6084823 1.1385113 -0.2811132 -0.0058631008 1.4589107
0.61593777 -0.5586687 0.011738893 0.13103653 -0.4191997 -0.038132887 -0.11922965 1.0567968
-2.315568 0.081576996 -0.041738242 -1.5911336 -1.9290414 0.0664737 -0.17575192 -2.9020438
-0.04343663 -0.05151446 -0.016202107 -0.08673125 0.035523206 -0.11267559 -0.017968535 -0.103603914
-2.5654001 0.14970928 -0.041432884 -0.406173 0.3810723 -0.081524484 0.18887988 0.30704427
0.017081589 0.071761325 -0.011192545 0.13019249 -0.054043233 -0.096501224 -0.13904938 0.058386236
-1.6158296 -0.24457988 0.006362866 -0.202154 0.07432231 -0.030656733 -0.031987377 -0.7761475
-0.06154681 0.06873232 -0.09885008 -0.040966846 0.022550613 -0.03378479 -0.14523119 0.0138872415
-4.1742816 -0.23398188 0.010580757 1.5869933 -0.31778055 -0.17056344 -0.023497969 1.9080437
0.4388424 0.2609675 -0.026837425 0.18201075 -0.34342003 -0.034679007 0.13702737 -2.2490964
0.058613762 0.045289114 0.0069343 0.06366061 -0.09432175 -0.1333716 -0.10224363 -0.10638636
0.8185065 -0.12734477 0.004713778 -0.21863472 -0.11739768 -0.01991095 0.020623548 0.36430156
2.9351354 -0.38001797 0.03123192 -0.605864 0.340258 -0.026518665 0.018704697 -7.81041
-0.70143956 -0.46955442 0.028490061 -0.50132513 0.5080277 0.026123403 -1.450956 0.6481955
-0.1468728 0.114800006 -0.09377648 0.073366284 0.06049256 -0.07382447 -0.050646603 0.017598584
-6.442169 1.2366254 -0.028995257 -0.2913524 -0.09315011 -0.00057282153 0.015496731 -0.85863465
00000000: 2c9a 85bf bd02 bfbd e931 63ba 3f71 b33d
00000010: 705f edbb bbf4 8ebc 98a6 81be cc86 043f
00000020: 17e7 6fc0 3111 56bd 8ff3 273d 3897 e23d
00000030: 67c5 343e 1e47 87bc e5b7 9cbb 4627 933f
00000040: bb1c eebf e43d 173e bce7 d4bc 94e2 a7bd
00000050: 958c c4bc b04f 843a 7c97 14be 9803 98bd
00000060: a90a 3c3f fd27 0bbe 8b0f 25bd eaec 15be
00000070: 4003 54bd 1be0 cbbc a74a 47bc ecab a23f
00000080: c072 0dbc 6e1d e7bd 608c b4bb 66dc b33d
00000090: 4907 17be d003 4abd 8086 c13b 7ca9 833d
000000a0: 4355 d4bf 38d7 333e e552 18bd a8e6 4a3f
000000b0: 1039 ad3f 23a9 01bf 33b7 d0bc 43db 6540
000000c0: 278f 0c3f a78f 5bbf 24b9 493d f2bb b93f
000000d0: 4dc0 d0bf 81c4 bc3a 1701 3ebb 2f29 e83f
000000e0: f37e f9bf 61f2 99be f2f4 853a c33b 003e
000000f0: 2c59 62be 0fc7 5dbd fb48 283d 28d1 c1be
00000100: aba2 383f 5cd9 603d 7a85 b6be cd70 06be
00000110: f064 fd3d 4217 b0bb 7074 633d 05d6 8f3f
00000120: 466f 31bf e363 8bbf 81f4 2ebe 6eee 733e
00000130: f34b c6bf adee 6c38 53f0 963d 14a3 05c0
00000140: d9b5 74bf d3c5 173e a115 843b 8fba 6dbb
00000150: d5b4 a73e 5cf7 44be 305f b33c 0440 28bf
00000160: 51e5 3cbf bb38 ab40 d7c6 26bf 8f69 713f
00000170: 4164 a13e edc2 a5bc 1e7d 41bc 59e2 a1bf
00000180: a60a 063e 381b 14bc cd8d 13bd 5ce1 023d
00000190: 23a5 54bd 8fc1 12bd 7cdd a03d 1ab1 733c
000001a0: 3000 07bc 0cd0 b7bd b6c6 84bd bc44 ef3d
000001b0: 9691 6bbd 2941 c6bd f42e cebd 2297 18bd
000001c0: 5382 0cbf 992d a03f ebd4 e7bc 7d36 c13f
000001d0: 47e5 623e 2e68 17bf 22ba bdbc f98e c9bf
000001e0: 186a b5c0 4a11 43c0 9217 c43c 9f67 0b40
000001f0: 2446 f3bf 1214 0cbb e3f0 b4bc 0844 2cbf
00000200: 26e7 a6bd c4d5 d43f 360a 4abd 7fc5 1bbf
00000210: bdba 913f 12ee 8fbe 411f c0bb 96bd ba3f
00000220: 19ae 1d3f e904 0fbf 7c54 403c 712e 063e
00000230: 58a1 d6be 3b31 1cbd ad2e f4bd 1e45 873f
00000240: 4432 14c0 d711 a73d b8f5 2abd 44aa cbbf
00000250: d4ea f6bf 5d23 883d 50f8 33be 16bb 39c0
00000260: 9cea 31bd d400 53bd 48ba 84bc 27a0 b1bd
00000270: c880 113d 76c2 e6bd c032 93bc 4a2e d4bd
00000280: 842f 24c0 644d 193e 87b5 29bd e8f5 cfbe
00000290: e91b c33e 4ff6 a6bd ba69 413e e834 9d3e
000002a0: b0ee 8b3c 9af7 923d f060 37bc 2e51 053e
000002b0: 705c 5dbd 6fa2 c5bd f662 0ebe 6826 6f3d
000002c0: 81d3 cebf 2673 7abe 977f d03b 7501 4fbe
000002d0: 4c36 983d d423 fbbc 3205 03bd 9ab1 46bf
000002e0: 8218 7cbd 88c3 8c3d e971 cabd dacc 27bd
000002f0: 10bc b83c ec61 0abd 7cb7 14be 5087 633c
00000300: b793 85c0 f298 6fbe e95a 2d3c 9922 cb3f
00000310: 22b4 a2be 2fa8 2ebe d07e c0bc c73a f43f
00000320: f3af e03e 889d 853e 29da dbbc 0761 3a3e
00000330: c0d4 afbe 930b 0ebd e750 0c3e 32f1 0fc0
00000340: fc14 703d 1481 393d 2039 e33b 7e60 823d
00000350: c32b c1bd 9192 08be 1c65 d1bd 18e1 d9bd
00000360: a489 513f ab66 02be 0976 9a3b c8e1 5fbe
00000370: 326e f0bd 4a1c a3bc b7f2 a83c bc85 ba3e
00000380: 42d9 3b40 b791 c2be 15da ff3c e719 1bbf
00000390: 4c36 ae3e ac3d d9bc 983a 993c e1ee f9c0
000003a0: 8b91 33bf 7069 f0be fd63 e93c d856 00bf
000003b0: 1a0e 023f bf00 d63c edb8 b9bf 24f0 253f
000003c0: d365 16be 441c eb3d e20d c0bd 1041 963d
000003d0: 0cc7 773d 4931 97bd d072 4fbd e82a 903c
000003e0: 4026 cec0 be49 9e3f 7687 edbc 242c 95be
000003f0: 7cc5 bebd 6729 16ba 00e6 7d3c 7bcf 5bbf

fc1.bias f4 [256]
2.3001723 -1.6062982 2.0765498 -4.06705 0.27308336 3.5822515 -9.445859 3.744774
-2.1734354 -1.2481714 0.9788883 -6.293504 0.10146162 -0.13361318 0.07197014 4.8051887
-5.6598177 -5.744038 4.7754893 0.21800634 3.5172856 -0.3117219 5.077355 0.3416356
0.16248511 -3.6369696 0.18038157 -5.175073 -6.6818285 -7.409181 -0.22164327 -0.24635316
-7.7676773 -2.3093288 -1.7820064 0.051532477 -1.8228071 -0.933365 0.07829872 -0.9521571
-0.1376155 11.057492 -1.5943075 5.3658314 -3.8484352 -13.487594 -0.32294983 4.2646136
1.1790373 -3.0251555 -6.11858 3.013563 -1.6517309 -2.444988 2.916458 0.06639156
-2.2027376 1.8387533 2.5040002 -4.105772 0.3222715 2.382454 -0.6753151 -0.451416
0.023640245 16.155827 -1.910218 -1.6560626 1.0350996 0.04673955 -0.23038962 6.9312053
3.509084 0.015243053 -0.10418274 -0.0046592355 -0.23041862 4.2242208 -23.042444 0.06502929
0.21152714 -4.5176735 -2.3139398 -0.35083458 -13.047895 0.39172044 2.5090165 -1.5439489
-0.21437539 -2.1061497 -5.9496565 -0.53623134 -0.05503471 -3.155234 4.441612 0.4210846
2.8844244 -8.516249 -0.31782225 2.219864 0.104153216 -4.219754 1.9914677 3.5517256
0.005996138 0.67564446 2.9447873 1.1440767 -4.4262185 0.16096744 0.03138894 5.35181
3.6118338 -14.739702 -13.4630575 -6.3430066 0.08700964 -4.291982 -3.1738331 0.30303404
0.25480855 -0.54135543 -2.7150452 3.676879 -9.827626 2.1832461 -0.2750219 -2.236919
4.0493045 3.843273 -0.19254798 -0.5430708 2.2033849 0.59829706 0.13917017 0.18250313
3.4130888 3.1583555 0.14899221 -4.9707155 0.31604835 -3.0583258 0.21259066 0.15540269
-2.1070135 0.14052317 4.730064 -1.7493712e-05 1.4075722 -4.0686846 0.02213332 2.996935
3.9682164 -1.5269454 0.051303923 3.0583358 -4.954262 9.390829 3.7524638 -0.2064984
-0.10116804 0.31148908 -4.252651 3.8894303 2.5098224 -9.472965 -0.6029896 2.927742
-3.9834843 5.4283113 2.5523915 0.062296957 0.36586744 0.31895438 -0.09609023 -0.06744763
-0.13992906 -2.4225872 0.121515304 -4.530495 0.22300771 -4.5924354 0.22483668 -4.763096
14.465102 0.5570356 -1.100568 0.02559185 -3.594002 2.4323637 1.7520304 -4.103272
-17.713747 -4.5279803 9.042416 5.0978513 -0.39410833 0.2161476 5.667458 -2.6644735
-0.56460536 1.7687011 0.15998617 1.78711 -0.10533576 -0.16470903 -0.8604105 0.1439327
-3.115929 -10.6657915 -6.6085806 8.788202 3.416233 2.4789684 2.7360306 10.519329
-1.9734712 -0.22306329 -5.6657233 0.24491927 0.16255817 0.15312959 8.703809 -1.9506673
1.429178 4.23243 3.3027036 2.697059 -1.2093283 -0.17797375 -2.0905507 -3.9705431
0.12910497 0.28342465 -0.8845644 4.3162007 3.1693616 8.779249 2.9721127 0.19405022
3.961351 1.2284553 3.0173254 -1.6935084 -3.8695192 -3.4374099 -0.7471576 -0.2742647
0.15122202 -0.19249725 0.9614744 1.1085236 -3.6775253 1.5044678 5.499433 -18.236221
00000000: 0636 1340 2e9b cdbf 31e6 0440 4625 82c0
00000010: 95d1 8b3e 9c43 6540 3d22 17c1 61aa 6f40
00000020: 9119 0bc0 15c4 9fbf 6c98 7a3f 6364 c9c0
00000030: 1ccb cf3d e5d1 08be 1565 933d 1bc4 9940
00000040: 3a1d b5c0 29cf b7c0 cfd0 9840 0e3d 5f3e
00000050: 351b 6140 039a 9fbe b179 a240 ddea ae3e
00000060: 7f62 263e 1cc4 68c0 f2b5 383e 339a a5c0
00000070: 8ad1 d5c0 0318 edc0 74f6 62be 0144 7cbe
00000080: d090 f8c0 0bcc 13c0 c918 e4bf b813 533d
00000090: be51 e9bf 02f1 6ebf 145b a03d 91c0 73bf
000000a0: 14eb 0cbe 7deb 3041 4512 ccbf e4b4 ab40
000000b0: c34c 76c0 2fcd 57c1 ae59 a5be b777 8840
000000c0: b2ea 963f 269c 41c0 68cb c3c0 37de 4040
000000d0: eb6b d3bf af7a 1cc0 3fa7 3a40 4cf8 873d
000000e0: a7f9 0cc0 455c eb3f 8a41 2040 7c62 83c0
000000f0: c500 a53e 207a 1840 73e1 2cbf ff1f e7be
00000100: 30a9 c13c 223f 8141 0682 f4bf dcf9 d3bf
00000110: 257e 843f f871 3f3d 42eb 6bbe 6fcc dd40
00000120: d594 6040 00be 793c c35d d5bd 80ac 98bb
00000130: dcf2 6bbe d12c 8740 ed56 b8c1 142e 853d
00000140: 929a 583e c890 90c0 9717 14c0 97a0 b3be
00000150: 2ec4 50c1 958f c83e ba93 2040 1ea0 c5bf
00000160: 3985 5bbe 28cb 06c0 9663 bec0 7546 09bf
00000170: 136c 61bd 5bef 49c0 af21 8e40 6798 d73e
00000180: 699a 3840 8e42 08c1 99b9 a2be 4012 0e40
00000190: 484e d53d 3a08 87c0 6ae8 fe3f 794f 6340
000001a0: 407b c43b 09f7 2c3f 6577 3c40 1b71 923f
000001b0: 95a3 8dc0 a6d4 243e b091 003d 0742 ab40
000001c0: 4928 6740 d2d5 6bc1 af68 57c1 e9f9 cac0
000001d0: 1c32 b23d eb57 89c0 1520 4bc0 4727 9b3e
000001e0: 4476 823e 4596 0abf 4dc3 2dc0 fc51 6b40
000001f0: f53d 1dc1 4eba 0b40 accf 8cbe ae29 0fc0
00000200: e793 8140 2ff8 7540 4c2b 45be b006 0bbf
00000210: 4204 0d40 ff29 193f a082 0e3e 1ae2 3a3e
00000220: 0c70 5a40 7f22 4a40 6a91 183e 1a10 9fc0
00000230: 17d1 a13e 9cbb 43c0 5eb1 593e e221 1f3e
00000240: 4fd9 06c0 4ee5 0f3e af5c 9740 76bf 92b7
00000250: 532b b43f aa32 82c0 f050 b53c c8cd 3f40
00000260: 42f7 7d40 f272 c3bf 1024 523d c6bb 4340
00000270: 5089 9ec0 d640 1641 5e28 7040 5174 53be
00000280: 3031 cfbd 7f7b 9f3e b815 88c0 6dec 7840
00000290: eea0 2040 4491 17c1 875d 1abf 2060 3b40
000002a0: 68f1 7ec0 bab4 ad40 625a 2340 182b 7f3d
000002b0: fa52 bb3e fd4d a33e f4ca c4bd fc21 8abd
000002c0: 9049 0fbe ab0b 1bc0 04dd f83d d1f9 90c0
000002d0: 225c 643e 3bf5 92c0 963b 663e 486b 98c0
000002e0: 0f71 6741 e399 0e3f 6adf 8cbf 00a6 d13c
000002f0: 2104 66c0 d9ab 1b40 8842 e03f 014e 83c0
00000300: c1b5 8dc1 37e5 90c0 bcad 1041 9921 a340
00000310: 91c8 c9be cc55 5d3e d15b b540 bc86 2ac0
00000320: fa89 10bf cc64 e23f 6ad3 233e 05c0 e43f
00000330: 46ba d7bd 7ca9 28be dd43 5cbf 1863 133e
00000340: 616b 47c0 15a7 2ac1 7e79 d3c0 7a9c 0c41
00000350: 90a3 5a40 6ba7 1e40 201b 2f40 2c4f 2841
00000360: b49a fcbf b46a 64be 9b4d b5c0 1ecc 7a3e
00000370: a675 263e 01ce 1c3e cd42 0b41 77af f9bf
00000380: 4eef b63f 1170 8740 7f5f 5340 9d9c 2c40
00000390: 45cb 9abf c03e 36be 95cb 05c0 611d 7ec0
000003a0: 1834 043e 091d 913e d072 62bf 511e 8a40
000003b0: d2d6 4a40 ce77 0c41 1837 3e40 1ab5 463e
000003c0: c686 7d40 063e 9d3f dc1b 4140 e2c4 d8bf
000003d0: 34a6 77c0 86fe 5bc0 b845 3fbf 6c6c 8cbe
000003e0: f2d9 1a3e 001e 45be 3023 763f 1ae4 8d3f
000003f0: 935c 6bc0 6792 c03f 5bfb af40 c8e3 91c1

fc2.weight f4 [256, 256]
-0.007292949 -0.015229023 0.10739324 -0.024705928 -0.0060994476 0.6745202 -0.6858745 0.18109554
-0.18148547 0.017201189 0.10804616 -0.020220937 -0.012344074 -0.104743935 0.15114054 -0.6314686
-0.2076769 -0.020264098 0.41244712 -0.047214746 0.023087442 -0.034839973 0.07539006 0.042426594
0.04832507 -0.0060900813 -0.07856808 -0.080756806 0.3987935 -0.12088616 0.03853833 0.71146667
0.39708975 -0.12885843 -0.07020343 0.01257135 0.025083626 0.13247189 -0.014055103 0.099823035
0.23267543 0.036821164 0.0035619384 0.7083997 -0.27950504 -0.23256065 0.047267757 0.13218637
0.102677256 0.22608529 -0.20007204 0.09810226 0.05777273 -0.029125078 0.1648476 -0.10505288
-0.97363085 -0.006717584 -0.15070373 0.06568266 -0.08028999 0.17134967 -0.05688188 0.15624574
-0.025514923 -0.041826896 0.003075653 0.064537734 -0.15231445 -0.020021565 0.0790792 -0.52332604
-0.04422357 0.05484218 -1.2404503 0.039198525 0.030846141 -0.0031264161 -0.2775647 0.001565598
-0.0037450865 -0.091359496 0.07712385 -0.006562382 0.04368282 0.0044586267 0.034785032 0.008739737
0.037040077 -1.8494077 -0.11026301 -0.024558399 0.3549483 -0.15245388 0.19160955 0.016447747
0.30361736 -0.53932744 0.025338687 -0.3220755 0.046935044 -0.03949759 -0.31881195 -0.003987561
0.01199498 0.09757486 1.6034743 0.026158221 0.089681685 0.081572734 -0.08142708 0.49749
0.02271022 -0.32007763 -0.0035142112 -0.09136225 0.038153864 0.5774357 -0.014516575 0.049085118
-0.09282653 -0.0697352 0.025910422 0.18264006 -0.09672035 -0.050481495 -0.08711362 0.024136666
0.0073130946 0.5574576 0.07634629 0.108598314 0.27907917 -0.0034203941 0.08092675 -0.0009914617
0.3980184 0.03536312 -0.0052013993 0.034494888 -0.09104627 -0.020392675 -0.032382824 -0.0399545
0.03995814 -0.0037569553 0.032818936 -0.077035345 -0.18112361 -0.08576652 0.040877737 -0.16540533
0.055625234 -0.15424609 0.029611282 0.6824393 0.07142188 0.016110983 0.1842445 -0.017283961
0.01846642 -0.051756002 -0.05984176 0.050592307 0.106291704 -0.24420083 -0.050937735 0.068609424
-0.070517145 -0.08342545 0.09990296 0.038084112 0.07276669 0.09653536 -0.086385295 -0.10003999
-0.06314103 -0.04357383 -0.10120969 0.17984587 -0.0845576 0.06793993 -0.005185619 0.33772114
0.41023698 -0.044654462 -0.058053598 -0.051654674 0.26144257 0.6161421 0.06369402 0.22620238
-0.36094436 -0.022441866 0.007822934 0.13960926 -0.0811281 -0.109270394 0.13727129 -0.109665096
0.30339107 0.46910658 0.00059883296 0.013696481 -1.0020217 -0.95584196 0.028867109 0.009134971
-0.032674205 0.5243509 0.12132667 0.6334347 0.2182865 0.65519565 2.0215225 -0.2576117
0.11927937 -0.07267893 -0.443751 0.042005025 0.012449749 0.004011476 -0.11500621 -0.21352226
0.12312472 0.13760716 0.31442404 0.056195185 -0.016178813 0.018772759 -0.5415554 0.07135379
-0.038320057 -0.10766362 -0.108252175 0.1273559 0.22171946 0.050167244 1.3027494 -0.0010807738
0.053344198 0.13322365 1.2092924 -0.32243493 0.46537334 -0.7471664 1.0623267 -0.0012335405
-0.06348032 0.017991297 0.15827441 0.1869002 0.10282897 0.24755362 -0.10664401 -0.26689294
00000000: b1f9 eebb 2783 79bc fdf0 db3d 1664 cabc
00000010: e0dd c7bb 5bad 2c3f 7995 2fbf 1c71 393e
00000020: 54d7 39be 82e9 8c3c 4e47 dd3d 61a6 a5bc
00000030: cd3e 4abc fd83 d6bd 96c4 1a3e eda7 21bf
00000040: 41a9 54be e500 a6bc 452c d33e 4064 41bd
00000050: e021 bd3c 5cb4 0ebd 1b66 9a3d 82c7 2d3d
00000060: 82f0 453d 4e8f c7bb 4de8 a0bd d363 a5bd
00000070: a92e cc3e 2a93 f7bd 5eda 1d3d ae22 363f
00000080: 594f cb3e 77f3 03be d1c6 8fbd 10f8 4d3c
00000090: 2d7c cd3c b6a6 073e 6047 66bc 0570 cc3d
000000a0: 7842 6e3e cad1 163d 696f 693b af59 353f
000000b0: 491b 8fbe 6124 6ebe d69b 413d dd5b 073e
000000c0: 7448 d23d e782 673e afdf 4cbe d6e9 c83d
000000d0: 19a3 6c3d b797 eebc cfcd 283e f725 d7bd
000000e0: df3f 79bf 2e1f dcbb 1452 1abe a184 863d
000000f0: 146f a4bd 4a76 2f3e f9fc 68bd e2fe 1f3e
00000100: ac04 d1bc ae52 2bbd e590 493b 5c2c 843d
00000110: 52f8 1bbe 4404 a4bc 47f4 a13d b2f8 05bf
00000120: c623 35bd 32a2 603d 13c7 9ebf a28e 203d
00000130: 0cb1 fc3c 8fe4 4cbb f61c 8ebe c034 cd3a
00000140: 2070 75bb b01a bbbd 1cf3 9d3d 4009 d7bb
00000150: c2ec 323d ac19 923b c07a 0e3d 1d31 0f3c
00000160: 56b7 173d 64b9 ecbf 93d1 e1bd b22e c9bc
00000170: c9bb b53e df1c 1cbe 4b35 443e 6dbd 863c
00000180: bc73 9b3e 5d11 0abf 1493 cf3c 14e7 a4be
00000190: f63e 403d 3ac8 21bd 523b a3be 16aa 82bb
000001a0: 9886 443c 54d5 c73d a53e cd3f c449 d63c
000001b0: 08ab b73d 9b0f a73d 3ec3 a6bd 02b7 fe3e
000001c0: c90a ba3c 37e1 a3be ae4e 66bb 221c bbbd
000001d0: 3a47 1c3d d3d2 133f eed6 6dbc 7a0d 493d
000001e0: d61b bebd 54d1 8ebd 1842 d43c ff05 3b3e
000001f0: 5215 c6bd afc5 4ebd a068 b2bd 42ba c53c
00000200: afa2 ef3b 8bb5 0e3f 725b 9c3d cb68 de3d
00000210: 77e3 8e3e b128 60bb edbc a53d eff3 81ba
00000220: 11c9 cb3e ebd8 103d 8070 aabb 834a 0d3d
00000230: 7876 babd 8a0e a7bc daa3 04bd 54a7 23bd
00000240: 26ab 233d 4037 76bb 266d 063d b5c4 9dbd
00000250: 7878 39be 5ba6 afbd 6a6f 273d 0460 29be
00000260: 49d7 633d b0f2 1dbe 5c93 f23c 58b4 2e3f
00000270: a245 923d 2efb 833c 97aa 3c3e 1897 8dbc
00000280: e446 973c 1afe 53bd a21c 75bd e139 4f3d
00000290: 77af d93d c80f 7abe 16a4 50bd 1983 8c3d
000002a0: 4b6b 90bd f6da aabd ec99 cc3d 16fe 1b3d
000002b0: b406 953d 55b4 c53d c6ea b0bd c4e1 ccbd
000002c0: 1650 81bd 797a 32bd 0747 cfbd 8429 383e
000002d0: 892c adbd 1724 8b3d 20ec a9bb c9e9 ac3e
000002e0: 950a d23e 99e7 36bd 9cc9 6dbd da93 53bd
000002f0: cddb 853e 7dbb 1d3f 0372 823d 99a1 673e
00000300: b3cd b8be 01d8 b7bc c32b 003c bbf5 0e3e
00000310: 7d26 a6bd 28c9 dfbd d890 0c3e 1898 e0bd
00000320: 1356 9b3e bd2e f03e 00fb 1c3a 3467 603c
00000330: 3f42 80bf 0fb2 74bf b77a ec3c d8aa 153c
00000340: 63d5 05bd dc3b 063f 1e7a f83d c728 223f
00000350: 7f86 5f3e e7ba 273f a060 0140 aee5 83be
00000360: be48 f43d b1d8 94bd 5533 e3be 760d 2c3d
00000370: 08fa 4b3c b372 833b 6088 ebbd 94a5 5abe
00000380: d028 fc3d e4e8 0c3e 30fc a03e ec2c 663d
00000390: 6e89 84bc 54c9 993c 60a3 0abf f021 923d
000003a0: 7ef5 1cbd be7e dcbd 51b3 ddbd 9669 023e
000003b0: 6d0a 633e 2b7c 4d3d 7ec0 a63f c0a8 8dba
000003c0: 727f 5a3d c86b 083e 18ca 9a3f 3116 a5be
000003d0: 6a45 ee3e 4c46 3fbf 52fa 873f c0ae a1ba
000003e0: f801 82bd 7c62 933c b012 223e c462 3f3e
000003f0: ff97 d23d b27e 7d3e 2d68 dabd 31a6 88be

fc2.bias f4 [256]
2.1047893 -0.9509117 1.8673106 2.7018285 -1.3047878 0.91918164 2.022659 -1.5015748
-0.021439672 2.0910358 0.82068783 -3.5656798 1.6426615 0.012099115 1.9454279 0.31913647
-0.40278742 -0.101053044 2.1127567 -1.7748141 -0.029701421 0.019126797 -1.7322221 0.39278394
-1.2773737 -0.017266795 2.816133 -1.4215606 -0.23555799 -0.059062462 -0.013352524 -1.2223226
-0.052721772 -0.046941068 -0.47217214 1.1752325 -0.08794559 0.20744315 -2.8170614 -3.125204
2.1483335 0.23102812 -1.2240168 3.976475 -1.1815448 -1.6822119 2.868865 0.20883664
-0.8228122 -0.07472381 1.633908 2.8196888 1.6440912 1.7614149 0.010364109 3.6398714
-0.31889898 -1.3021917 -1.4021475 -0.08574103 -1.5080754 1.7147741 -1.1478958 -0.06743286
0.49795854 -1.6954947 -0.8379979 -1.3593364 -1.4054788 0.94029707 -1.5504051 -0.0112393815
3.169362 -1.0867689 0.026893057 -1.2607533 1.4328463 -0.0903173 -0.32588506 1.5815177
2.8707764 -1.6837169 0.70638007 -1.1917502 -1.2267659 2.856939 -1.3299304 -0.008601291
1.6197324 -1.1786788 -0.6753432 -1.2856388 0.943339 3.2414627 2.862164 -4.7126627
-0.13483338 1.1606201 -0.5294956 -1.3028787 2.8024738 2.9154658 -0.64096975 2.3296733
-0.09008191 -1.1271328 -1.2663108 -1.8498589 4.5057898 0.91529065 -0.8760056 1.3159155
-0.09419865 -0.15704662 -0.036527943 -0.7379906 3.1963234 0.0024151425 1.6276356 2.8876605
0.19619033 -0.03266834 -1.0266556 -0.07066742 2.7336788 2.80314 2.6261082 -0.9814754
0.970182 2.8839757 3.7224402 -1.9060699 -1.0123476 -0.072441556 -1.320916 1.786529
-0.9507474 2.1667182 2.783522 -0.76315635 2.818442 -2.2034848 0.92880094 -1.3048862
-1.2962978 2.8168998 -1.2160418 0.35394943 1.1447569 -0.056631267 0.33395365 -2.256992
1.4267524 -1.7828592 -0.17350994 -1.209255 3.6852977 -0.018427389 1.5077758 2.2195275
1.5276105 -0.01077017 1.1213468 2.870505 -0.8349145 -1.9684305 -0.03502778 0.8018192
0.6989384 2.0223644 2.7161899 -0.11296282 0.7282815 3.6694407 3.7067218 -2.7365942
0.03861421 2.818633 2.593847 5.7531047 0.3192958 -0.83505934 -0.109030314 -1.2286856
3.1641996 0.62237436 2.1398299 -0.10695713 1.5438254 -1.2803658 3.2081017 -1.3411349
2.768468 -0.06710079 2.4335892 -1.0537255 1.108754 3.3530836 -1.3964946 2.8105571
1.229583 -1.2787491 -0.062050182 -0.0095094275 1.7189598 1.3491668 -1.120905 1.4740368
2.6095326 -1.2290528 -4.087172 2.7955256 -1.8478338 2.6897635 1.6065795 -1.3074503
1.984963 -1.3361492 -0.981473 2.0878446 -0.023494804 2.1433513 3.2760224 -1.5415047
-0.1025848 -0.338738 -0.54210824 -5.334741 -1.4780557 -0.7515419 -1.268894 0.14333062
-0.018720644 6.0761003 3.947278 1.6905348 -0.04935701 -1.406409 -0.076983444 1.7510742
3.040876 -0.030967122 -0.6922142 -1.4402817 1.4615494 2.7966383 -0.05865838 1.5530751
-2.3012762 -0.15365511 1.4499435 -1.5810068 1.9337647 2.3829226 -1.3664546 -0.9777004
00000000: deb4 0640 f36e 73bf 0904 ef3f c2ea 2c40
00000010: 4903 a7bf 7d4f 6b3f 3f73 0140 9a33 c0bf
00000020: 40a2 afbc 88d3 0540 9918 523f 1934 64c0
00000030: bb42 d23f 5e3b 463c c803 f93f db65 a33e
00000040: 273a cebe e6f4 cebd 6837 0740 1c2d e3bf
00000050: 6550 f3bc cdaf 9c3c 74b9 ddbf fa1a c93e
00000060: fb80 a3bf 1873 8dbc 863b 3440 b3f5 b5bf
00000070: 1d36 71be 7beb 71bd 8bc4 5abc 1175 9cbf
00000080: c9f2 57bd 4745 40bd 8cc0 f1be 056e 963f
00000090: d11c b4bd fa6b 543e bc4a 34c0 5803 48c0
000000a0: 4c7e 0940 a392 6c3e 95ac 9cbf 917e 7e40
000000b0: dc3c 97bf b852 d7bf 7c9b 3740 46d9 553e
000000c0: d2a3 52bf cc08 99bd e623 d13f c875 3440
000000d0: 9571 d23f 0b76 e13f 39ce 293c a7f3 6840
000000e0: ba46 a3be 38ae a6bf 9279 b3bf fe98 afbd
000000f0: 9d08 c1bf b87d db3f 40ee 92bf 3d1a 8abd
00000100: 6cf4 fe3e f805 d9bf 0887 56bf bcfe adbf
00000110: bbe6 b3bf 4fb7 703f ad73 c6bf 6225 38bc
00000120: d4d6 4a40 3e1b 8bbf d44e dc3c 5d60 a1bf
00000130: 8267 b73f 47f8 b8bd 68da a6be 2c6f ca3f
00000140: cdba 3740 0984 d7bf 53d5 343f 458b 98bf
00000150: aa06 9dbf 17d8 3640 293b aabf 6eec 0cbc
00000160: 6453 cf3f f2de 96bf 4be3 2cbf d08f a4bf
00000170: aa7e 713f 2074 4f40 b22d 3740 22ce 96c0
00000180: c311 0abe 338f 943f 068d 07bf bbc4 a6bf
00000190: bb5b 3340 fe96 3a40 9816 24bf 5e19 1540
000001a0: dd7c b8bd e345 90bf 7916 a2bf 2dc8 ecbf
000001b0: 6e2f 9040 7d50 6a3f e741 60bf eb6f a83f
000001c0: 39eb c0bd d4d0 20be 539e 15bd f4ec 3cbf
000001d0: 9090 4c40 5e47 1e3b 5d56 d03f 6ecf 3840
000001e0: 1ee6 483e 3dcf 05bd 7369 83bf 15ba 90bd
000001f0: 98f4 2e40 a566 3340 2812 2840 f941 7bbf
00000200: d95d 783f 0f93 3840 763c 6e40 19fa f3bf
00000210: 9b94 81bf 3d5c 94bd c713 a9bf fbac e43f
00000220: 2e64 73bf 83ab 0a40 3925 3240 375e 43bf
00000230: 5b61 3440 e505 0dc0 e6c5 6d3f 8306 a7bf
00000240: 16ed a5bf 1648 3440 42a7 9bbf dc38 b53e
00000250: 6587 923f 30f6 67bd f9fb aa3e 8f72 10c0
00000260: d39f b63f bb34 e4bf 97ac 31be dec8 9abf
00000270: ebdb 6b40 09f5 96bc ccfe c03f bd0c 0e40
00000280: be88 c33f 5e75 30bc 4b88 8f3f 5bb6 3740
00000290: f5bc 55bf 88f5 fbbf 4a79 0fbd 0644 4d3f
000002a0: a1ed 323f 6b6e 0140 0ed6 2d40 0d59 e7bd
000002b0: a870 3a3f 1ed8 6a40 ee3a 6d40 5c24 2fc0
000002c0: ef29 1e3d 7c64 3440 9701 2640 6f19 b840
000002d0: bd7a a33e 73c6 55bf 494b dfbd 9245 9dbf
000002e0: 3f82 4a40 ed53 1f3f f9f2 0840 570c dbbd
000002f0: 129c c53f 07e3 a3bf 8a51 4d40 4faa abbf
00000300: 942e 3140 246c 89bd edbf 1b40 7ae0 86bf
00000310: a7eb 8d3f ec98 5640 56c0 b2bf 2be0 3340
00000320: fa62 9d3f 0dae a3bf 5528 7ebd 6ecd 1bbc
00000330: e006 dc3f 7fb1 ac3f d179 8fbf 3dad bc3f
00000340: 9502 2740 9a51 9dbf 1dca 82c0 e4e9 3240
00000350: d185 ecbf 1625 2c40 66a4 cd3f 885a a7bf
00000360: 4513 fe3f f006 abbf d141 7bbf 3f9f 0540
00000370: 2d78 c0bc ab2c 0940 5aaa 5140 0750 c5bf
00000380: fb17 d2bd 116f adbe 9bc7 0abf 33b6 aac0
00000390: ee30 bdbf 0d65 40bf 1e6b a2bf 43c5 123e
000003a0: 095c 99bc 6a6f c240 34a0 7c40 7263 d83f
000003b0: 932a 4abd 3605 b4bf 7fa9 9dbd 3323 e03f
000003c0: b69d 4240 c3ae fdbc f334 31bf 275b b8bf
000003d0: 0d14 bb3f 1ffc 3240 c543 70bd 2acb c63f
000003e0: 1c48 13c0 c457 1dbe c097 b93f 6e5e cabf
000003f0: 9a85 f73f ce81 1840 fce7 aebf 934a 7abf

fc3.weight f4 [1, 256]
-0.3455641 -0.83547795 -2.2224216 -2.0415778 0.11699334 -1.3215806 -2.0449479 0.6938061
0.0067022108 -1.7258071 -0.5152179 1.5894225 1.1554776 -0.09943801 -0.38209954 -2.0048928
0.6668493 -0.072730355 1.7572886 0.25011626 0.049016383 -0.0739475 0.52135843 -2.3438864
0.19857924 -0.0076728226 -1.897334 0.17709321 -0.469441 0.0026811182 -0.025422297 0.8101839
0.0071368073 -0.06934553 -0.47760078 -0.5506041 -0.069909714 0.39718896 2.7323232 1.2855498
-1.925617 -2.8656204 0.22736692 -0.5676852 0.14859773 0.30215076 -0.9435608 -0.6661901
-1.7690231 -0.042386997 -0.34855068 -1.8868746 1.3809173 1.5501238 -0.06989709 -4.947939
-0.40432402 -0.4275193 0.55080175 -0.0001149411 0.51230454 3.5659745 0.36864722 0.05883881
-0.40384808 -0.9850444 -0.8475564 0.39596516 0.07165948 2.0716624 -0.41228133 1.1450368
-1.2726651 -0.4792089 -0.026929524 0.033978254 -0.35795432 0.05408184 2.080483 -0.30460107
-1.1604706 -1.5435569 1.8398068 0.6071834 0.30350664 -0.32263154 -0.52365 0.017012548
-0.3151341 0.17468935 0.57939166 0.12320734 1.0765915 -0.753903 -1.7952167 -3.4549634
1.0350097 -0.20388848 -1.5159721 0.4685805 -2.0871735 -0.85332066 0.65176547 -0.33159843
-0.0027992951 0.24249251 0.09976542 2.546318 -1.1607794 -1.7356368 0.55141056 0.7724065
-0.0026116204 0.48002243 -0.023018297 0.36500505 -2.2818294 -0.0013857627 -0.76585776 -4.3042283
1.1747698 -0.02542954 0.52581793 0.0046798554 -1.4019357 -1.5186065 -1.8342385 0.8065339
-0.8591017 -1.3696314 -1.1958135 1.3781852 -0.4406685 0.08128368 0.5347048 3.0652833
0.24017712 -0.8950559 -1.6449039 2.3690221 -1.5045679 0.42660853 1.6930077 0.1691755
0.22645149 -1.9298608 -0.7871174 0.25207463 -0.43727574 0.078471996 -2.9481394 0.71100885
-2.5304008 0.38168603 1.1808571 0.2664442 -0.6243024 1.2226118 -0.53151333 -0.32262248
-0.47194424 -0.04077817 -2.9132664 -1.2524378 0.55330104 0.24775797 -0.006182352 -4.861774
1.2567723 -0.8035716 -0.97437954 0.0063009798 -0.27326787 -2.4440787 -0.6526284 0.6082257
-0.35673085 -0.57811296 -2.0149229 1.1663653 0.72130555 0.40781423 -0.050409716 0.18884218
-2.1625814 0.6011632 -0.39995593 0.044344105 -0.67848635 -3.0556297 -2.6917143 0.033204887
-1.5823598 0.10654546 -1.6105523 0.25173408 1.2564148 -1.3906767 -2.0017312 -0.6518337
-0.2851218 0.08806619 0.009516618 0.0048319753 -0.39187536 -0.64002734 1.5022892 0.9068436
-0.49551073 -1.9530327 0.48867932 -1.6632212 0.94165367 -1.3940225 0.15053996 0.08988555
-0.15229632 0.39040124 0.5915153 -0.17428197 0.09490767 -0.77799493 2.7256172 -0.9020302
-0.07596166 0.2328793 -0.7899249 1.5352985 0.13090368 0.17702429 0.3066606 -0.7108586
0.040318277 -0.8885061 -2.5834234 1.4553711 0.09501627 0.40851706 0.063742824 -0.40803778
-0.7816377 0.016139604 0.36122766 0.15256059 0.93065006 -1.6268138 0.0058918293 -0.6196079
0.8398393 0.45438227 0.5132413 -0.24174824 -1.6982543 -0.59420866 0.02795801 -1.3263958
00000000: c7ed b0be e2e1 55bf 283c 0ec0 36a9 02c0
00000010: 349a ef3d 8e29 a9bf 6de0 02c0 479d 313f
00000020: 389e db3b 3fe7 dcbf 52e5 03bf 3272 cb3f
00000030: b1e6 933f 28a6 cbbd 8da2 c3be 2a50 00c0
00000040: a3b6 2a3f a7f3 94bd d5ee e03f 3d0f 803e
00000050: 67c5 483d c971 97bd bf77 053f 3c02 16c0
00000060: 5b58 4b3e 4d6c fbbb d7db f2bf ec57 353e
00000070: 925a f0be b3b5 2f3b 6c42 d0bc 3668 4f3f
00000080: e1db e93b 0705 8ebd 1788 f4be 64f4 0cbf
00000090: d32c 8fbd 5a5c cb3e 62de 2e40 e58c a43f
000000a0: 9e7a f6bf 5366 37c0 e0d2 683e d153 11bf
000000b0: 012a 183e 81b3 9a3e 338d 71bf 6f8b 2abf
000000c0: 596f e2bf fd9d 2dbd 3c75 b2be 1b85 f1bf
000000d0: e6c1 b03f 756a c63f 3526 8fbd 8455 9ec0
000000e0: 8f03 cfbe cfe3 dabe 5801 0d3f 880c f1b8
000000f0: 6426 033f ed38 6440 54bf bc3e f700 713d
00000100: 2dc5 cebe df2b 7cbf 75f9 58bf f2bb ca3e
00000110: 35c2 923d 1e96 0440 8a16 d3be 9190 923f
00000120: b1e6 a2bf de5a f5be 4e9b dcbc c82c 0b3d
00000130: ca45 b7be eb84 5d3d a226 0540 acf4 9bbe
00000140: 4d8a 94bf 4693 c5bf ca7e eb3f 5f70 1b3f
00000150: 3965 9b3e f62f a5be ed0d 06bf e65d 8b3c
00000160: 4259 a1be c4e1 323e 0353 143f 2154 fc3d
00000170: c0cd 893f c9ff 40bf a9c9 e5bf 1f1e 5dc0
00000180: 337b 843f 24c8 50be 600b c2bf c9e9 ef3e
00000190: 4094 05c0 3973 5abf 1ada 263f 45c7 a9be
000001a0: 6174 37bb f54f 783e d051 cc3d e0f6 2240
000001b0: 6b94 94bf 5929 debf 3e29 0d3f 6fbc 453f
000001c0: b827 2bbb 80c5 f53e de90 bcbc f1e1 ba3e
000001d0: 7e09 12c0 7ba2 b5ba 410f 44bf 3dbc 89c0
000001e0: db5e 963f 9c51 d0bc 019c 063f 7959 993b
000001f0: a172 b3bf b361 c2bf 54c8 eabf 0179 4e3f
00000200: 17ee 5bbf 1550 afbf 6b10 99bf 5f68 b03f
00000210: 4d9f e1be 0f78 a63d 6ae2 083f 9a2d 4440
00000220: fef0 753e 6222 65bf 368c d2bf 0f9e 1740
00000230: ae95 c0bf 6f6c da3e 7ab4 d83f 583c 2d3e
00000240: e6e2 673e ae05 f7bf 8780 49bf ed0f 813e
00000250: 9be2 dfbe edb5 a03d 51ae 3cc0 ad04 363f
00000260: 16f2 21c0 5a6c c33e 5326 973f 606b 883e
00000270: 48d2 1fbf 8b7e 9c3f 4211 08bf c62e a5be
00000280: ada2 f1be 0307 27bd f572 3ac0 e24f a0bf
00000290: 23a5 0d3f 44b4 7d3e 5495 cabb a793 9bc0
000002a0: eadd a03f deb6 4dbf f070 79bf 7378 ce3b
000002b0: c4e9 8bbe c96b 1cc0 a812 27bf aeb4 1b3f
000002c0: 6da5 b6be 36ff 13bf 7ff4 00c0 754b 953f
000002d0: 7ba7 383f 07cd d03e 6b7a 4ebd d85f 413e
000002e0: bc67 0ac0 d5e5 193f 06c7 ccbe 2aa2 353d
000002f0: 48b1 2dbf 708f 43c0 0c45 2cc0 d901 083d
00000300: c48a cabf 8234 da3d 9426 cebf 4ae3 803e
00000310: 33d2 a03f b201 b2bf 5d1c 00c0 93de 26bf
00000320: 7cfb 91be 0c5c b43d 97eb 1b3c 8c55 9e3b
00000330: e3a3 c8be d5d8 23bf 034b c03f e726 683f
00000340: 95b3 fdbe fafc f9bf 2d34 fa3e 6fe4 d4bf
00000350: 3710 713f 546f b2bf 2627 1a3e ea15 b83d
00000360: 91f3 1bbe ace2 c73e 8c6d 173f f976 32be
00000370: f45e c23d ad2a 47bf 8370 2e40 74eb 66bf
00000380: c991 9bbd e977 6e3e 8538 4abf a984 c43f
00000390: 9d0b 063e db45 353e 9e02 9d3e d4fa 35bf
000003a0: c724 253d 2375 63bf cf56 25c0 9a49 ba3f
000003b0: e497 c23d 2629 d13e 998b 823d 54ea d0be
000003c0: 6919 48bf 3437 843c d5f2 b83e d838 1c3e
000003d0: 153f 6e3f 6f3b d0bf 3f10 c13b a09e 1ebf
000003e0: b5ff 563f cba4 e83e c863 033f da8c 77be
000003f0: 6660 d9bf 0f1e 18bf 3208 e53c 56c7 a9bf
