model/sac_ff_dqn_ff/agent1_sac_ff_policy_1000000.pth (torch, 275791 bytes, 6 tensors)

fc1.weight f4 [256, 7]
00000000: 197f a8c0 d79e d8bf 9804 c6be 9f4e 743f
00000010: 6d0a 953f 7df3 cfbb 2546 67bd d682 a8c0
00000020: 5736 61be 468a 96bb 52cf 1940 53df b7bf
00000030: 7236 b2ba cbc7 c93b ba59 e5bd 3917 4dbd
00000040: 98a1 dd3b a26b 9dbd 071f ebbc 0cf1 c1bc
00000050: e30e 1dbe 5672 c9bd e27a b23c 56fa 9bbc
00000060: 349b 363d 369e 713b 80e6 83bb 5205 27be
00000070: 6b98 23be 292c 9ab9 4f3a dc3c 6c6f 30be
00000080: cb5e 20be e6dd 40be 70eb 8d3d 6b98 52be
00000090: 5b7e 593d 6e3f 29be f890 0b3d 5f15 393d
000000a0: f8e2 69ba 7405 55be ff10 63bd 18ac 17bd
000000b0: b6c6 b5bd ac5f e2bd 25bd 31be 1e63 143a
000000c0: e363 7dbd 2601 a13f ec76 06bf 561a e73c
000000d0: fd23 ec3f 158a a2bf 1740 8f3b 8cde 453d
000000e0: f216 0c3e 60c9 503c b09f 65bc 38bb f0bc
000000f0: 346d 283d 5a06 15be 9807 2d3d 874d 30be
00000100: cecb 48be 2c80 2dbe 7ed9 26be 4130 04be
00000110: 1ed7 c5bb fa05 30be 0194 ba3d 859e babd
00000120: 6850 1abc 0e2a 8e3c ee2f e33d 6656 8cbd
00000130: c389 ae3d f01a 153c b819 cfbc 5560 b6bd
00000140: 5087 173e e788 0dbe d007 16bd de03 8a3d
00000150: 1237 9dbf e109 0140 5f94 48bd a1ea fdbf
00000160: 3402 4f3f 0875 74bb 6025 da3c 149b 24be
00000170: 7e9a b1bd 3d62 1abe 15b1 bf3b b6f9 02be
00000180: 3e5a d038 8816 7e3d 6afd 17bd f3af 66be
00000190: a7c9 033d 3072 04be e932 70be e1a8 11be
000001a0: d4a8 f3bc ebf8 46be c8c7 8ebe b155 fb3c
000001b0: bacb 2abe 8b7b 933d f365 2dbe 556b 5fbe
000001c0: 594f 0d40 e003 df3f 9389 e3bd c281 e2bf
000001d0: dece ec3f e432 a6bb 1bea 603d 7312 cfbd
000001e0: b512 0cbe a6c9 5abc 1e28 0bbd b3a5 b33d
000001f0: 4056 03bd a244 a73c 320a dbbd 821b efbc
00000200: e889 59bd 26d0 e23c ec1f 26be 8c33 21bb
00000210: a215 33be e8d2 0bc0 43df 143f 7ce1 0dbb
00000220: 3732 dd3f 0d00 74c0 d4f6 4a3c fd79 963e
00000230: 912f 33bd 3fe0 39be 18d2 b8bb 40a5 dbbd
00000240: ecd7 02be 3208 37bc 228c ab3c 5c81 793d
00000250: 58f4 5c3d 589b 94bc d8dd fa3c a0e3 eabb
00000260: 1617 5cbd 7421 a8bd 70d5 b240 9b21 b13f
00000270: 589a 01be 8d50 8e3f c325 f0bf 4f1b 983c
00000280: 8c38 08bd 8464 0fbe 7b9d 8dbd b268 36bd
00000290: e034 043e 0f41 17bd f9ba 08bd a636 933d
000002a0: 7c61 14bd fdb7 2dbd 8a19 a93c d98a f2bd
000002b0: fc5b 58be 3f7e 04be 463c 0bbb ae91 3dbe
000002c0: 844a a43c 3206 543c 4dd9 523d f7c2 3abe
000002d0: e195 3dbe 4d30 07bd 0612 0cbd d472 bebd
000002e0: 94e3 98bd bf51 99bb d82f f6bd abd0 053a
000002f0: 1167 d8bc 30fd afbd ec6b 783d 3966 0abe
00000300: f7c4 89bb 5567 f7bb 0454 fabb eb37 39be
00000310: 4a33 bbbd 5685 023e c44e 24bd e094 53bc
00000320: e07a ba3c 5611 62bd ce59 52bd 7707 03be
00000330: ba50 ae3c 600b 9c3c 7512 fe3d 28df 4dbd
00000340: c872 34be 4711 58bd 50f7 d73d 0033 68bd
00000350: 4e6f 51bd 0cb6 f13d 483f 81bd 20ee 9fbc
00000360: ec00 e0bd 3cb7 543d e789 0bbe 40c1 b1bc
00000370: 509c 54bd 68ae 753d ba74 e6bd a239 903d
00000380: e69b 2fbc 9391 1fbe 4caa d93b 4922 1cbe
00000390: 941f 3dbe 2efa a0bc e266 76be 90e9 f63d
000003a0: f07c 6b3c 38cc b5bd b874 a9bd 9690 12be
000003b0: 2854 c3bc 30e2 4b3d 6f44 aa40 315f c6bf
000003c0: fc73 11bd 7d64 cb3d f1ea 043f d3e3 aabc
000003d0: f54f 523d c021 9d3c 20d4 67bc 10c4 04bd
000003e0: f8b5 0d3e e612 4fbd 2e04 13bd c8a7 9f3c
000003f0: 9c4c 9c3d 62dc 163d 8784 41be 8d48 bcbd
-5.265515 -1.6923474 -0.3867538 0.95432466 1.1643807 -0.0063461647 -0.05646338 -5.265971
-0.21993385 -0.00459412 2.4032788 -1.4365028 -0.0013596548 0.0061578504 -0.111987546 -0.050070975
0.0067636482 -0.07686545 -0.028701318 -0.02367451 -0.1533771 -0.09836261 0.02178711 -0.019040268
0.044581607 0.0036867983 -0.0040252805 -0.16310623 -0.15976112 -0.0002940607 0.026883272 -0.17230004
-0.1566116 -0.18834648 0.06929672 -0.20565955 0.053099018 -0.16528103 0.0340738 0.045186397
-0.00089220656 -0.20802861 -0.05543613 -0.037029356 -0.08875792 -0.11053404 -0.17357309 0.00056605216
-0.061862838 1.2578475 -0.5252521 0.0282108 1.8448483 -1.2698389 0.004371654 0.04830794
0.13680628 0.012743324 -0.014015123 -0.029386148 0.04111977 -0.14553204 0.04224357 -0.17217074
-0.19608995 -0.16943425 -0.16293904 -0.12909032 -0.006037607 -0.1718978 0.09110261 -0.091122665
-0.009418584 0.017354038 0.11093126 -0.06852417 0.0852237 0.009100661 -0.025280818 -0.089050926
0.14797711 -0.13821755 -0.036628544 0.06739019 -1.2282431 2.016228 -0.048969623 -1.9837228
0.80862737 -0.0037301201 0.02662915 -0.16074783 -0.08672045 -0.15076537 0.0058499672 -0.1279057
9.935022e-05 0.062033206 -0.03710691 -0.22528057 0.032174733 -0.12934184 -0.2345692 -0.14224578
-0.02974359 -0.19430892 -0.27886796 0.03068051 -0.16679278 0.07201298 -0.16933422 -0.21818288
2.207968 1.7423058 -0.111102246 -1.7695849 1.8500631 -0.0050719846 0.05491076 -0.10110941
-0.13679011 -0.013353741 -0.033973806 0.08771839 -0.032064676 0.020418469 -0.10695304 -0.029187921
-0.053110033 0.027687144 -0.16223115 -0.0024597375 -0.17488721 -2.1847477 0.5815317 -0.0021649292
1.7280949 -3.812503 0.01238795 0.29389945 -0.043746535 -0.1815195 -0.0056402795 -0.10724878
-0.1277768 -0.0111713875 0.020940844 0.060914382 0.05394396 -0.01814048 0.030623361 -0.0071682483
-0.053732954 -0.08209506 5.5885544 1.383838 -0.12656534 1.1118332 -1.8761524 0.01856771
-0.033257052 -0.14003187 -0.06914803 -0.04453344 0.12910795 -0.03692728 -0.033381436 0.07188158
-0.03622578 -0.042411793 0.02064206 -0.11842889 -0.21128839 -0.12938784 -0.0021245643 -0.18512604
0.020055063 0.01294093 0.051476765 -0.18238436 -0.18514206 -0.033005048 -0.034196876 -0.092992455
-0.07465282 -0.0046789343 -0.12020844 0.00051046413 -0.026416333 -0.085932136 0.060649797 -0.13515557
-0.0042043882 -0.00755016 -0.00763941 -0.18087737 -0.09140642 0.12746176 -0.04011418 -0.012913913
0.02276367 -0.055192314 -0.051355176 -0.12795816 0.021278728 0.019048393 0.12405864 -0.050261647
-0.1762191 -0.052750852 0.10545218 -0.056689262 -0.05113154 0.11802301 -0.06310898 -0.019522727
-0.10937676 0.05193256 -0.13626824 -0.021698594 -0.051906884 0.05998078 -0.112527326 0.070422426
-0.010718321 -0.15582876 0.0066426154 -0.15247454 -0.18469077 -0.019650545 -0.24062684 0.12056267
0.014373049 -0.08876842 -0.082742155 -0.14312968 -0.02384384 0.049776256 5.3208537 -1.54978
-0.035511002 0.09931276 0.5192099 -0.020860588 0.051345784 0.019181132 -0.014149696 -0.032413542
0.13838947 -0.050555132 -0.035892658 0.019489184 0.076317996 0.036831267 -0.18898211 -0.091935255

fc1.bias f4 [256]
00000000: edf1 3ac0 ad0e 08c0 e1ec 82bd ebdc 92be
00000010: 0ecf 98be c4f4 57bd 4d11 e2bd 5002 40c1
00000020: e023 3abc 2a30 8fbe eeae 93be 0290 9fbe
00000030: 55a1 a4c0 105d d13c fb1f c73d a22f 683e
00000040: 4bea 8ac0 cae5 08be 06fb 1a3e 93e4 da3f
00000050: 0d32 2d3e ba0f 4d3e 7479 60bf 21e6 2e3e
00000060: 981e efbe f4ff 1b3e 4553 3f3e 6b52 c5bd
00000070: d4cb a7be dc2c 5d3e f04d 9e3c f09c d8bd
00000080: 6506 39be 25ba 963e a2c7 96bf d939 be3e
00000090: 0fa4 1b3e 103f 033e c413 ba3f 0754 3f3e
000000a0: a59b b6be 4719 3e3f c4d9 76bd 2dd6 babe
000000b0: 30d5 90be 35f0 cf3f b42d fe3d 8769 193e
000000c0: 7514 93be a26f 3f3e 50a9 dabd e055 93be
000000d0: df0b c03e cc4d 8ebd f69d 3fbe d0f1 9040
000000e0: b7ac 04be f37a dbbf 8fba 53c0 99c3 98be
000000f0: a753 b4be 155d 26c1 037d 5abe ffa5 80be
00000100: 3f08 0e3d 45cf 25bc 426a 673e a3c7 8ebe
00000110: 081a 09bf 861e 853e 0f8b a4bf 52ac a0be
00000120: 254f 9fbe 1a9c edbc c695 b5be 5033 613d
00000130: 2a2a 223e c44f 723e 2a2d da3d 247a 4cbe
00000140: 82ec d8be 0c78 303e 2325 d2bd 671d 80be
00000150: 7204 0a3e da71 3f3e 2217 5c3e 0be1 29c0
00000160: 845b b8bd ac7c 1b3e d360 febf 55d7 04bf
00000170: e8d6 d4be 42be db3d c8c1 d0be caf1 1d3e
00000180: 7705 8440 ec1a 99be 6222 65be 2217 673e
00000190: 0e2b 933e c27a 653e 0965 8cbe c98d 1ebf
000001a0: 02e3 203e 76bc 213e 6f41 53be d961 713e
000001b0: a007 63bc 6fca 96be fd5d 023f c99c 41bc
000001c0: 9640 8740 2f8f 5d3e ef2a 203e eba9 0b41
000001d0: 2e61 ebbd dc13 72be 0c52 b9be f5e2 0541
000001e0: 181b 74c0 d4bf 84bd b647 383e c1e2 8cbe
000001f0: eca1 0f3e 9e6c eabf 504e 82be a902 f83d
00000200: 722d 56be 2934 843d 4ef5 d1bd 7173 b8c0
00000210: 37ba 993d 941b 68bf 3b93 ac3b 6f87 ddbf
00000220: 387c 81be 6f32 343f b5e4 c03e b524 25be
00000230: c79f 01be e803 8dbd 7a58 cebd 321d 13bf
00000240: c225 d8be 8abe 153e 3e22 edc0 5bcf 1ec1
00000250: 04ef e3bc df5f 253e 87b2 06be f53f 60be
00000260: ab11 ed3d 18cf 47bf 6084 99be 1da3 853d
00000270: dc5a 97be 4c0f 3041 4dac 31be 3ad8 6ec1
00000280: 2a37 6dbe 3560 93bd 35bf 82be eaf4 1c3e
00000290: c671 813c 82be 23c0 e75f 693e 54bd 943d
000002a0: ec41 a6bd 0801 d6be 628c 1d3e 5421 c7be
000002b0: fd23 47be f926 37bd 07b5 dfbe c9a8 973c
000002c0: 886b 7f40 574d 973e b053 b43d 96d2 81bd
000002d0: acb0 063e 01b0 61be 60a8 8ebd 2218 c9be
000002e0: bbec 14be 46a8 2240 68c2 57be bd20 a1c0
000002f0: b70a 123f 7ecc 63be e505 ad3e 9cc1 723e
00000300: 17c4 2b3e 653f 0d3f 499c c6bd 2d37 9dbe
00000310: cae9 06be 904d 80bd 2cf1 753d 643c 9c40
00000320: 4198 053e 2a37 2940 a1f7 8e3e d57a 9f3d
00000330: d488 a7be 2dbc ac3e 0048 acbb 9d9a b73e
00000340: c385 a23e 4104 5e3d ede6 7a40 4dd7 babe
00000350: 3012 a53e bf34 a6be 5fc9 823e 1180 5abe
00000360: df55 7e3e 19f4 aebc 4ecb 81be 86b0 8a3f
00000370: 109b 593d b41d 023e df22 3cc0 42a0 73bf
00000380: 05da fbbc ac3c 53be 1c9a 2940 e1a7 74be
00000390: 6ecf 57be f6eb 9140 3308 af3e c4c7 51be
000003a0: ab4d 0c3e 6c6b 8abe 55ae e9bd 0ef1 bbbe
000003b0: 9c9d a3bd ce14 603e 7f57 a93e 55d4 c7bf
000003c0: 966c 6b3e f6ab 3fbe 7572 263d 50f1 85be
000003d0: 753e 8a3e 74c3 0f3d fc87 2a3e 6e70 23be
000003e0: b908 49be a235 1fbe 62a4 623e e093 113d
000003f0: 12ce a5be 481a 1c3e 9a5c 723e bd8a 62c0
-2.921016 -2.1258957 -0.06392837 -0.28684172 -0.2984547 -0.05272366 -0.11038456 -12.000565
-0.011361092 -0.27966434 -0.28844398 -0.31164557 -5.144694 0.025557071 0.09722897 0.2267442
-4.3411 -0.13368908 0.1513482 1.7101005 0.16913624 0.2002553 -0.8768532 0.17079975
-0.4670303 0.15234357 0.18684109 -0.096348606 -0.32772696 0.21599144 0.019324273 -0.105768085
-0.18068846 0.29438892 -1.1779673 0.3715351 0.15199302 0.12817025 1.4537282 0.18684398
-0.35665622 0.7425732 -0.06026627 -0.36491528 -0.2828765 1.624518 0.12411061 0.14981662
-0.28726545 0.18694928 -0.10676825 -0.28776455 0.37509057 -0.06948432 -0.18712601 4.529518
-0.1295651 -1.7146896 -3.3082616 -0.2983673 -0.35220072 -10.397725 -0.2133675 -0.25126645
0.034675833 -0.010120218 0.22599128 -0.27886686 -0.53555346 0.2599985 -1.2854937 -0.3138147
-0.3111507 -0.0290051 -0.3546583 0.054980576 0.15836397 0.2366324 0.106531456 -0.19968468
-0.4236794 0.17233294 -0.102609895 -0.25022432 0.13478258 0.18695775 0.214932 -2.6543605
-0.0900183 0.15184277 -1.9873298 -0.5189107 -0.4157021 0.10729648 -0.40772843 0.15424266
4.125667 -0.29903352 -0.22376397 0.22567418 0.28743786 0.2241011 -0.27420834 -0.61935097
0.15711597 0.15794548 -0.2063043 0.23572482 -0.013856798 -0.2945132 0.50924665 -0.011817166
4.226634 0.21636651 0.15641378 8.728984 -0.11493145 -0.23640388 -0.3619541 8.367909
-3.8141537 -0.06481901 0.17996106 -0.2751675 0.14026612 -1.8314397 -0.25450373 0.121098824
-0.20915774 0.06455261 -0.10251866 -5.764092 0.07506221 -0.9066708 0.0052665747 -1.7306956
-0.25290084 0.70389456 0.3767449 -0.16127284 -0.12658606 -0.06885511 -0.10075469 -0.57466424
-0.42216307 0.14623466 -7.41043 -9.925624 -0.027823932 0.16149853 -0.1315404 -0.21899398
0.115756355 -0.78050375 -0.29983807 0.06525252 -0.29561508 11.003735 -0.17350884 -14.92779
-0.23165575 -0.071960844 -0.25536504 0.15327802 0.015801322 -2.5585027 0.2279049 0.07262674
-0.08118042 -0.41797662 0.15385583 -0.38892615 -0.19447322 -0.0447149 -0.436928 0.0185131
3.9909382 0.29551193 0.088050246 -0.06338994 0.13153332 -0.22039796 -0.06965709 -0.39276224
-0.1454343 2.5415206 -0.21070254 -5.0352464 0.570476 -0.22245976 0.3379356 0.23706669
0.16774021 0.5517486 -0.09697778 -0.30706158 -0.13175121 -0.06264794 0.060044453 4.882372
0.13046362 2.643992 0.279233 0.077871 -0.3272158 0.33737317 -0.0052576065 0.35860148
0.31742677 0.054203276 3.9203446 -0.36492386 0.32240438 -0.32462117 0.2554426 -0.21337916
0.24837445 -0.02135663 -0.25350422 1.0835121 0.053126395 0.12706643 -2.9396284 -0.9516641
-0.030743608 -0.20628613 2.650031 -0.23892166 -0.21075222 4.560054 0.34185943 -0.20486361
0.13701503 -0.2703508 -0.11410204 -0.36707348 -0.07989046 0.21882936 0.33074567 -1.5611674
0.22990641 -0.18717942 0.0406365 -0.2616067 0.27000776 0.035098508 0.16653436 -0.15960857
-0.19632234 -0.15547803 0.2213302 0.035541415 -0.32383782 0.152444 0.23668137 -3.539718

fc2.weight f4 [256, 256]
00000000: 3010 a2bd 8ff0 9e3c cd1a ab3d ab76 aabd
00000010: 2c1b 8b3c 4dc6 cb3d 4152 bfbd 41f0 41be
00000020: d135 69bd 2167 bebd 5c81 8f3c 88f6 eabc
00000030: 838b fbbc 916b c53d 5cea 91bc 5c83 fd3c
00000040: 75a1 13be de64 7e3d 1419 d1bc 9ca2 c2bd
00000050: 107a 99bb eaba 1fbd 961b d73c 8008 d8ba
00000060: c4b8 e33c 0766 acbd 509b a8bd 025a 783d
00000070: 6543 a03d 57a0 db3d d1e0 6cbd 021e 003d
00000080: 78f8 523c 4090 de3a 3861 a6bb 36f9 473d
00000090: 9c36 a0bd 8081 873b 91a2 363d 6ead aebd
000000a0: e93a bdbd 081a 00bd e14e 883d 8543 b83d
000000b0: 922c 54bd 1b7e 01bd aa34 263d 7a1d dcbd
000000c0: b02a cc3b 568f 073d a2b6 b3bd 4f13 a43d
000000d0: 8027 e2bb 441d 20bd bf0f cebd 545d 1ebc
000000e0: 00f1 b1ba 0785 853d d196 3abc b2e4 b0bd
000000f0: d4a0 8dbd 08a4 a3bd 0149 b7bd 8fec 853d
00000100: 8007 c3bc 9649 2dbd fd9d a03d 96a7 003d
00000110: a0c9 9b35 3edc 7f3d 512f f13c 70ee 78bc
00000120: e080 4b3b 95cf 973d 432b d43d 8f36 b9bd
00000130: c01b 68bb f3dc c3bd c086 213b a268 06bd
00000140: 917e 92bd d17b a83d 8c52 f8bc 20a5 cfbc
00000150: a080 023b b082 1b3c f031 b0bd 5cbc 1fbd
00000160: d035 37bc 75af cc3d 694f e9bd 3846 02bc
00000170: 6af8 3dbd 7c97 bb3c aa5d 433d 0020 50b8
00000180: e9b2 f4bc b816 b5bd cb14 b03d dbb7 95bd
00000190: bc98 dbbc 1207 173d ac23 6cbd e7f3 8dbd
000001a0: 204e cebd 9a44 7e3d 9457 eb3c b003 e9bd
000001b0: 8d35 833d 4ea9 6c3d 8ed8 9f3d 2412 4ebd
000001c0: 6555 98bd 0cc7 10bd 690e d93d db7f 22be
000001d0: a0e6 38bc 9a11 463d 2d3d 61bd 8a03 dabd
000001e0: ef8b 9bbd 5644 453d a4e5 da3c fecc 2b3d
000001f0: 4f92 b73d 82fa f5bd 2455 95bd 807e 8dba
00000200: d241 473d 40f9 baba 0ec1 1e3d 658c b2bd
00000210: 4057 9bbd a77f b83b 1c72 fcbc 5c13 36bd
00000220: 5d5f c53d 7771 00bd a4d9 913c 40e5 fbbc
00000230: 7a62 383d 988f 85bd 8ad0 77bd 8551 2fbb
00000240: e920 7ebd 9cb7 80bc 49a7 923d c6cc cbbd
00000250: 5eae d7bd 34db 9dbc 5ab2 133d 6f42 bcbb
00000260: a03b bcbb d25a 0e3d c26d 1e3d c236 733d
00000270: 5f49 b73d 1633 7abd e456 b4bc 1db3 c4bd
00000280: a830 e6bd 501a ddbc fd5c 80bd 6565 d93d
00000290: a09d 79bc 1ed4 dabd c7a6 a9bd 397e d2bd
000002a0: 2417 d13c d24e 123d e971 b13d 8ae3 363d
000002b0: a409 ba3c 4eff 353d 117e cebd 61d8 803d
000002c0: a1dd d0bd 6140 c83d 0d39 aabd 5386 a93d
000002d0: ebd3 943d 8c09 c1bd c063 d23a ee0a b3bd
000002e0: 3465 fb3c 9716 80bd b677 113d 4f40 983d
000002f0: 5eab 85bd 9a23 123d 1009 f73b 90d6 7b3c
00000300: ead2 303d 8daf afbd 6418 22bd 4543 aa3d
00000310: 00c5 9ebd e83f 26bc 2a20 4d3d d194 0c3c
00000320: 2307 973d fb5e 0a3d f202 9ebd babe 593d
00000330: c448 32bd 4b5d c23d 940b 86bc 9068 e2bb
00000340: be4e 753d a58e 83bd 0146 cf3c 8cae c63c
00000350: 7153 d8bd 8986 ca3d 7667 b4bd c863 69bd
00000360: d1a4 b7bd bcb3 afbc 3608 92bd bff8 b6bb
00000370: 250e dcbd 64ca d43c ef2f a4bd 7448 d6bd
00000380: 3c3c 3bbd 8069 26ba e2a1 e23c 9d4e a33c
00000390: 448b 2dbd 06b6 11be 5597 87bd d8df a2bc
000003a0: a379 8a3d 52d2 313d ce89 fcbd db6f 9d3d
000003b0: 8003 0c3b 3a6f 023d 756a 68bd 69e7 97bd
000003c0: 3c4d df3c 8d46 a13d a0cf 97bc b715 a33d
000003d0: d29f 363d 72b5 3a3d b805 7abd 8b72 863d
000003e0: f2f8 c7bd de25 6f3d 90c0 1abc 990d d53d
000003f0: 28e5 0c3c 30b6 643c b832 4a3c b1b5 143d
-0.07913244 0.019401817 0.08354721 -0.08323415 0.01698073 0.09949932 -0.093418606 -0.18939306
-0.05693609 -0.09297014 0.017517738 -0.028682008 -0.030706173 0.09639657 -0.017811947 0.030946426
-0.1441706 0.062107913 -0.025524653 -0.095036715 -0.0046837404 -0.038996615 0.026258271 -0.0016482025
0.027798064 -0.08417898 -0.082327485 0.060632713 0.078253545 0.10723942 -0.05783159 0.031278618
0.012876622 0.0016980246 -0.0050775073 0.04882165 -0.07822916 0.0041353106 0.04458863 -0.08529173
-0.09239752 -0.031274825 0.0665567 0.08997253 -0.051800318 -0.031614404 0.040577568 -0.1074781
0.0062306747 0.03309568 -0.08775069 0.08011495 -0.0069016814 -0.03909041 -0.10061597 -0.009665806
-0.0013575852 0.065195136 -0.0113884965 -0.0863737 -0.06915441 -0.07990271 -0.08949471 0.065392606
-0.023807287 -0.042306505 0.07842634 0.031409822 1.160708e-06 0.0624659 0.029441508 -0.015193567
0.0031052157 0.0741264 0.10359814 -0.09043609 -0.003541693 -0.09563627 0.0024646968 -0.03281463
-0.07153047 0.08226741 -0.030312799 -0.025347292 0.0019913092 0.009491608 -0.08603275 -0.038997993
-0.0111822635 0.09994403 -0.113920994 -0.007951312 -0.046379484 0.022899382 0.047696747 -4.9620867e-05
-0.029870467 -0.08842224 0.08597716 -0.07310458 -0.026806228 0.036871977 -0.057651207 -0.06931286
-0.10073495 0.062077142 0.028728284 -0.113776565 0.064066984 0.05777865 0.078049764 -0.05031027
-0.07438163 -0.035346076 0.10598452 -0.15869085 -0.011285454 0.04835663 -0.054989982 -0.10645206
-0.075950496 0.048160873 0.02672083 0.041943543 0.08963453 -0.12010671 -0.0729163 -0.0010795146
0.048646756 -0.0014264956 0.03875833 -0.087181844 -0.07585001 0.0056304517 -0.03081613 -0.044452056
0.0963733 -0.03135821 0.017803974 -0.030748963 0.04501579 -0.06521529 -0.060501613 -0.002675147
-0.062043104 -0.015712552 0.07160813 -0.09951167 -0.10531305 -0.019269563 0.03605876 -0.005745224
-0.0057444125 0.03475458 0.038678892 0.059378393 0.08949541 -0.061083876 -0.022014089 -0.09604476
-0.11239749 -0.026990086 -0.06267736 0.106150426 -0.015235335 -0.106849894 -0.082837634 -0.10277981
0.02552373 0.0357197 0.08664305 0.044650592 0.022709675 0.04443293 -0.10082639 0.06291271
-0.10198522 0.09777904 -0.08311663 0.082775734 0.07266983 -0.09425649 0.0016051456 -0.08742319
0.030687906 -0.06254309 0.035514556 0.07434141 -0.06526826 0.035678484 0.007538922 0.01537098
0.043169893 -0.085784055 -0.039574042 0.08313612 -0.077524185 -0.010147072 0.050079502 0.0085804025
0.07374408 0.033781987 -0.077154055 0.053160407 -0.043526426 0.094904505 -0.016362943 -0.0069094375
0.059889548 -0.06423692 0.025301935 0.024253152 -0.1056279 0.09888942 -0.08808796 -0.056979924
-0.08966983 -0.021448009 -0.07130472 -0.005583852 -0.10744885 0.025975414 -0.08016955 -0.10463038
-0.04571174 -0.0006348118 0.027665082 0.019934947 -0.042369142 -0.14229593 -0.06620661 -0.019882128
0.067614816 0.043413468 -0.12330972 0.0768735 0.002136439 0.031844355 -0.05674215 -0.07417185
0.027258508 0.078747846 -0.01853162 0.07963126 0.04458601 0.045583196 -0.06104061 0.06564816
-0.097642794 0.058385722 -0.009445325 0.10402984 0.008599557 0.0139594525 0.012341194 0.036306087

fc2.bias f4 [256]
00000000: e8c7 3ebe cfa9 54bd a2e8 8640 956f 813d
00000010: dda8 c93f 180a dbbe 5269 d1bd 8056 edbe
00000020: 468a ba3f 81a3 2c3f 65b9 09bf b8c0 bdbe
00000030: faf3 bbbd 5bbb c5bd 46dd 81be 9dd3 e13f
00000040: 5442 4e40 c962 133f ab99 383e 8672 d23f
00000050: 2502 d63e e683 35bf d1fa 733f b8e1 b6bd
00000060: f048 4cbf 3374 3041 211e 4d3a cc37 3841
00000070: d2c5 4b3f b7da 43bf 9105 97be a06b eebf
00000080: 03fc c73e 454f d2bd 7e15 2abd 31cc 6a3c
00000090: 94a7 10bf 4132 8b3f f49e 8d3e 72e7 16be
000000a0: c409 4f40 deef 8fbf 9119 53bf 21c5 0dbe
000000b0: 8fb0 e53e e322 7f3f 7cff 4f3e 8d2b 9bbf
000000c0: 81e7 babd 3d43 00be 09d2 4740 5219 06be
000000d0: 05e5 4ebe eb01 1b3f 3ae1 9640 abec e0bd
000000e0: f245 cebf 5056 9cc0 80ea 453e 727f 41be
000000f0: 4c2e 8540 1af9 d63e b49a 443e a811 b1bd
00000100: f818 d0bd 20df 3140 fedd 2fc0 b297 053d
00000110: 7b5a 17be 7127 3f3f 13e0 50be d911 54be
00000120: 257f 62bf 499a 823f 44e1 2dbf 770f d6bf
00000130: 2510 c93f 76ec 1dc0 903e 02be 6fb9 8f3f
00000140: f8fb bbbd 259a c8be 70f6 29be 2cf7 f03e
00000150: 6bf9 00c0 42de 943f ad55 3c3f ad0e bcbd
00000160: 45bb 88bd a201 c7bd 8609 09be cdac ec3f
00000170: 045b 8940 77c5 193f 8b5b 96bf a7ba cb3f
00000180: ac83 c938 18de ca40 963a 1dbe d3e3 08be
00000190: 4b3b 8a3f 8500 723f 6490 65c0 4cd0 393e
000001a0: b164 17be b2c1 e13f 1b31 303c 73ad dabc
000001b0: c27d e3bd 4c0c a03f dcfe 50bd 8dc9 78be
000001c0: dc6f 9abd 4e77 7f3e cf25 e0bb e886 9d3f
000001d0: e8be eebf a202 b73d 3435 e33f 9cce 1940
000001e0: 1c36 04c0 f03b 1140 7277 4540 c218 1dbe
000001f0: c4f4 83bd 2641 0840 2b76 bcbd 5589 dbbf
00000200: 49aa bc3f b3e6 97be fadd 16bf 1cf2 e3bd
00000210: f7eb b3bd 1506 e7be 2644 67bf da0a f33a
00000220: a192 12be cd95 2fbe 37b4 e33f 145c d5bd
00000230: e27d 7fbf d68b 0fbe 824b abbd 37c9 52c0
00000240: 5007 03bf a178 36c0 6a95 3bbe 28b6 f0bd
00000250: 0e40 b9bd 0f52 37bd d2c4 9e3d 07c5 5f3e
00000260: ab73 25be aa2d fdbc ab95 8cbd 5651 8a3f
00000270: 5576 25be a494 babd 5b7d 383e 6b6c d5be
00000280: 563d 07bf 8d92 09c0 ddeb 04bd d267 2341
00000290: 57e0 08be 1a2a 58bd 5a09 c7bd d180 513e
000002a0: 9a34 7240 cc4e 7240 d0f4 debd 156b bb3f
000002b0: cddf d6bd 648f 06be e4d7 0540 90f3 fabd
000002c0: e639 8abd 5a3e cc40 df16 e33f 4b25 55c0
000002d0: 7a6c d13d 61a3 ccbe cda7 1440 d141 743d
000002e0: 2a39 9abf 015d 9940 4ca4 0540 ff92 61c0
000002f0: a05f 24bf 82e9 0940 0916 d5bd 57e0 e9be
00000300: 946a 4d3e 2c24 08c0 aebb ff3f 8809 9ebf
00000310: 1386 01be a309 a5be 82cf 0ec0 e81b 1ebf
00000320: d6b2 3740 87d0 8d40 15b3 bb40 b55f 3c40
00000330: 5eea 99bd 93b4 0d40 4326 2bbf b17a a7bf
00000340: 8115 9cbf 5807 a5be 18a0 4f3f acf7 5c3f
00000350: 9398 423d 16a3 23be 0a4a 5b3e 37dd bcbe
00000360: 6187 e340 7af8 6ac0 d095 0cbf 59ba 6bbf
00000370: f3cf 3440 98b5 bdbd 06fe 273f 9d64 173f
00000380: acd6 1bbe 5845 0fbe 27b6 02bf 6e98 0eba
00000390: 0f38 27be f179 813d 13b1 4e3f 8e8e 11be
000003a0: 3a76 64bd 1216 2d3e e27c 26be 8b81 0740
000003b0: a0db dcbd 65c4 9dbd a176 64bd 52e8 633f
000003c0: de5d 8ebe 2885 15bd e796 70bf 13d2 0b40
000003d0: 9020 c83f 75be 7c3f dfe8 96bf b800 7f40
000003e0: def7 ea3e 57f6 65be bc47 1dbf 1820 dbbd
000003f0: 4882 6fc0 194f 38c0 4eed f7bd b37a 83bf
-0.18630946 -0.051919755 4.2158976 0.06320111 1.5754658 -0.42781138 -0.102251664 -0.46355057
1.4573448 0.6743699 -0.53798515 -0.37061095 -0.09177394 -0.09654876 -0.2536413 1.7642704
3.2227983 0.5757261 0.1802737 1.64412 0.4179851 -0.70904386 0.9530459 -0.08929771
-0.79798794 11.028369 0.0007824619 11.513622 0.79598725 -0.7650561 -0.29496434 -1.8626595
0.39059457 -0.10269026 -0.041524403 0.01433091 -0.56505704 1.0874711 0.27660334 -0.14736727
3.234971 -1.1245077 -0.82460886 -0.1384473 0.44861266 0.9966261 0.20312303 -1.2122666
-0.09126187 -0.1252565 3.1221945 -0.13095596 -0.20204552 0.605498 4.7149935 -0.10982641
-1.6115096 -4.885536 0.19327736 -0.18896273 4.1619015 0.41986924 0.1919964 -0.08645946
-0.101610124 2.7792435 -2.7479243 0.03261537 -0.1478061 0.7466956 -0.20397978 -0.20709933
-0.8847526 1.0203334 -0.67921853 -1.672347 1.5708052 -2.4675574 -0.12719178 1.1228465
-0.091789186 -0.39180103 -0.16597915 0.47063577 -2.0152233 1.1630328 0.7356823 -0.09182487
-0.06676344 -0.09717108 -0.13382539 1.8490235 4.2923603 0.6006693 -1.1746687 1.5916337
9.608953e-05 6.339611 -0.1535438 -0.13368158 1.0799345 0.9453204 -3.586938 0.18145865
-0.14784504 1.7637236 0.010753895 -0.026694035 -0.11107971 1.2503753 -0.051024303 -0.24295636
-0.07540867 0.24947855 -0.0068404446 1.2306795 -1.865201 0.08936049 1.7750611 2.4032354
-2.0658026 2.2692833 3.0854154 -0.15341476 -0.0644317 2.1289763 -0.09202226 -1.7151285
1.4739467 -0.29668197 -0.5893246 -0.11130163 -0.08785241 -0.45121828 -0.9033836 0.0018542663
-0.14313747 -0.17146988 1.7789372 -0.10417953 -0.99801457 -0.14018187 -0.08364011 -3.2935312
-0.51183033 -2.8511126 -0.18318716 -0.117534935 -0.090454206 -0.04475599 0.07752384 0.21852504
-0.16157405 -0.030905563 -0.068644844 1.0806072 -0.16158421 -0.09110382 0.1801657 -0.4168428
-0.52827966 -2.1495697 -0.0324515 10.212847 -0.13366829 -0.052774526 -0.097185805 0.20459296
3.7844605 3.7860594 -0.10886538 1.4642054 -0.10491905 -0.13140637 2.091302 -0.12253487
-0.067493245 6.3826113 1.7741355 -3.3304012 0.102257684 -0.39968398 2.3227417 0.05963308
-1.2048695 4.792603 2.088153 -3.524597 -0.6420841 2.1548772 -0.104045935 -0.4567897
0.20060188 -2.1272078 1.997915 -1.2346659 -0.12648802 -0.32233915 -2.2314153 -0.6176133
2.8702903 4.431705 5.8656106 2.9433415 -0.07515405 2.2141464 -0.6685526 -1.3084317
-1.2194062 -0.32232165 0.8110366 0.8631542 0.047508787 -0.15980181 0.21414962 -0.36887524
7.1102757 -3.6714158 -0.54916096 -0.9208122 2.8251922 -0.09263152 0.65621984 0.591379
-0.1521861 -0.13991296 -0.5105919 -0.0005439584 -0.16329978 0.063220866 0.80738944 -0.14214537
-0.055776812 0.1690295 -0.16258577 2.1172817 -0.10784078 -0.07703475 -0.055777196 0.8902637
-0.2780599 -0.03650394 -0.9398026 2.184697 1.5634937 0.98728114 -1.1789817 3.9844189
0.45892233 -0.22457252 -0.6143758 -0.10699481 -3.7423267 -2.8798277 -0.12105809 -1.027182

mean_linear.weight f4 [1, 256]
00000000: ca5d a63c f690 a03b 222d 823e 23b0 29be
00000010: d666 d7bc 7cff 01bc 98c2 773c 66c6 fa3d
00000020: 3d9f fcbd d612 cc3d 47a7 21bd ca73 c23b
00000030: e864 2a39 b57e 5b3d 49f3 41bb a09b b03c
00000040: 3412 5ebd d667 a5bd f944 373d 91ef 663d
00000050: 1c65 8abd 6941 e73c 49c5 1f3e 4472 763d
00000060: f555 363c 97d6 55bd ad20 9fbc e4ca 8538
00000070: 8750 bcbb e043 043d c71e 7abc ef5d a2bd
00000080: 9ccc d53c 08d1 83be 2e46 a1bd e606 2b3c
00000090: bebf 153e 648c a93c 62e8 bbbd feb8 16bd
000000a0: 084d 43bd 25a1 4abe a36f a4bc e9f6 ccbc
000000b0: e2ab d23d ae67 f53d ce62 ad3b b637 913b
000000c0: 2ec4 d53b fc70 453d 2289 94bd f17c b4bc
000000d0: e181 1a3b c943 943e 8868 fbbd bace 913b
000000e0: 988f 5a3d 2c6c 2e3d fa35 17bd 1856 ca3d
000000f0: 1722 8bbd 70d3 78bd 8d5a 303d 494c 003c
00000100: 12a0 f63b 0504 173e 7d23 823d 709c 8b3d
00000110: 0220 10bc ee63 39bd ca94 103e a1b6 3bbc
00000120: 7488 c23a ca7d 543e 049f 6c3a 4de2 17bd
00000130: 61b6 b03d 2651 b4bc f8a0 763c 1d2e c83d
00000140: 07d6 7ebc aefc b9bb 3ecb 85bb 9d69 4c3f
00000150: 6bc8 663d 337d 3a3d 0692 fdbc bcb7 343c
00000160: a577 2e3b a35e 79bc 3ca2 6bba 3749 973d
00000170: f469 963d 0f94 013e bbfe 743d d43e bd3c
00000180: 0bcc 8b3e 9f9c 193e da37 82bc ff54 2ebd
00000190: adca 39bd 2e21 8d3d 5624 d03c 019d 36bd
000001a0: 0796 c239 06b8 f43d e812 d5bb 7823 ec3b
000001b0: b4d7 84bc 99f0 f23c c84e 05bd 260e a63d
000001c0: 2eaa 7fbd 0770 213e 9b5b 4fbc 9395 813e
000001d0: 0199 b33c f3ac 3abe c348 883d 6e0e d03e
000001e0: 5375 b13d fe51 f63c f15e 703d 94bd 87ba
000001f0: af62 1b3b a1ad aa3d 6414 323d 0b16 713d
00000200: 8544 a0bc e668 c13d 3738 a53a 0499 c63c
00000210: 4f08 963d 2272 843d e367 1bba 0274 e53d
00000220: e93a 61bd c610 023d 1a34 5e3d ac89 983b
00000230: 19f9 0cbd 4fed 01be 73fd abbc 6cd9 88bd
00000240: 3a51 893d fb34 b03d 1d54 d63b 3f0a 863e
00000250: 9286 5fbd 7597 193d cd72 97bd 149a b9bc
00000260: 05bc aa3c 0e2c e7bb 8f03 70be 3a70 ba3b
00000270: 460e 6f3b 7feb 383e 82a9 f73b 6aae 3dbc
00000280: 4a17 58bd 5df3 4d3d 05f1 5e3c a6c2 babd
00000290: 2699 1abc 5108 9fba 517b 21bd 9037 293e
000002a0: 4f5a 80be c233 f2bc b1af afbb ce0c 9abc
000002b0: e4b2 1f3d eca7 1f3b 1dca 933d fc4a c4bc
000002c0: 7aa9 babc 3b58 44bd d30f 453d dbb6 4d3d
000002d0: 3707 51b9 ef1b 9abc c2bb cc3d c607 b63b
000002e0: 37c0 31bc 1025 cebc 4c23 27bd 667b f03c
000002f0: c7b6 0ebb 0947 d03c fde6 983d 44ed ea3c
00000300: a7e5 813c 5c25 d33c 5b1e 37bd 3f1a bfbc
00000310: 14e9 d53c 83b4 783d 72c0 d2bd e788 8bbe
00000320: 3322 f43c 6a90 27bd e50e 44be 28f1 8dbd
00000330: 1698 8a3d 1edb a83d 3968 263d 8907 9cbd
00000340: c76f 92bd 10bc e03c 4dfb 5fbd 02c1 88bd
00000350: 79b5 f43d e7a0 33bc 14ea 853d 9b0e 373f
00000360: 9cfc 00bd 7b01 1bbd 8324 66bc ba3a 123d
00000370: 16f5 663d c0e1 ebbc f7ac 86bd 54f0 b1bd
00000380: fee8 d73d d16d ad3c 6030 043e a577 41ba
00000390: c491 903b 4cf1 c43a 1ad0 cdbc 6c19 393d
000003a0: be23 323d 2737 a43d 6d47 06bb ce21 903c
000003b0: 0c39 f5bb 97da 5e3b 7f2f 96bc 28cd a5be
000003c0: 68b5 a6bb 9fa4 bc3b 30f3 d0bc a241 41bd
000003d0: 2348 8b3d 6a0e a0bd ec04 ef3d 5b5d 393e
000003e0: 305e cabc e76f f1bb be35 673c 0e07 b2bb
000003f0: 9c63 ea3c a7dc 5f3d dd04 c63b b1bc 91bc
0.020308394 0.004900093 0.2542506 -0.16571097 -0.026294153 -0.007934447 0.015122078 0.12244873
-0.1233506 0.0996453 -0.03946617 0.0059342133 0.00016250054 0.053587634 -0.0029594472 0.021558583
-0.05421658 -0.08076446 0.04474351 0.056380812 -0.06757566 0.028229432 0.15602602 0.060167566
0.011128892 -0.052206602 -0.01942476 6.3797255e-05 -0.0057469043 0.032291293 -0.015266127 -0.07928073
0.026098542 -0.25745416 -0.07874714 0.010438656 0.14623925 0.020696826 -0.09175183 -0.036797516
-0.047680885 -0.19788034 -0.020072764 -0.02502008 0.1028669 0.11982666 0.0052913195 0.00443169
0.0065236306 0.048203453 -0.072527185 -0.022032233 0.002357595 0.28957966 -0.12275797 0.0044496926
0.053359598 0.04258363 -0.03691671 0.09879702 -0.067936115 -0.060748518 0.043055106 0.007830688
0.007526406 0.14747627 0.06354425 0.068169475 -0.008796694 -0.045261316 0.14119259 -0.011457116
0.0014841692 0.2075111 0.0009026381 -0.03708105 0.08628536 -0.02201135 0.015053026 0.097744204
-0.015553958 -0.0056758737 -0.0040830662 0.79848653 0.056343477 0.045529556 -0.030953418 0.011030134
0.0026621607 -0.015220317 -0.00089887134 0.073870115 0.07344428 0.12654136 0.059813242 0.023101248
0.2730411 0.15001152 -0.015895773 -0.042561527 -0.045359302 0.06891094 0.025407951 -0.044583324
0.00037114343 0.11949162 -0.006502498 0.0072063766 -0.016216137 0.029655742 -0.032545835 0.08108167
-0.062418155 0.15765391 -0.012656118 0.2530943 0.021923544 -0.18230037 0.06654503 0.4063601
0.08664956 0.030068394 0.058684293 -0.0010356181 0.0023709943 0.08333898 0.043476477 0.058858912
-0.019563923 0.09443836 0.0012605254 0.024242885 0.073258035 0.064670816 -0.0005928261 0.11203767
-0.05498782 0.031754278 0.054248907 0.0046550836 -0.034417246 -0.12688182 -0.020994877 -0.06682095
0.06704946 0.08603855 0.006540789 0.26179692 -0.054571696 0.037497956 -0.073949434 -0.022656478
0.020841608 -0.0070548123 -0.23438857 0.005689648 0.0036477013 0.18058585 0.0075580487 -0.011577228
-0.052756585 0.050280917 0.013607268 -0.091191575 -0.0094359275 -0.0012133216 -0.039424244 0.16525102
-0.250689 -0.029565696 -0.00536152 -0.018804934 0.038988963 0.0024361564 0.072162844 -0.023961537
-0.02278589 -0.047935706 0.048110794 0.050223213 -0.00019934481 -0.018812148 0.099967495 0.005555126
-0.01084905 -0.025164157 -0.040805146 0.029355716 -0.0021776424 0.025424497 0.074659325 0.02867759
0.015856577 0.02577465 -0.044706684 -0.023327945 0.026112117 0.060719024 -0.10290612 -0.27252886
0.029801464 -0.04090921 -0.19146307 -0.069307625 0.06767289 0.08244918 0.04062674 -0.07618625
-0.07150226 0.027433425 -0.05468302 -0.06677438 0.11948676 -0.010963655 0.065387875 0.7150666
-0.031490907 -0.03784321 -0.014046791 0.035700537 0.056386076 -0.02879417 -0.06575959 -0.08688417
0.105424866 0.021170529 0.12909079 -0.0007380194 0.004411908 0.0015025525 -0.025123645 0.04519026
0.043491118 0.08018332 -0.002048935 0.017594244 -0.007483607 0.0034004801 -0.018333195 -0.32383084
-0.0050875433 0.005756929 -0.025506586 -0.047181733 0.06800868 -0.07815249 0.11670861 0.18102019
-0.024703115 -0.007368076 0.014111934 -0.00543297 0.02861195 0.05465379 0.00604306 -0.01779017

log_std_linear.weight f4 [1, 256]
00000000: 52ef c03c cbbc 66bd fe79 563d 20ac 1fbd
00000010: 00b0 8f3b 13c1 023c f716 88bd 5276 733c
00000020: 54ca 053d c2ab 2c3d e110 c63b 5c3b cdbc
00000030: 54c7 a6bc 4303 e03c 3388 a9bb 7e9e 71bc
00000040: 65a0 b13c 57e6 123d 3339 173a 6d77 223b
00000050: 1bb8 1e3e c137 b83a ace9 95bc 41b0 003c
00000060: 9df7 293d 152b d33c 05c1 133d fc8d 5f3d
00000070: 3362 203b c8cb baba 7b07 cf3c 84bc b9bb
00000080: 9d93 383b a9c2 1f3d 7679 b23d 73cd 883c
00000090: d660 a93d a97a f1bb edf7 603c 993d 7e3c
000000a0: 41b0 083d 935d 553c 9caf 2b3d 72c8 93bd
000000b0: 46b4 8c3e 3d31 173d f818 b43c 50c8 683d
000000c0: caa5 7e3d 3b3f e4bd 458c ec3b 71c9 d03c
000000d0: 4baf de3c 8e8f 2f3e 1274 cb3b 182f 983d
000000e0: 39ce a1bc e988 2bbc 399e 66bd e301 873d
000000f0: 986c 8ebc 4e65 a139 dcff ca3c cf0a 343d
00000100: f974 2c3c 8d40 043c 172f db3b eb08 b13d
00000110: 5003 613d bdf9 23bc 6532 3f3d b87a 49bc
00000120: 1bd1 323c a524 e73d bdd5 1c3d afa2 f33a
00000130: dbad 923c 6ee0 c4ba 364d b53d 536b 3c3e
00000140: 2ba6 1dbd 47ef c53d 9dd3 7abb e7e0 783d
00000150: 342e 10bc 3cf9 5738 5dc2 153d 3fbc 41bc
00000160: f85b 49bc 2498 70bc a116 8d3c 6a9b 403c
00000170: 934d cdbc 04d6 f5bb 901c 1f3a 2d36 f83a
00000180: 1b1d c63d 06dd 893d 099d 6d3c 6494 cc3c
00000190: 7920 2dbc 3543 66bb b2e6 22bc 5bc4 56bc
000001a0: 8ebd 5bbd 8aec aebb 3fe2 37bd 3c3d 083d
000001b0: 658a a63d eb7c 1abc 55d2 783c abf1 ac3c
000001c0: 3ce1 313c 5536 c03c df10 f03c b0dc 02bc
000001d0: b895 a03b 3350 cebd 5d48 c0bc 3a6e a63e
000001e0: 3d01 833d 55bd 28bc 56c1 263d 1b10 cc3d
000001f0: 55a2 12bd 478d 21b8 f5a1 4cbd b7b8 8c3b
00000200: 8a98 3d3d ca9b 9c3c 59b7 4c3c c72f 75bd
00000210: 1020 98bd a345 d53c a069 ab3d 4595 0f3d
00000220: 9bb5 2dbc ffde 2ebd bab0 403b a273 fc3a
00000230: 954a 033b 8b68 003e 25be 4abd 3c4d c03b
00000240: 0992 283d 2923 93bc 0077 8b3c adf9 203d
00000250: e17b 7c3d 4878 f83d 955d e9bb 66fc d2ba
00000260: 998f f9bd 4705 3fbd 31b0 84bb 3d06 d03b
00000270: 547a 803c 4f33 4d3e cd0d 223c b059 b9bc
00000280: 3d68 633d 5912 d63c f82d 823d 592b 863d
00000290: 065f 193d 384f 5fbc c7d0 9dbc 72ca cc3d
000002a0: 7289 153e 2d69 273d bc92 4a3c de3e 983b
000002b0: f8a6 f53a 0d2b ff3b 5a0c 38bc 518c 5f3c
000002c0: 6144 25bd f22f 903c 978c 5cba 43e6 3eba
000002d0: 4dd2 40ba 3ce8 d33a 54e7 46bd ec2a b43c
000002e0: a6bc 933c 3377 123c 6e72 a53c e0bd 55bc
000002f0: 70cd 87bb d12b e03c 28a0 c43c ada5 813d
00000300: 1474 07bd 3722 f0bb 52f9 7a3b 6e3e 9bbb
00000310: b140 5c3d a30c fc3c 33bf a8bc 0c57 69bd
00000320: 853c d43b 9a6e f33c 30e2 473d 6b8e 4dbb
00000330: 03cb 08bc 0ca1 cab9 3992 ee3d c854 673c
00000340: df10 d33b da35 1f3c 9cbc 45bc 5233 14bc
00000350: b04f 303d b4b8 6bbd aa84 e53c 8565 5b3e
00000360: 17a5 4d3c 5ac9 b53a 8c40 e13d 8ee5 9f3c
00000370: 0610 063c 8f8f 013c f134 a3ba 6a17 f53c
00000380: 8272 013e 01fe c0bc 0de9 b63d f5da afbc
00000390: 0ef2 d33a 71e0 093d 8804 8bbb 0b24 e93d
000003a0: ffbf 4ebc cc59 003d 5edd 3dbc 8217 393c
000003b0: bd8d 853d edd0 56bd 7b7d e0bb 5950 1d3e
000003c0: b6a3 2abd 1022 21bc 1b3b 5eba 4102 9b3c
000003d0: b178 723c 4634 893c bf73 3b3d ebb5 8c3d
000003e0: e502 3dbb 6340 263b 18d9 a63d 841c 943b
000003f0: 6b63 053c 6b81 50bb f599 80bd 1b30 3d3a
0.023551617 -0.05633239 0.052362435 -0.03898251 0.0043849945 0.007980603 -0.06645005 0.014859753
0.03266366 0.04215599 0.0060444926 -0.025052719 -0.020358719 0.027345305 -0.005173707 -0.01474726
0.021682927 0.0358642 0.0005768716 0.0024790422 0.15499918 0.0014054702 -0.0182999 0.007854522
0.041495908 0.025777379 0.03607275 0.054578766 0.0024472594 -0.0014251405 0.025272122 -0.0056682248
0.0028164156 0.039004 0.08714573 0.016699528 0.08270423 -0.0073693586 0.013730985 0.015517616
0.033371214 0.013022798 0.04191552 -0.07215966 0.27481288 0.03691219 0.021984562 0.056831658
0.062169828 -0.11144873 0.00721887 0.02548668 0.027183196 0.17144606 0.006208905 0.074308574
-0.019751655 -0.010469654 -0.056303237 0.06592157 -0.017385766 0.0003078379 0.024780206 0.04395562
0.010525935 0.008072031 0.006688963 0.08644279 0.0549348 -0.010008273 0.04667892 -0.012297325
0.010914112 0.11286286 0.038289774 0.0018587912 0.017905166 -0.0015020499 0.088526174 0.18400316
-0.03848855 0.09664779 -0.0038273104 0.06076136 -0.008800078 5.1492112e-05 0.036562312 -0.0118246665
-0.012289993 -0.014684711 0.017222704 0.011755804 -0.025061404 -0.0075023193 0.0006069625 0.0018937044
0.0967352 0.0673161 0.014502772 0.024973102 -0.010566824 -0.0035135273 -0.009942697 -0.013108338
-0.05364757 -0.0053382562 -0.0448935 0.033261523 0.081318654 -0.009429197 0.015186866 0.02111133
0.010856923 0.023463408 0.02930492 -0.007987186 0.0049006604 -0.100738905 -0.023472006 0.3250597
0.063967206 -0.0102990465 0.040711723 0.099640094 -0.035799343 -3.8516966e-05 -0.04995914 0.0042944807
0.04628805 0.019117255 0.012494885 -0.059860017 -0.074279904 0.026034182 0.08369756 0.035054464
-0.01060238 -0.042693134 0.0029402212 0.0019260535 0.0020033468 0.1253988 -0.049497742 0.005868582
0.041154895 -0.017961102 0.017024517 0.03930061 0.061641578 0.12132317 -0.0071217516 -0.0016096949
-0.12185592 -0.046635892 -0.004049324 0.0063484 0.01568333 0.20039104 0.009890986 -0.022625774
0.05551933 0.026131796 0.06356424 0.06551237 0.037444137 -0.013629727 -0.019264592 0.09999551
0.14603212 0.040871788 0.012364086 0.004646166 0.0018741777 0.0077871145 -0.011233414 0.013644294
-0.040348414 0.017600987 -0.00084132835 -0.00072822365 -0.0007355556 0.0016167234 -0.048560455 0.021993123
0.01803429 0.008939552 0.020196166 -0.013045758 -0.004144363 0.027364643 0.02400215 0.06330428
-0.033069685 -0.0073282975 0.003829558 -0.004737667 0.053772632 0.030767744 -0.020598983 -0.05696778
0.006476941 0.029715825 0.048799694 -0.0031365405 -0.008349183 -0.00038648432 0.116489835 0.0141193345
0.00644122 0.009717429 -0.012068894 -0.009045439 0.043044746 -0.057549194 0.02801736 0.21425445
0.0125515675 0.0013869212 0.109986395 0.01951864 0.008182531 0.007907762 -0.0012451691 0.029918391
0.12641338 -0.023558619 0.0893117 -0.021466712 0.001617016 0.03366131 -0.0042424835 0.11383828
-0.012619018 0.031335637 -0.011588423 0.011297109 0.06521175 -0.05244534 -0.006850896 0.15362681
-0.041660033 -0.009834781 -0.00084774353 0.018921973 0.014799283 0.016748559 0.04576468 0.068706356
-0.0028840837 0.0025367967 0.08146876 0.004520001 0.008141379 -0.003181542 -0.06279365 0.0007216946
