model/dqn_ff_dqn_ff/agent2_dqn_ff_ff_eps1000000.pth (torch, 377655 bytes, 6 tensors)

fc1.weight f4 [256, 7]
0	0x3bbe2b40	0.0058034956
1	0x3d9d282c	0.07673678
2	0xbe072066	-0.13195953
3	0xbde8b4e8	-0.1136263
4	0xbde536f2	-0.111921206
5	0xbd707adc	-0.058710918
6	0xbd0879b2	-0.033319183
7	0xbdce7d60	-0.10082507
8	0xbd08346f	-0.03325313
9	0x3b458991	0.003014181
10	0x3f453d7a	0.7704693
11	0xbeb9ffac	-0.36327875
12	0x3b11d1b9	0.0022250249
13	0xbf2647eb	-0.6495349
14	0xbeba210b	-0.36353335
15	0x3efa2a2c	0.488603
16	0xbd0b02e6	-0.03393831
17	0xbe0272b1	-0.12739064
18	0x3f325f68	0.6967683
19	0xbcb22a8e	-0.021748807
20	0xbe5ce6fe	-0.21572492
21	0xbf01a795	-0.50646335
22	0xbe784275	-0.24244101
23	0x3c841775	0.016124466
24	0x3f7afa9b	0.98038644
25	0xbf206fa8	-0.62670374
26	0xba86044b	-0.0010224668
27	0xbd422c09	-0.047405276
28	0x3e049f46	0.12951383
29	0x3e00b9ac	0.12570828
30	0xbd8f5610	-0.06998837
31	0x3d074c30	0.033031642
32	0xbdab133f	-0.0835328
33	0xbdd4b7b0	-0.10386598
34	0xbd417b88	-0.04723695
35	0xbd36ec9d	-0.044659246
36	0xbdfecd34	-0.12441483
37	0x3b8171cd	0.0039503337
38	0x3f89d09d	1.0766789
39	0xbf392c8d	-0.72333604
40	0xbc84559a	-0.0161541
41	0x3ca46024	0.020065375
42	0xbdf77d16	-0.12084405
43	0xbe0629f4	-0.13101941
44	0xbdde9f47	-0.108702235
45	0xbd51997c	-0.051171765
46	0xbd2af80c	-0.041740462
47	0xbdedcd31	-0.11611403
48	0x3de3dc10	0.11125958
49	0x3f7db188	0.99099016
50	0xbf3ed1b1	-0.74538714
51	0x3cb4a629	0.022051888
52	0xbe9a4eb6	-0.30138177
53	0x3f5fa8db	0.8736703
54	0xbbb5dda5	-0.0055501037
55	0x3dd9cccd	0.10634766
56	0xbf0898d0	-0.53358173
57	0x3e326cd6	0.1742433
58	0xbc64b862	-0.013959976
59	0x3f4b3f52	0.79393494
60	0xbea3f98d	-0.3202633
61	0xbccb50f3	-0.024818873
62	0x3ec12e60	0.37730694
63	0x3fbdc689	1.4826213
64	0xbf28bdc0	-0.65914536
65	0xbdda911d	-0.106722094
66	0x3f5c263b	0.85995835
67	0x3ea1bbad	0.31588498
68	0xbc454aac	-0.012041729
69	0x3ce9048d	0.028444553
70	0x3cac5ff0	0.02104184
71	0x3e0c8546	0.13722715
72	0xbdc21c77	-0.094780855
73	0x3dbcd478	0.09220213
74	0x3d8780fe	0.066164
75	0xbd816e0d	-0.06319819
76	0x3d8665d8	0.06562394
77	0xbf560da1	-0.83614546
78	0x3e803baf	0.25045535
79	0xbc224d94	-0.009906191
80	0x3f5736db	0.8406808
81	0xbf0408cd	-0.5157593
82	0x3ad08881	0.0015909822
83	0xbe2f39c4	-0.1711188
84	0x3e506fa7	0.20355092
85	0xbef545f2	-0.47904927
86	0xbef1d0b3	-0.47229537
87	0xbe8ec6a8	-0.27885938
88	0x3f1cf863	0.6131651
89	0x3e6c5376	0.23078713
90	0xbdae47ce	-0.085097894
91	0xbd22277e	-0.039588444
92	0x3d8f6018	0.0700075
93	0xbbb64e41	-0.005563528
94	0x3da349f9	0.079730935
95	0x3e9a9e2f	0.3019881
96	0xba7479a4	-0.0009325987
97	0x3bfe793d	0.0077659176
98	0xbd8acc08	-0.06777197
99	0x3d89d70c	0.0673047
100	0xbce76134	-0.028244592
101	0x3cabe968	0.02098532
102	0x3deb981c	0.11503622
103	0xbddae316	-0.106878445
104	0xbda7e54a	-0.0819803
105	0xc0127be5	-2.288812
106	0x3daa0553	0.08301797
107	0xbb1420b3	-0.0022602498
108	0xbe478dc1	-0.19487669
109	0x3f5ca36f	0.8618688
110	0xbd0b07eb	-0.033943098
111	0xbd8721e4	-0.06598261
112	0xbd558c64	-0.05213584
113	0x3da3496c	0.079729885
114	0xbe0b1832	-0.13583449
115	0xbde15054	-0.110016495
116	0xbe03efc9	-0.1288444
117	0xbde5bee0	-0.11218047
118	0x3d8e6714	0.06953254
119	0x3cf7a949	0.030232089
120	0xbd8e7351	-0.069555886
121	0x3bfadf93	0.0076560467
122	0x3dd5835d	0.10425446
123	0xbda97173	-0.08273592
124	0xbdc02a25	-0.093830384
125	0x3db5a6e3	0.08869722
126	0x3d10f831	0.035392944
127	0x3e4ec90e	0.20193884
128	0x3b93ff64	0.004516529
129	0x3e75262a	0.2394034
130	0xbf64a72d	-0.8931759
131	0x3c95b93b	0.018276801
132	0xbe25ce11	-0.1619189
133	0x4018d7ce	2.3881717
134	0xbe3154b8	-0.17317474
135	0x3cc41060	0.02393359
136	0xbf0e7979	-0.556541
137	0xbd345add	-0.044031966
138	0xbbc43767	-0.00598805
139	0x3f022b47	0.50847286
140	0xbe87a5d6	-0.2649371
141	0x3e9e9112	0.30970055
142	0xbb9d1bd8	-0.004794579
143	0x3d777a01	0.060419086
144	0x3ed945cc	0.42436063
145	0xbc5477f0	-0.012968048
146	0xbc913648	-0.017726079
147	0x3d8fa716	0.07014291
148	0xbddaedc1	-0.10689879
149	0xbd5cb230	-0.05388087
150	0x3df3a0f8	0.11895937
151	0x3e0d5190	0.13800645
152	0xbe143266	-0.1447235
153	0x3d770048	0.060303003
154	0x3f6e3566	0.9305023
155	0xbd75ab17	-0.059977617
156	0x3af57e82	0.0018729719
157	0x3f0c26e6	0.54746854
158	0xbf75871c	-0.95909286
159	0xbd37d6fe	-0.044882767
160	0xbe00f34c	-0.1259281
161	0x3f1a133c	0.601856
162	0xbe0ff8cd	-0.14059754
163	0xbd4fd3b9	-0.050739024
164	0x3f8855f8	1.0651236
165	0xbf273d4f	-0.65327924
166	0xbc776dab	-0.0151018305
167	0x3e071b18	0.13193929
168	0x3ec81aad	0.39082852
169	0xbe0d42c0	-0.13794994
170	0xbbb65c4c	-0.005565202
171	0x3f355783	0.7083666
172	0x3f23b187	0.6394276
173	0xbdf384b2	-0.11890544
174	0xbe8d332c	-0.27578104
175	0xbf164cd2	-0.5871097
176	0x3ea5c5b8	0.3237741
177	0xbd15dfce	-0.03659039
178	0xbe823ffa	-0.25439435
179	0x3f9431e2	1.1577723
180	0xbce3911d	-0.027779156
181	0x3e7d9069	0.2476212
182	0x3ddbdea0	0.10735822
183	0x3f2af9f7	0.66787666
184	0xbd597647	-0.053091314
185	0x3f4fed50	0.81221485
186	0xbee8df1e	-0.45482725
187	0x39fa136d	0.0004769819
188	0xbd3915a1	-0.045186643
189	0x3e15bb47	0.14622222
190	0x3e7b76f7	0.245571
191	0xbe5587e6	-0.20852622
192	0xbb841e10	-0.004031904
193	0x3ea80692	0.32817513
194	0x3e015485	0.12629898
195	0xbdd4b782	-0.10386564
196	0x3f9f261c	1.2433505
197	0x3edcc987	0.43122503
198	0x3d759ef7	0.059966054
199	0x3de7c377	0.11316579
200	0x3dcfbdf2	0.10143651
201	0xbf0aed51	-0.54268366
202	0x3dcbd6dc	0.099530905
203	0xbdb28183	-0.08716109
204	0xbdd48e28	-0.10378677
205	0xbcc5f873	-0.024166321
206	0xbea3b7a6	-0.3197605
207	0xbfb1366a	-1.3844731
208	0x3d8a801a	0.06762715
209	0xbeaece9d	-0.34142008
210	0xbeabe3e1	-0.33572295
211	0xbd2cba60	-0.04216993
212	0x3d49364d	0.04912405
213	0xbcd7b64e	-0.026332047
214	0xbf1d615e	-0.61476696
215	0xbac13fc7	-0.0014743739
216	0xbe60f7ba	-0.219695
217	0x3eebaeb8	0.46031737
218	0xbe2a87a1	-0.16653301
219	0x3c3539da	0.011061156
220	0x3f5cf39c	0.8630922
221	0xbe829de5	-0.2551109
222	0x3a222d6c	0.0006186578
223	0xbd2bd796	-0.041953646
224	0xbf4f51d9	-0.80984265
225	0x3e8fc0da	0.28076822
226	0xbe0ba4c3	-0.1363707
227	0x3f4e6c21	0.8063374
228	0x3e0a039b	0.13477938
229	0x3d1dcca3	0.038525235
230	0xbe87de94	-0.26537
231	0x3da8348e	0.08213149
232	0xbe000a41	-0.12503912
233	0xbdfdfb60	-0.124014616
234	0xbd39c1dc	-0.045350894
235	0xbe104997	-0.14090572
236	0xbe0cef6c	-0.13763207
237	0x3d13b5bc	0.036061987
238	0xbe7915af	-0.24324678
239	0xbd81ee5e	-0.06344293
240	0xbd471304	-0.04860212
241	0x3e8e403b	0.2778338
242	0x3f7875b2	0.9705459
243	0xbec3339e	-0.38125318
244	0x3c4be826	0.012445485
245	0xbf572a73	-0.8404915
246	0xbc855e30	-0.016280264
247	0x3c224e42	0.009906353
248	0x3f98b6d6	1.1930797
249	0xbf143beb	-0.5790393
250	0xbe04e136	-0.12976536
251	0xbeb77d93	-0.35837993
252	0x3ea66c90	0.32504702
253	0x3e681443	0.22663979
254	0xbc67b7fa	-0.0141429845
255	0x3efd6646	0.4949209

fc1.bias f4 [256]
0	0xbde6a02c	-0.11261019
1	0xc11ee832	-9.931688
2	0xc1041224	-8.254429
3	0x4102d6a7	8.177405
4	0x3e4f6c3a	0.20256129
5	0x40eb60e6	7.3555784
6	0x3d1097a8	0.03530088
7	0x40edeae1	7.4349217
8	0xc1182b0d	-9.51051
9	0x40e63228	7.1936226
10	0xbeba1fdf	-0.3635244
11	0xc135eb45	-11.369939
12	0x4095890c	4.6729794
13	0xc13523c0	-11.321228
14	0x3e1a9a8e	0.1509802
15	0x40a64fd9	5.197247
16	0xbe3d98be	-0.18515298
17	0x3e2fac7b	0.1715564
18	0x410b90e6	8.722876
19	0xc0b697f4	-5.706049
20	0xc12a4781	-10.642457
21	0xbea8c3a9	-0.32961777
22	0xc0bf3923	-5.9757247
23	0xc0e945c3	-7.289766
24	0x411b3e50	9.702713
25	0x400e5b73	2.2243316
26	0x40922044	4.5664387
27	0xc06deace	-3.7174563
28	0xbf953554	-1.16569
29	0x407c725c	3.94448
30	0x4119fe91	9.62465
31	0xc11dc955	-9.861653
32	0xc10419b7	-8.256278
33	0xbea37647	-0.31926176
34	0x40063b3a	2.097365
35	0xc0dbeb79	-6.872494
36	0x40d26ad2	6.5755396
37	0xc0f969fc	-7.7941875
38	0xc13820f3	-11.508044
39	0xbea97376	-0.33095902
40	0xc09bcbc8	-4.8686256
41	0xbe811e7f	-0.2521858
42	0xc120bbbb	-10.045833
43	0x411a72a4	9.652988
44	0xbe82df73	-0.25561103
45	0xc107b973	-8.482776
46	0xc0be4a1d	-5.946547
47	0xc0e4fed1	-7.1561055
48	0xbf56c1ff	-0.83889765
49	0x40d1bae9	6.554066
50	0x3e51f082	0.20501903
51	0xc0ebff9c	-7.3749523
52	0xc1190b70	-9.565292
53	0x40acf38c	5.40473
54	0xc10af9b7	-8.685966
55	0xc135ea3e	-11.369688
56	0xc1450ed2	-12.316118
57	0xc1166c8d	-9.401502
58	0xc0decff3	-6.9628844
59	0xc115d62e	-9.36479
60	0x3f2ede8f	0.6830835
61	0x4112b26a	9.168558
62	0xbe9bb3c6	-0.30410594
63	0xbe2ebb3b	-0.1706361
64	0x3e899e37	0.2687852
65	0xbe4b4889	-0.19851889
66	0xc10e3a98	-8.889305
67	0xc11952c1	-9.582704
68	0x3f9f6237	1.2451848
69	0xc12f0baa	-10.940348
70	0x3f8fe1c4	1.1240773
71	0x4027a717	2.6195734
72	0x3e22e466	0.1590744
73	0xc00bfa0f	-2.1871374
74	0x412c4fcf	10.7694845
75	0xbeaa55f3	-0.332687
76	0x4103fac3	8.248721
77	0xc0e9f75f	-7.3114467
78	0xc0c7391a	-6.2257204
79	0xc08cf937	-4.4054217
80	0xc12e924e	-10.910719
81	0xc0bdfe17	-5.937267
82	0xc12ab919	-10.67019
83	0xc1230c32	-10.190477
84	0x40be27b8	5.9423485
85	0xbf950dc4	-1.1644826
86	0xbea41f78	-0.3205526
87	0xbf4ed25d	-0.8078974
88	0xc123a769	-10.228372
89	0xbe8919ec	-0.2677759
90	0x411d7720	9.841583
91	0xc1327273	-11.152942
92	0x40b5df84	5.6835346
93	0x4107bc27	8.483436
94	0xc101c4c2	-8.110537
95	0xbe01bbb4	-0.1266926
96	0xc0e83b50	-7.2572403
97	0xbe857962	-0.2606917
98	0x4120dddb	10.054164
99	0x4107bbe1	8.483369
100	0x3eb589a5	0.35456577
101	0x40f0dd6f	7.5270305
102	0xc0b8f42e	-5.779807
103	0xc0adcacf	-5.431007
104	0xc128c272	-10.547472
105	0xbe985dbc	-0.29759014
106	0xc0d4ac9e	-6.6460714
107	0xbda530a8	-0.08065921
108	0x40d23766	6.5692625
109	0x3e3ebf9e	0.18627784
110	0x409479a9	4.639851
111	0x40e5af86	7.177676
112	0x3eb2b3a7	0.3490269
113	0xc12da8ee	-10.853743
114	0x40fce296	7.9026594
115	0x40ddb904	6.928835
116	0xc11bf26e	-9.746687
117	0x40de4126	6.9454527
118	0x410cd9d4	8.803181
119	0xc0508135	-3.2578862
120	0x3d99411c	0.07483122
121	0xbf796fc6	-0.9743618
122	0x412fe1f8	10.992668
123	0x41423669	12.138284
124	0x41011d37	8.069633
125	0xc0d0e011	-6.527352
126	0xc11ec8d0	-9.9240265
127	0xbcfaf740	-0.030635476
128	0xc0dda49d	-6.9263444
129	0xc131df93	-11.117084
130	0x41223d40	10.139954
131	0xc08e7ed8	-4.452984
132	0xc0687246	-3.6319747
133	0xbe63d955	-0.22250874
134	0xc0a28856	-5.0791426
135	0x4114bf29	9.29667
136	0x3e82d3ff	0.25552365
137	0xc0495723	-3.1459434
138	0xc0f0fd4e	-7.530921
139	0x40486b9b	3.1315677
140	0x412e39c3	10.889102
141	0xbec7691b	-0.38947377
142	0x3da72a64	0.08162382
143	0x4052d831	3.2944453
144	0xc0aa3b8c	-5.319769
145	0x412f7e3b	10.968318
146	0xc0b04f1d	-5.5096574
147	0xc0dfa40a	-6.9887743
148	0xc09498b0	-4.6436386
149	0x3e104dda	0.14092198
150	0xc1175325	-9.457799
151	0x40e0d0c1	7.0254827
152	0xc133a937	-11.228812
153	0xc12df0fb	-10.871333
154	0x3e019af5	0.12656768
155	0x3dd400ac	0.10351691
156	0x3e886dd9	0.26646307
157	0xbf4ab772	-0.79186165
158	0x3db18ddc	0.08669636
159	0x3e8fcd95	0.28086534
160	0xc0a7b715	-5.241099
161	0x40862320	4.1917877
162	0xbe6f73af	-0.23383974
163	0x40e75ec5	7.2303185
164	0xc13a5e59	-11.648034
165	0xc0fa47f4	-7.8212833
166	0x3e2876e6	0.16451606
167	0x40aacd39	5.3375516
168	0xc10e88e4	-8.908421
169	0x3abde900	0.0014488995
170	0xc12d46ca	-10.8297825
171	0xc126f120	-10.433868
172	0xbe674a2a	-0.22586885
173	0xc09609a8	-4.6886787
174	0xbc859fb0	-0.016311496
175	0xc12fcc34	-10.987354
176	0x40b8184f	5.7529674
177	0xc0e7aed6	-7.2400923
178	0xc1377829	-11.466836
179	0x410179fb	8.09228
180	0xbd3a16d8	-0.04543194
181	0xbea64ecc	-0.32481992
182	0xbec53889	-0.38519695
183	0x3d71e0f3	0.05905242
184	0x4033454c	2.8011045
185	0xc0185a97	-2.3805292
186	0x3e9421eb	0.28932127
187	0x404b87d9	3.1801665
188	0xc10870e4	-8.527561
189	0xbe4b0909	-0.19827665
190	0x408c15d2	4.3776636
191	0x40e24eff	7.072143
192	0x40b37cc6	5.608981
193	0xbe674214	-0.225838
194	0x40fba62e	7.8640356
195	0xbe86345c	-0.26211822
196	0x3e48080a	0.19534317
197	0xc0cae77f	-6.340759
198	0x411ee7d6	9.931601
199	0xc13e3a43	-11.889224
200	0xc0aba8d9	-5.3643613
201	0xbe9ea75c	-0.3098706
202	0x4111cce2	9.11252
203	0xc138e87f	-11.556762
204	0x408bc445	4.3677087
205	0xc11adfd0	-9.679642
206	0xc135f0ef	-11.371322
207	0xc0d20fb3	-6.5644164
208	0xc12a9c1a	-10.663111
209	0xc1110f1e	-9.066191
210	0x3da5f856	0.08104007
211	0x40888682	4.2664194
212	0x400a8122	2.1641316
213	0xc00a82ef	-2.1642416
214	0x41304302	11.016359
215	0x411db295	9.856099
216	0xc1001023	-8.00394
217	0xc0efebd5	-7.497538
218	0x40df03e3	6.9692245
219	0xc12960c2	-10.5861225
220	0x41091dd8	8.569786
221	0x4014b1fc	2.3233633
222	0x3e652232	0.22376326
223	0xc02f0072	-2.7344022
224	0x40983e7a	4.7576265
225	0x3d59f6a9	0.05321375
226	0xc1173b5c	-9.451992
227	0xc10da3aa	-8.852457
228	0x40ed33ee	7.412589
229	0x4078c2a2	3.8868794
230	0x3e102342	0.1407595
231	0xc0e223dd	-7.066878
232	0x40677cc0	3.6169891
233	0xbe71d091	-0.23614718
234	0xc0beedfd	-5.9665513
235	0xbec0f3d4	-0.37686026
236	0x3e6ed3f2	0.23323038
237	0xbe7c7df0	-0.24657416
238	0xbeb6c0f2	-0.3569408
239	0xc11e4202	-9.891115
240	0x40915321	4.5413976
241	0xc115b79e	-9.357328
242	0xc1267cbc	-10.405453
243	0x412cfbfc	10.81152
244	0xc10d5960	-8.83432
245	0x3edac379	0.4272726
246	0xbe78b876	-0.24289116
247	0x412258a1	10.146638
248	0xc0ee9c1a	-7.4565554
249	0x3ec1e52a	0.3787015
250	0x40a7b4c4	5.240816
251	0xc0c1a49f	-6.0513453
252	0x410127e3	8.072238
253	0xbe4d3b4b	-0.2004215
254	0xc111d30d	-9.114026
255	0xc0f5b60d	-7.678473

fc2.weight f4 [256, 256]
0	0xbcf4df68	-0.029891685
1	0x3ecc9592	0.39957863
2	0x3e69d470	0.22834945
3	0xbf9d74e8	-1.2301302
4	0x3c91477c	0.017734282
5	0xbf324cf4	-0.6964867
6	0xbdda47ba	-0.10658212
7	0xbdedddcd	-0.11614571
8	0xbcf18e79	-0.029486882
9	0xbf101671	-0.5628424
10	0x3d9e29cf	0.07722818
11	0x3ed1a715	0.40947786
12	0x3cba0cf8	0.022711262
13	0x3e85861b	0.26078877
14	0xbd2b0644	-0.041754022
15	0xbe27442a	-0.16334596
16	0xbdbf2c86	-0.09334664
17	0x3c1ee14d	0.009697271
18	0xbccc45e9	-0.02493568
19	0xbeb7dbb0	-0.35909796
20	0x3e0b689a	0.13614121
21	0xbd956b25	-0.07295827
22	0xbe1a8936	-0.15091404
23	0x3c840e14	0.016119994
24	0x3e0f9099	0.14020003
25	0x3d3113c3	0.043231737
26	0x3d5189c3	0.05115677
27	0xbe8f8922	-0.28034312
28	0xbf114bea	-0.5675646
29	0xbeab183b	-0.33416924
30	0xbe146996	-0.14493403
31	0x3d870284	0.06592277
32	0x3ea2bc53	0.31784305
33	0x3d37e462	0.044895537
34	0x3f67dac7	0.905682
35	0x3ed6b582	0.41935354
36	0xbee80dda	-0.45323068
37	0x3e98ebec	0.29867494
38	0xbba3c04d	-0.0049972893
39	0x3dcabaa7	0.09898882
40	0xbea5040a	-0.32229644
41	0xbf37f483	-0.7185747
42	0x3e69df64	0.22839123
43	0x3c95b3d7	0.01827423
44	0x3e4d3ca1	0.2004266
45	0x3eb33569	0.35001686
46	0x3debfb6c	0.11522564
47	0x3e12ec1e	0.14347884
48	0xbe716e4a	-0.23577228
49	0xbe535b8b	-0.2064039
50	0x3d6c69de	0.05771815
51	0xbcdd54af	-0.02701792
52	0xbe911a4f	-0.28340384
53	0x3e8137b4	0.2523781
54	0xbd258aa1	-0.04041541
55	0x3edf3763	0.43596944
56	0x3f13e31c	0.57768416
57	0x3edeaf33	0.4349304
58	0xbc303c2f	-0.010756536
59	0x3d48ef69	0.049056444
60	0xbf83e9f5	-1.0305773
61	0xbc8ccc7b	-0.017187348
62	0xbd8ff13e	-0.07028435
63	0x3b614b60	0.0034377202
64	0xbdd8a81e	-0.10578941
65	0x3d8bcacd	0.068257906
66	0x3e48cd14	0.19609481
67	0x3d8fd88e	0.070237264
68	0x3f4718fd	0.77772504
69	0x3ef64579	0.48099878
70	0xbeace7df	-0.33770654
71	0xbece17a1	-0.40252402
72	0xbd500b2b	-0.0507919
73	0x3ea12ddb	0.31480297
74	0xbea421f1	-0.32057145
75	0xbc97f050	-0.018547207
76	0xbdfa203e	-0.12213181
77	0xbc28a9d5	-0.010294397
78	0xbd4d59f6	-0.05013462
79	0xbeb5039c	-0.35354316
80	0xbc92c30c	-0.017915271
81	0xbf0f6dea	-0.5602709
82	0x3e381808	0.17977917
83	0x3e5daf30	0.2164886
84	0xbeec1eb7	-0.46117184
85	0x3f3db6b5	0.74106914
86	0xbd9da12a	-0.07696755
87	0xbe66c57b	-0.2253627
88	0xbdb4a8c7	-0.08821254
89	0xbcbbcbe8	-0.022924379
90	0x3d8cf7e7	0.06883221
91	0x3d822d91	0.06356347
92	0xbf1295fe	-0.5726012
93	0xbdf2c918	-0.11854762
94	0xbc091015	-0.008365651
95	0x3cda7f5c	0.026672058
96	0xbe980c62	-0.29696947
97	0x3d05367a	0.032522656
98	0x3d95fbc2	0.073234096
99	0xbb5f9fe4	-0.0034122402
100	0xbcf4db68	-0.029889777
101	0x3db293a9	0.0871957
102	0x3f1b7b1f	0.6073474
103	0xbf222a44	-0.6334574
104	0x3e92bc32	0.28659207
105	0x3d505daa	0.050870575
106	0x3f0739ba	0.5282246
107	0x3dae9c5d	0.08525918
108	0x3f247ec2	0.6425592
109	0x3da99f27	0.08282309
110	0xbf5627dc	-0.8365457
111	0xbe0c535b	-0.13703673
112	0xbd189b50	-0.037257493
113	0x3e79bae3	0.24387698
114	0xbcccaa92	-0.024983678
115	0x3c377d88	0.011199363
116	0x3d37c02c	0.044861004
117	0x3d0273d0	0.03184873
118	0xbeff8dc5	-0.4991285
119	0xbc869a15	-0.016430894
120	0xbdc8b466	-0.09800033
121	0xbd66b522	-0.056325085
122	0xbe9d9644	-0.30778706
123	0xbed358b8	-0.41278625
124	0x3be78630	0.007065557
125	0xbe02448e	-0.12721464
126	0x3c11c97e	0.008898137
127	0x3dd5820f	0.10425197
128	0x3e014db0	0.12627292
129	0x3ebc4c35	0.3677689
130	0xbeeb4d67	-0.4595749
131	0xbdc6bb75	-0.09703723
132	0xbf3cbbe8	-0.7372422
133	0xbd99ee4b	-0.07516154
134	0x3e01f7c7	0.12692176
135	0x3e60ead5	0.21964581
136	0x3db9be21	0.09069467
137	0xbeade8b2	-0.33966595
138	0xbda04dbe	-0.07827328
139	0xbe8e2f8d	-0.27770653
140	0xbea4781b	-0.32122883
141	0xbc4dd728	-0.012563504
142	0x3dce5409	0.10074622
143	0xbf3c784b	-0.7362105
144	0xbe919fb6	-0.28442162
145	0xbf26ef3a	-0.6520878
146	0x3e1f8981	0.15579797
147	0x3dd69d6d	0.10479245
148	0xbe57bf93	-0.21069174
149	0x3c742d10	0.014903322
150	0xbd9e4a66	-0.07729034
151	0xbee848e9	-0.45368126
152	0xbd88c52f	-0.06678235
153	0x3e39da72	0.18149737
154	0x3dc9f495	0.098611034
155	0x3d1e3de6	0.03863325
156	0x3db06f7f	0.08615016
157	0x3e288e95	0.1646064
158	0xbd00dca0	-0.031460404
159	0xbdb03f2e	-0.086058006
160	0xbd45f6ce	-0.048331074
161	0x3db41315	0.08792702
162	0xbc738d60	-0.014865249
163	0x3cc89f65	0.024490068
164	0x3f16d77f	0.5892257
165	0x3e09f1c2	0.1347113
166	0xbc724840	-0.014787734
167	0x3e012af6	0.12614045
168	0x3e225b27	0.15855084
169	0xbd9d8315	-0.076910175
170	0xbb474a2e	-0.0030409205
171	0x3c66549b	0.014058257
172	0xbc189458	-0.009312712
173	0x3d9bfc28	0.07616454
174	0xbd8ee028	-0.06976348
175	0x3f006141	0.501484
176	0xbe8dcb04	-0.2769395
177	0x3c53d9d7	0.012930355
178	0xbcc60bd5	-0.024175564
179	0xbee6ba11	-0.45063832
180	0xbd648f0b	-0.05580048
181	0x3dcf56cf	0.10123979
182	0x3e332712	0.17495373
183	0xbd85d970	-0.065356135
184	0xbf78c707	-0.9717869
185	0x3eabc1bd	0.33546248
186	0xbcf1ec7c	-0.02953171
187	0xbfcc270c	-1.5949416
188	0x3e448b3b	0.19193737
189	0x3dcbc70f	0.09950077
190	0xbf8396d5	-1.0280405
191	0x3da74352	0.08167137
192	0xbeb76b94	-0.35824263
193	0x3e8d9366	0.2765152
194	0xbea6fc8e	-0.3261456
195	0x3b60c4e0	0.0034297034
196	0xbd0b37cc	-0.03398876
197	0x3f1ba328	0.6079583
198	0xbe986d3c	-0.2977084
199	0x3df3a6fe	0.118970856
200	0xbda3f291	-0.0800525
201	0x3d55762a	0.052114643
202	0xbe8fad70	-0.2806201
203	0x3e9f4a0b	0.31111178
204	0x3da74cff	0.08168983
205	0x3e3a5aa2	0.18198636
206	0xbd7ab52d	-0.06120794
207	0xbf15a1d6	-0.5845007
208	0x3e616e7e	0.22014806
209	0x3e3b2296	0.18274912
210	0x3d264958	0.04059729
211	0xbebf593b	-0.37372765
212	0xbe42c129	-0.19018997
213	0x3c36dff9	0.011161798
214	0x3e0558a5	0.13022096
215	0x3d34c3b3	0.044131946
216	0xbcc2aa8a	-0.02376296
217	0x3f2b089c	0.6681001
218	0xbec8bdcd	-0.39207307
219	0x3e4de9c4	0.20108706
220	0xbeb7d178	-0.35902
221	0xbe0a03fc	-0.13478082
222	0x3d97abd5	0.07405821
223	0xbefef946	-0.49799556
224	0x3db09745	0.086226024
225	0x3ec05d30	0.37571096
226	0x3e6bbf25	0.23022135
227	0x3cccc971	0.024998398
228	0xbde0bc35	-0.10973398
229	0xbea1a563	-0.31571493
230	0xbd11d7aa	-0.035606064
231	0x3e32dda1	0.17467357
232	0xbd39a109	-0.04531959
233	0x3ce670cc	0.028129958
234	0x3dbb7b7f	0.091544144
235	0x3daa2eb9	0.08309693
236	0xbd6ae681	-0.057348732
237	0xbd216de8	-0.039411455
238	0x3cbd7224	0.023125716
239	0x3d322abf	0.043497797
240	0x3e30c904	0.17264181
241	0x3e175016	0.14776644
242	0x3e5f3af5	0.21799834
243	0xbed283c7	-0.41116163
244	0x3e4352f8	0.19074619
245	0x3eda73f4	0.4266659
246	0x3d8ec7a9	0.06971676
247	0x3cd03b6b	0.025418958
248	0x3f217e67	0.630835
249	0x3ea07b4f	0.31344077
250	0xbeb4ae69	-0.35289314
251	0x3e0fc2b5	0.14039119
252	0xbf636a93	-0.88834494
253	0x3bd960d0	0.0066338554
254	0x3f12efeb	0.57397336
255	0xbdd8799d	-0.10570071

fc2.bias f4 [256]
0	0xc0b4c4c7	-5.6490207
1	0xc10b262e	-8.696821
2	0xc0917925	-4.546038
3	0xc0f6c977	-7.712093
4	0xbf93d5f6	-1.1549671
5	0xbf83c958	-1.029582
6	0xc1058f3f	-8.347472
7	0xc00cb99d	-2.198829
8	0xc0457f74	-3.0859041
9	0xc100444b	-8.016673
10	0x3ece4901	0.40290073
11	0xc0a4adfa	-5.1462374
12	0xbd810242	-0.06299259
13	0xc0b9bdce	-5.8044195
14	0x3e9df590	0.30851412
15	0xbeed344e	-0.46328968
16	0x41177492	9.46596
17	0xbc88276e	-0.016620364
18	0xc0ce64db	-6.4498115
19	0xc105f11f	-8.371367
20	0x3befd414	0.007318983
21	0xbcdc7767	-0.026912404
22	0xc0a1d3cb	-5.0571036
23	0xc092f64f	-4.592567
24	0xc056f92a	-3.3589578
25	0xc0b0cc02	-5.5249033
26	0xc02030c6	-2.502977
27	0x3ef66a56	0.48128003
28	0xc03bc5a2	-2.9339375
29	0xc0a056d7	-5.0106006
30	0xc051f5fa	-3.2806382
31	0xc018cc1b	-2.3874576
32	0xbe29d830	-0.16586375
33	0xc00d686f	-2.2094991
34	0xc0b40cc3	-5.626558
35	0x3c0eeb2f	0.008723064
36	0x40a0a9e3	5.020738
37	0xc00812db	-2.1261508
38	0xbe3071c0	-0.17230892
39	0xc094cdd7	-4.650127
40	0x3e922c9f	0.28549668
41	0xc040becd	-3.0116456
42	0x402c9018	2.6962948
43	0x3ce7462d	0.028231705
44	0xc01c60c5	-2.4434063
45	0x3fab726a	1.3394291
46	0x3f499bff	0.78753656
47	0x40091549	2.1419241
48	0xbcdc5e8f	-0.026900558
49	0xc1018cdc	-8.0968895
50	0x3e5bf3ca	0.21479717
51	0xc0c6530c	-6.1976376
52	0xbf10a526	-0.56501997
53	0xc0f274e6	-7.57677
54	0xbd34ec0d	-0.044170428
55	0x3ff1855a	1.8868821
56	0xc0875dd6	-4.2302046
57	0x3c5b608c	0.013389718
58	0xc0f5de3a	-7.6833773
59	0x3d4d3da2	0.050107606
60	0xc09ac81d	-4.836928
61	0x3d03a964	0.032143965
62	0xc0c4e33c	-6.1527386
63	0x3fd51579	1.6647178
64	0xc0df22cd	-6.972998
65	0x3f76e8a5	0.9644874
66	0xc0adb935	-5.4288583
67	0xc09b0456	-4.8442793
68	0xc099288e	-4.7862005
69	0xbda03ffc	-0.07824704
70	0x40ba2984	5.817568
71	0xbd93166e	-0.071820125
72	0xc029ba95	-2.652013
73	0xc0b1e423	-5.5590987
74	0xbd35bbf2	-0.04436869
75	0xc0ed2189	-7.4103436
76	0xbf814db8	-1.0101843
77	0xbcdbfd03	-0.026854044
78	0xbff24a0f	-1.8928851
79	0xbf0e7950	-0.5565386
80	0x3efa5530	0.48893118
81	0x3f99f9f5	1.2029406
82	0xc0a00176	-5.0001783
83	0x3d9a88fd	0.0754566
84	0xc0bbdd9b	-5.8708014
85	0xbde791f5	-0.11307136
86	0xc0f752d2	-7.72886
87	0xbf8e5862	-1.1120722
88	0x3d44c08e	0.048035197
89	0xbd4e1c45	-0.05031993
90	0xc024cd03	-2.575013
91	0x3cfcce42	0.03086007
92	0x406dc10a	3.7149072
93	0xc0b582bd	-5.6722093
94	0xc0aaf67a	-5.3425875
95	0xbc2593bb	-0.0101060225
96	0xc117c1cc	-9.484814
97	0xc03d6c45	-2.9597332
98	0xbf2815b6	-0.6565813
99	0xc0e0471d	-7.008681
100	0xbe819f8b	-0.25317034
101	0xc0be058d	-5.9381776
102	0xc0400117	-3.0000665
103	0xc0ee0e4a	-7.4392443
104	0xc0b8b26f	-5.7717814
105	0xc0d75b4f	-6.729896
106	0xc0da7f73	-6.828058
107	0x3fc751c9	1.5571834
108	0xc0c9e6a2	-6.3094034
109	0xc0e7f8a7	-7.249103
110	0xc03f1674	-2.9857454
111	0xbd56a5e9	-0.052404318
112	0x3e7cb92e	0.24680015
113	0x3cfbe704	0.030749805
114	0x3d7f28f9	0.062294934
115	0xc0151c43	-2.32985
116	0xc0ac9c4d	-5.3940797
117	0xbe8b0f9e	-0.27160352
118	0x3d486f8b	0.0489345
119	0xbf184cf0	-0.594924
120	0x3e3439ee	0.17600223
121	0xc0de50e2	-6.9473734
122	0xbd078a3d	-0.03309082
123	0x3d1083d6	0.03528198
124	0xc10b5c27	-8.709998
125	0x40257379	2.585173
126	0x40d5356b	6.6627707
127	0x3f83d9b9	1.0300819
128	0xc10cb3f4	-8.793934
129	0xc10edc8d	-8.928845
130	0xc0535dfa	-3.3026109
131	0xbfe1df53	-1.7646278
132	0xbe27b449	-0.16377367
133	0xc0d698e8	-6.7061653
134	0xc0ed4b28	-7.4154243
135	0xc04f478e	-3.2387424
136	0xc0a4ccdd	-5.1500077
137	0x3f8f9200	1.1216431
138	0xbdd808a8	-0.10548526
139	0xbd1c1e91	-0.038115088
140	0xbf4b9042	-0.79516995
141	0xc118adee	-9.542463
142	0xc0b81772	-5.752862
143	0xc0e6e277	-7.2151446
144	0x40448f6c	3.0712538
145	0xc0b73737	-5.72549
146	0xc0557c2c	-3.3357038
147	0xbc643ba0	-0.013930231
148	0xc0db9c96	-6.8628645
149	0xbebdeaca	-0.37093192
150	0x3fea2451	1.8292333
151	0xbf90dced	-1.1317421
152	0xbe11e7ef	-0.14248632
153	0x3d511c4a	0.05105237
154	0xbd8005a3	-0.06251075
155	0xbcb4266f	-0.021990983
156	0xc0d69ce1	-6.7066503
157	0xbe296439	-0.16542138
158	0xc0e07851	-7.014687
159	0xbea47e12	-0.32127434
160	0xbfb3d908	-1.4050608
161	0x3f884179	1.0644981
162	0xc0ee58a6	-7.4483213
163	0x3fb67455	1.4254252
164	0xbd9eb49f	-0.077492945
165	0x4082be30	4.0857162
166	0xc0cd3feb	-6.4140525
167	0x3fe6c6c6	1.8029411
168	0xbc43143e	-0.011906682
169	0xbe6381f2	-0.22217539
170	0x40fe9bb9	7.956509
171	0xc03ac98e	-2.918552
172	0xc0b08b11	-5.516976
173	0xc0c6a6ec	-6.207876
174	0xc0e0f8ec	-7.030386
175	0xc0fe31b8	-7.943569
176	0xc0c436ef	-6.1317058
177	0x40fece77	7.962703
178	0xc08675d0	-4.2018814
179	0xc0f6c343	-7.7113357
180	0x3f068d9c	0.5255983
181	0xc09d3c45	-4.913607
182	0xc0df66f2	-6.9813166
183	0x3b125b88	0.002233239
184	0xc10471b2	-8.277758
185	0xbec1ab5d	-0.37826052
186	0xbfbaf4ce	-1.4605958
187	0x3daa398b	0.08311757
188	0x408629d3	4.1926055
189	0x3eee149b	0.46500096
190	0xc06d5347	-3.7082078
191	0xbccddb1f	-0.0251289
192	0xbe846c76	-0.25864
193	0xbdaac1e1	-0.08337761
194	0xbcaffd6e	-0.02148315
195	0xc0c699db	-6.206281
196	0xbf37756e	-0.7166356
197	0xbd318d2d	-0.043347526
198	0xc0b92542	-5.785798
199	0xc0598c8c	-3.3992033
200	0xc0de0a20	-6.938736
201	0xbf038996	-0.51381814
202	0xc1029a49	-8.162667
203	0xc09bdc7a	-4.8706636
204	0x3f9d879a	1.2307007
205	0xc0cf453b	-6.477201
206	0x3f7da63e	0.9908179
207	0xbdadeb86	-0.08492188
208	0x3e2c9540	0.1685381
209	0xc046bc5e	-3.105247
210	0x3f8094e1	1.0045434
211	0x3e7e9c14	0.24864227
212	0xc0c5c498	-6.1802483
213	0x3a08f42e	0.0005224374
214	0xc0f70da3	-7.7204146
215	0xc096306c	-4.693411
216	0x3e3c131e	0.18366668
217	0x409b0d53	4.8453765
218	0x40593c4a	3.3943048
219	0xc09ee362	-4.9652567
220	0xc031e476	-2.7795691
221	0xc09db962	-4.9288797
222	0xc0de8d2e	-6.954734
223	0xc0cb7e1b	-6.3591437
224	0xc0cbb4fc	-6.365843
225	0xc08fe17e	-4.496276
226	0xbdca9ff3	-0.09893789
227	0xbf9b68db	-1.2141374
228	0xbffea866	-1.9895141
229	0xbebfe5bf	-0.3747997
230	0xc0b501df	-5.6564784
231	0xbf8a5fae	-1.0810449
232	0xbfa6d10d	-1.3032547
233	0xc09a53bd	-4.822722
234	0xbd728da1	-0.0592171
235	0xc0a8fd5d	-5.280928
236	0x3feff4e9	1.8746616
237	0xc0b47baf	-5.640098
238	0xc0e32e32	-7.099389
239	0xc0f14096	-7.539134
240	0xc040cf40	-3.0126495
241	0x3cff8e68	0.031195834
242	0xbd9f34ae	-0.0777372
243	0xc0fb57cd	-7.854468
244	0xc0aa5a14	-5.323496
245	0x3f14ae89	0.5807882
246	0xc0f4d128	-7.650532
247	0x3f14b3af	0.58086675
248	0x3fc56bb3	1.5423492
249	0xbf569973	-0.83827895
250	0xbff3f058	-1.9057722
251	0xc0d43732	-6.6317377
252	0xbd0dab6e	-0.034587316
253	0xbfad6a02	-1.3547976
254	0xbf93b2e8	-1.1538973
255	0xbfa5a2a7	-1.2940263

fc3.weight f4 [101, 256]
0	0x3ee85a9e	0.45381635
1	0xbec221b4	-0.37916338
2	0x3edd101b	0.4317635
3	0xbd5855c7	-0.05281618
4	0xbd47aef5	-0.048750836
5	0xbe89c054	-0.26904547
6	0x3e2b9c8b	0.16758935
7	0x3eea8f8d	0.45812646
8	0xbe548174	-0.20752507
9	0xbe9c632e	-0.30544418
10	0x3e951de2	0.2912436
11	0x3dfd44c1	0.123666294
12	0xbd145122	-0.036210187
13	0xbdba4a7a	-0.090962365
14	0x3e9db423	0.30801496
15	0xbdb86409	-0.09003455
16	0x3e2c2d98	0.16814268
17	0xbde47a3c	-0.11156127
18	0xbf2567c5	-0.64611465
19	0xbf31ddc8	-0.69479036
20	0xbe88ac48	-0.2669394
21	0x3ddf4110	0.109010816
22	0xbda47af1	-0.08031262
23	0xbdf52222	-0.11969401
24	0x3efb6a95	0.49104753
25	0x3e09d104	0.1345864
26	0x3e5cc8e4	0.21561009
27	0x3ea97165	0.33094326
28	0xbe8b6c57	-0.27231094
29	0xbdde9119	-0.10867519
30	0xbe52e566	-0.20595321
31	0xbf33aaa4	-0.7018225
32	0xbf0500e1	-0.51954466
33	0xbf33be04	-0.70211816
34	0xbd35340e	-0.044239096
35	0xbce82d74	-0.028341986
36	0xbf24f626	-0.6443809
37	0x3d74194b	0.059594434
38	0xbed26512	-0.41092736
39	0xbe1c94dc	-0.1529116
40	0x3dc94f26	0.098295495
41	0x3fc0368a	1.5016644
42	0x3da63b44	0.08116773
43	0xbcad2690	-0.021136552
44	0xbf3edd02	-0.7455598
45	0x3e79c271	0.2439058
46	0xbe1b65eb	-0.15175597
47	0x3e2e6af0	0.17032981
48	0xbdad1fb9	-0.08453316
49	0x3e989767	0.2980301
50	0x3ef357a7	0.4752781
51	0x3e1f688a	0.15567222
52	0xbe86a9a6	-0.26301306
53	0xbd1153f3	-0.03548045
54	0xbd9048b5	-0.07045118
55	0xbf190e23	-0.59787196
56	0xbf0f85d4	-0.5606358
57	0x3ce0ea62	0.027455512
58	0x3e374dbe	0.1790075
59	0x3e0418d8	0.12900102
60	0x3e480be8	0.19535792
61	0xbddf9baf	-0.10918366
62	0xbed2db7a	-0.41183072
63	0xbf7e9962	-0.99452794
64	0xbe9b51d1	-0.30335858
65	0xbd6b0f83	-0.05738784
66	0x3e33dd8d	0.17564984
67	0xbe45fca3	-0.19334655
68	0xbe7bc9e3	-0.24588732
69	0xbbdfd1f0	-0.0068304464
70	0xbe78cebc	-0.24297613
71	0x3d6665f1	0.056249563
72	0x3dc30bc5	0.09523729
73	0x3e8edcd0	0.27902842
74	0xbc6f8d9d	-0.014621166
75	0xbe054cb9	-0.13017549
76	0xbe53d8cc	-0.2068817
77	0xbd0bd6fb	-0.03414057
78	0xbe7b6c49	-0.24553026
79	0xbaf0f708	-0.0018384168
80	0xbdf8a09a	-0.12140007
81	0xbf2bc7aa	-0.6710154
82	0x3e95214e	0.29126972
83	0x3cc2d67b	0.023783913
84	0xbe73a4c8	-0.23793328
85	0xbe8d892c	-0.27643716
86	0x3efd0074	0.49414408
87	0x3d3563a5	0.04428448
88	0xbd434ec2	-0.04768253
89	0xbdd17d73	-0.10229006
90	0xbf7fe55d	-0.99959356
91	0xbdbb5530	-0.091471076
92	0xbdc0976c	-0.094038814
93	0x3e60118a	0.2188169
94	0x3e224f89	0.15850653
95	0x3da6958c	0.081339926
96	0x3f3040c0	0.688488
97	0xbe77a632	-0.24184492
98	0x3cfa803e	0.030578729
99	0x3e59f26c	0.21283883
100	0x3e065b40	0.13120747
101	0xbe202500	-0.15639114
102	0xbe845bec	-0.2585138
103	0xbd221781	-0.039573196
104	0xbf0f1aac	-0.55900073
105	0xbd08b260	-0.033373237
106	0xbc930403	-0.017946249
107	0x3cdb2f19	0.026755856
108	0x3c907c82	0.017637495
109	0x3e67acf4	0.2262457
110	0xbf09c489	-0.53815514
111	0xbd24b70c	-0.04021363
112	0xbee43d6d	-0.44578114
113	0xbdaf10d4	-0.085481316
114	0x3e78c04b	0.24292104
115	0xbd73e80c	-0.05954747
116	0xbefe6575	-0.4968678
117	0xbeb6268d	-0.35576287
118	0xbf01c782	-0.5069505
119	0xbe0044a4	-0.12526184
120	0xbe4fa1ec	-0.20276612
121	0x3e639d11	0.22227885
122	0xbda57eb6	-0.08080809
123	0x3de7e85c	0.11323616
124	0xbe2ff166	-0.1718193
125	0xbe95ab6d	-0.2923235
126	0xbefef490	-0.4979596
127	0x3cd14c4d	0.025549078
128	0xbc45c8b0	-0.012071773
129	0x3e186839	0.14883508
130	0xbe04ef77	-0.12981974
131	0xbdaf297a	-0.08552833
132	0xbe258c1e	-0.16166732
133	0xbbcb05d5	-0.0061957636
134	0x3e659647	0.22420608
135	0xbe3189c0	-0.17337704
136	0x3e3f056a	0.18654409
137	0xbf24a38b	-0.64312047
138	0x3d9a9d1e	0.07549499
139	0x3ce0abde	0.027425703
140	0x3e48bb9c	0.19602817
141	0x3dba9f00	0.09112358
142	0xbbb20f32	-0.0054339403
143	0xbd89ef6d	-0.0673512
144	0x3e905a93	0.28194103
145	0x3f028359	0.5098167
146	0x3e981bcc	0.29708707
147	0xbdb2b317	-0.08725565
148	0x3cfcde57	0.030867739
149	0xbccd5bfd	-0.025068277
150	0xbde8ad62	-0.11361195
151	0xbe8e0026	-0.27734488
152	0xbf0bf988	-0.5467763
153	0xbd4a6c99	-0.049419973
154	0x3ddaa9a4	0.10676888
155	0xbda20069	-0.079102345
156	0x3dbf9c02	0.09355928
157	0xbe899a4c	-0.26875532
158	0xbdc64b0f	-0.09682285
159	0x3dba8647	0.091076426
160	0x3eb8234a	0.35964423
161	0xbe8811e7	-0.26576158
162	0xbe9b5ef4	-0.3034588
163	0xbdd02d11	-0.10164846
164	0x3e6c8938	0.2309922
165	0xbe4da49d	-0.20082326
166	0x3e08d51a	0.13362542
167	0xbdd77292	-0.105198994
168	0xbc55afda	-0.013042415
169	0xbe0fa627	-0.14028226
170	0x3e974a73	0.29548988
171	0xbf59af14	-0.85032773
172	0x3e62810d	0.22119541
173	0x3e693b8b	0.2277662
174	0x3ef2c277	0.4741399
175	0x3e39afa7	0.18133412
176	0x3e685c44	0.22691447
177	0x3eb7f103	0.35926065
178	0x3f1c0b36	0.60954607
179	0x3d840a43	0.0644727
180	0xbc1af7f3	-0.00945853
181	0xbcc93e25	-0.024565766
182	0xbdd59c09	-0.10430152
183	0xbb59b580	-0.0033219755
184	0xbdde6bfd	-0.10860441
185	0x3e9190a0	0.28430653
186	0x3ed4c942	0.41559798
187	0x3d240a81	0.04004908
188	0x3e016b0b	0.1263849
189	0x3db12e1f	0.08651375
190	0xbe8c3e8b	-0.27391466
191	0x3d2a120e	0.041521125
192	0xbcb005f8	-0.021487221
193	0xbe01810f	-0.12646888
194	0xbd3f0039	-0.04663107
195	0xbe48758d	-0.19576092
196	0xbed14b61	-0.40877822
197	0xbe84ea1a	-0.25959855
198	0xbec130df	-0.37732598
199	0xbc344c71	-0.011004553
200	0xbc7c1434	-0.015385676
201	0x3ee2d863	0.44305715
202	0xbbfd4f90	-0.007730432
203	0x3fa5a4fc	1.2940974
204	0xbedbbbd0	-0.42916727
205	0x3deb7352	0.11496605
206	0xbeee1f38	-0.46508193
207	0xbdc00343	-0.09375622
208	0x3db5196f	0.08842742
209	0xbe13d65f	-0.14437245
210	0xbe850378	-0.2597921
211	0x3e7f39c3	0.24924378
212	0xbca5dd93	-0.020247256
213	0xbe011dcf	-0.12609027
214	0xbe0feef8	-0.14056003
215	0x3eac58e6	0.33661574
216	0xbe84149b	-0.2579697
217	0xbf47fdde	-0.78121746
218	0xbb1971fe	-0.0023413892
219	0x3e98cba9	0.2984288
220	0xbf51d7f0	-0.8197012
221	0x3d837982	0.0641966
222	0x3d9a65e7	0.075389676
223	0x3ed2a4e3	0.41141424
224	0x3e1d56ff	0.15365218
225	0xbdaa449c	-0.083138674
226	0x3eb79a92	0.35860115
227	0xbf02d924	-0.5111258
228	0x3ee8e901	0.45490268
229	0xbe93e219	-0.28883436
230	0x3e9ab664	0.30217278
231	0xbf07b20a	-0.5300604
232	0xbe2b7355	-0.16743214
233	0xbf47dd6a	-0.78072226
234	0xbd23be24	-0.039976254
235	0x3e8a76a3	0.27043638
236	0xbf08ee05	-0.5348819
237	0x3e504c1b	0.20341532
238	0xbd61a11a	-0.05508528
239	0x3ef5f2ea	0.4803689
240	0xbd9edc63	-0.07756879
241	0xbcdeac90	-0.027181894
242	0x3c85a834	0.016315557
243	0xbccd09dd	-0.025029117
244	0x3e5c1a6a	0.21494451
245	0x3e21ca8e	0.15799925
246	0x3ebc0762	0.36724383
247	0x3f7d2d8a	0.9889761
248	0x3cecf4d2	0.028925333
249	0x3ec12651	0.37724546
250	0xbe685e15	-0.2269214
251	0x3f9844f7	1.1896046
252	0xbccd7d24	-0.025084086
253	0xbf4406a9	-0.7657266
254	0x3ebce864	0.3689605
255	0xbe3d8e17	-0.18511234

fc3.bias f4 [101]
0	0xbea3c4e8	-0.31986165
1	0x3e52d5ad	0.20589323
2	0x3d33d5e2	0.043905146
3	0xbe725f82	-0.23669246
4	0x3e499dde	0.19689128
5	0x3e770eda	0.24126759
6	0x3f5844b6	0.84479845
7	0x3f07f0cd	0.5310181
8	0x3f379c21	0.7172261
9	0x3f8f5c55	1.1200052
10	0x3f6718f7	0.9027247
11	0x3f3f447f	0.7471389
12	0xbec24a5e	-0.37947363
13	0x3f68c3a2	0.9092351
14	0x3f6ff9e9	0.9374071
15	0x3e13eb5a	0.14445248
16	0x3ef9046c	0.48636186
17	0x3f1697c7	0.58825344
18	0xbdd0a38e	-0.101874456
19	0x3e0e7dd1	0.13915183
20	0xbf62dee6	-0.88621366
21	0x3d64bfb5	0.05584689
22	0x3f32ca71	0.6984015
23	0xbcc23f02	-0.023711685
24	0xbee50d0c	-0.44736516
25	0xbf4ffccd	-0.8124512
26	0x3ebffdb0	0.37498236
27	0xbefe4452	-0.496615
28	0x3d43751c	0.047719106
29	0xbf86b454	-1.0523782
30	0xbf3aa762	-0.72911656
31	0xbf8e4707	-1.1115426
32	0xbf5bb2d4	-0.85819745
33	0x3ecd5828	0.4010632
34	0xbdfd16a9	-0.12357838
35	0xbf68da6f	-0.90958303
36	0xbf805538	-1.0026007
37	0xbfc1a0bc	-1.5127177
38	0xbfa6ac14	-1.3021264
39	0xbf25350c	-0.6453407
40	0xbf8ea367	-1.1143616
41	0xbfb4c8ca	-1.4123776
42	0xbbdb5f83	-0.0066947355
43	0xbfd49467	-1.6607789
44	0xbef9e153	-0.4880472
45	0xbf0cc512	-0.54988205
46	0xbff1f6f5	-1.890349
47	0xbe908ef3	-0.28234062
48	0xbe919faa	-0.28442127
49	0xbf8d3863	-1.1032833
50	0xbf5fa87c	-0.8736646
51	0x3e019b47	0.1265689
52	0xbf1abc73	-0.604438
53	0xbf3a43d2	-0.72759736
54	0xbf26dd76	-0.6518167
55	0xbf511432	-0.8167144
56	0xbfaa3edd	-1.3300434
57	0xbf61b864	-0.8817198
58	0xbf07bfc2	-0.53026974
59	0xbf7ac815	-0.9796155
60	0xbe19167a	-0.1494998
61	0xbee8f2cb	-0.45497736
62	0xbe86ca6d	-0.26326314
63	0xbe8a5441	-0.27017406
64	0xbf05bfbe	-0.522457
65	0x3e8a71d7	0.27039978
66	0xbe357f71	-0.17724396
67	0x3ed0a2d9	0.40749243
68	0xbe93b198	-0.2884643
69	0x3da4d8fa	0.080491975
70	0xbe3adea5	-0.18248995
71	0x3dcaa798	0.09895247
72	0xbe8a88ac	-0.27057397
73	0x3e4839c5	0.19553287
74	0xbe2401be	-0.1601629
75	0xbf2e71a7	-0.6814217
76	0xbf5404a4	-0.8281958
77	0xbd24b94c	-0.040215775
78	0x3ef23f47	0.47313902
79	0xbf301f97	-0.687982
80	0xbdf13ca8	-0.117791474
81	0x3ed0851b	0.4072655
82	0x3daf9261	0.085728414
83	0xbedfb899	-0.43695524
84	0xbe3302d1	-0.17481543
85	0x3f62cec8	0.88596773
86	0xbec1bd95	-0.37839952
87	0xbd537970	-0.051629484
88	0xbedaa49b	-0.4270371
89	0xbef3b658	-0.47600055
90	0xbd40c4ef	-0.04706281
91	0x3cf27e63	0.029601282
92	0xbeda3db2	-0.42625195
93	0x3dc08ac4	0.094014674
94	0xbe508095	-0.2036155
95	0xbe8cfcf4	-0.27536738
96	0xbe137af8	-0.14402378
97	0xbf0aab33	-0.5416748
98	0xbe17cc20	-0.14823961
99	0xbe660893	-0.22464208
100	0xbf9aeeb3	-1.2104095
