model/dqn_ff_dqn_ff/agent1_dqn_ff_ff_eps1000000.pth (torch, 377655 bytes, 6 tensors)

fc1.weight f4 [256, 7]
-0.06994415 -0.14181243 -0.13950475 -0.03612136 -0.0393536 -0.044397354 -0.006087169 0.9699163
-0.9989952 0.04066487 0.6690688 -0.6613922 -0.005524094 0.19514607 0.08069669 -0.12876834
-0.020632342 0.14126062 0.048918083 -0.05865857 -0.06456411 -0.09299871 0.06577052 -0.05454976
-0.0848146 -0.08351683 -0.047093585 0.010895938 1.4682264 0.025124906 -0.02839491 0.27433297
0.59157485 0.0003196454 0.21963945 0.035750568 -0.11651492 -0.005823523 0.00027687848 -0.102082506
-0.036288343 0.08536315 -0.75189745 0.15851976 -0.046463158 -0.40998334 0.836193 0.04132609
-0.1105202 0.97057605 -0.42613894 0.06032797 -0.85171896 -0.28477392 -0.008744803 0.38040206
-1.341661 0.16491185 0.009379741 0.9354728 -0.5800228 -0.07192834 -0.2990763 -0.077457294
0.15631285 0.02421253 -0.45154074 0.42107305 -0.02628539 0.005459755 0.33729267 0.084520005
-0.0039632535 -0.5982684 0.6754612 -0.030672805 0.0021333094 -0.17922348 -0.23352195 0.02314677
1.0767576 -0.6120365 -0.007646713 -0.39617988 -0.25738212 -0.20661274 0.0700235 0.24392562
-0.97421694 -0.028504785 -0.61995095 0.115683705 -0.0077424347 -0.093477264 0.042297706 -0.14930083
-0.029032767 -0.026235975 0.02394721 -0.10016054 -0.13822886 0.12962249 -0.07132408 -0.03491412
0.07305552 -0.24635242 0.052642766 -0.0013343558 -0.14602427 0.23853499 0.0023403617 0.16432276
0.39792147 0.095505014 -0.055872086 1.1803513 -0.20368114 -0.0013460332 0.18514603 0.5510118
0.15226935 0.016672371 0.48543882 0.48787197 -0.56246656 -0.101253405 -0.055206638 -0.19911064
0.016709216 1.0417984 -0.85344905 0.0016058632 -0.17588338 -0.46465507 -0.9863411 0.033149503
0.10837232 0.62695754 0.004121489 -0.14262192 -0.052152388 -0.11041601 -0.1245742 -0.05799921
-0.06876021 -0.017540783 -0.023240328 0.28672633 -0.7803133 0.043367215 -1.0248148 0.88729286
-0.0006229363 0.026363926 0.018121526 -0.06564073 -0.09188418 0.048967138 -0.03664705 -0.08576166
-0.1470724 -0.4108674 -0.002212256 -0.053781565 0.1601472 0.98412395 -0.011043041 -0.22893322
-0.036479745 0.124156706 0.028395955 -0.08341314 -1.7718952 -0.0020286737 -0.07201807 -0.07660921
-0.05990339 -0.08174056 0.002375096 0.056691423 -0.12829943 0.14982527 -0.47016263 0.0050110454
-0.0402047 -0.009993543 0.6507322 -0.002006783 0.20660324 -0.22610925 -0.25048417 0.07311854
-0.2837275 0.78766036 -0.48774374 0.1376792 1.1086812 0.032482635 -0.021154024 0.7160414
0.20780021 -0.024382599 0.23967917 0.11449272 -0.20822974 -0.058940437 0.40967786 -1.2950782
0.08316604 0.082074456 -0.028244577 -0.07821265 0.0011914968 -0.105157465 0.025876224 -0.08878698
-0.05686725 -0.9725539 0.24747354 -0.016491918 0.86890125 -0.11184955 -0.07134645 0.18575257
-0.6067745 -0.00020140565 0.007907773 0.5489631 -0.16356707 -0.027176766 0.27546299 0.21398512
0.35694513 -0.03411937 0.25137806 -1.6891983 0.036571987 0.011998062 0.067463845 0.46044767
-0.0024226762 0.7141133 -1.0932304 -0.004785158 -0.1586338 -0.30562016 -0.0072081718 -0.036971927
0.2592893 -0.12479558 0.072650366 -1.1450746 2.617007 -0.6896934 0.019059738 0.3928397
00000000: e13e 8fbd 4737 11be 55da 0ebe fef3 13bd
00000010: 3e31 21bd 00da 35bd e076 c7bb 6f4c 783f
00000020: 26be 7fbf 3590 263d 1848 2b3f 0051 29bf
00000030: 7603 b5bb 5fd4 473e 4e44 a53d d9db 03be
00000040: 2805 a9bc a0a6 103e 545e 483d f843 70bd
00000050: 303a 84bd 1c76 bebd b2b2 863d 926f 5fbd
00000060: 47b3 adbd df0a abbd 34e5 40bd e084 323c
00000070: d8ee bb3f bfd2 cd3c 719c e8bc 5f75 8c3e
00000080: 7371 173f 1496 a739 2ae9 603e 306f 123d
00000090: 609f eebd 40d3 bebb 002a 9139 a210 d1bd
000000a0: 16a3 14bd e0d2 ae3d 5a7c 40bf 0153 223e
000000b0: 2750 3ebd 56e9 d1be bf10 563f 8c45 293d
000000c0: 6a58 e2bd ac77 783f e22e dabe 761a 773d
000000d0: 410a 5abf e3cd 91be 5d46 0fbc 0fc4 c23e
000000e0: 8cbb abbf a7de 283e 7cad 193c 257b 6f3f
000000f0: 607c 14bf 2a4f 93bd 8720 99be eea1 9ebd
00000100: 7a10 203e 5b59 c63c 5930 e7be e396 d73e
00000110: 7554 d7bc bfe7 b23b a0b1 ac3e d318 ad3d
00000120: 2ede 81bb 1e28 19bf 06eb 2c3f 8945 fbbc
00000130: fece 0b3b 5c86 37be 6120 6fbe 4c9e bd3c
00000140: 31d3 893f 6dae 1cbf 4791 fabb 17d8 cabe
00000150: 97c7 83be 4a92 53be 7b68 8f3d a3c7 793e
00000160: 4866 79bf de82 e9bc 1bb5 1ebf 94eb ec3d
00000170: 40b4 fdbb 0271 bfbd 5c40 2d3d 51e2 18be
00000180: 20d6 edbc d4ec d6bc f02c c43c f820 cdbd
00000190: de8b 0dbe c2bb 043e 5c12 92bd 1c02 0fbd
000001a0: 229e 953d cf43 7cbe f19f 573d 8de5 aeba
000001b0: 6387 15be 8442 743e c160 193b 3a44 283e
000001c0: 5dbc cb3e 2298 c33d 21da 64bd c015 973f
000001d0: ca91 50be 616d b0ba ec96 3d3e 1c0f 0d3f
000001e0: 7fec 1b3e 7f94 883c 708b f83e 5bca f93e
000001f0: cffd 0fbf f25d cfbd 5b20 62bd a9e3 4bbe
00000200: c4e1 883c a659 853f a37b 5abf d47b d23a
00000210: c61a 34be 45e7 edbe da80 7cbf c6c7 073d
00000220: 4ff2 dd3d 4a80 203f 8e0d 873b 7b0b 12be
00000230: be9d 55bd ca21 e2bd c220 ffbd 9490 6dbd
00000240: 27d2 8cbd b0b1 8fbc 8062 bebc cbcd 923e
00000250: 9dc2 47bf d2a1 313d 222d 83bf a025 633f
00000260: 8c4c 23ba 29f9 d73c 9873 943c a66e 86bd
00000270: c62d bcbd c491 483d 381b 16bd cfa3 afbd
00000280: 269a 16be 365d d2be 7ffb 10bb 0f4a 5cbd
00000290: a1fd 233e 8cef 7b3f dfed 34bc 786d 6abe
000002a0: c96b 15bd df45 fe3d a29e e83c 82d4 aabd
000002b0: 76cd e2bf 7ff3 04bb 367e 93bd 4ae5 9cbd
000002c0: 425d 75bd 9867 a7bd 80a7 1b3b 4435 683d
000002d0: ed60 03be cc6b 193e 28b9 f0be b233 a43b
000002e0: afad 24bd f5bb 23bc 6396 263f 3b84 03bb
000002f0: cd8f 533e 2f89 67be 763f 80be 2cbf 953d
00000300: bb44 91be 1ca4 493f 8cb9 f9be c7fb 0c3e
00000310: 44e9 8d3f 830c 053d 344b adbc 7d4e 373f
00000320: 94c9 543e 04be c7bc 756e 753e 297b ea3d
00000330: 2d3a 55be 876b 71bd 4cc1 d13e 1fc5 a5bf
00000340: f552 aa3d a716 a83d 2c61 e7bc f42d a0bd
00000350: 002c 9c3a cc5c d7bd 60fa d33c f3d5 b5bd
00000360: a2ed 68bd 4bf9 78bf b469 7d3e 0f1a 87bc
00000370: 5070 5e3f 6011 e5bd 161e 92bd ec35 3e3e
00000380: 9355 1bbf 6b30 53b9 9b8f 013c d988 0c3f
00000390: 207e 27be cfa1 debc 7c09 8d3e ea1e 5b3e
000003a0: 83c1 b63e c1c0 0bbd a0b4 803e a637 d8bf
000003b0: 82cc 153d 8593 443c 7c2a 8a3d ccbf eb3e
000003c0: c3c5 1ebb 21d0 363f f9ee 8bbf d1cc 9cbb
000003d0: e670 22be 3f7a 9cbe 8732 ecbb e06f 17bd
000003e0: 91c1 843e d394 ffbd b7c9 943d ce91 92bf
000003f0: 0b7d 2740 bf8f 30bf 2b23 9c3c 4922 c93e

fc1.bias f4 [256]
0.217267 4.0514584 0.018402994 -0.24593575 12.173324 0.034039795 -7.909594 -5.4898415
-11.169176 -8.86833 -8.740548 -9.865186 8.126865 0.048974156 0.22031316 -11.522948
-7.601022 -0.64228016 7.5107565 9.892409 0.28255787 -2.0823493 0.08671948 -7.9629035
4.0773234 0.19614491 -8.497903 2.942985 10.622739 1.4093002 0.019324273 -9.665222
-11.524573 0.9662877 -6.8700004 5.985467 9.855849 0.14304706 2.8962057 -7.1392617
-0.3109038 -12.1938715 -7.3275585 -10.778465 -0.23105107 0.1574373 0.12411061 -6.218633
-12.35923 0.18694928 4.528039 8.300192 8.084016 -0.06948432 -0.901456 9.304764
-0.1295651 -7.6651673 -9.270855 1.767057 -12.069203 -0.35771906 -9.8612 9.4588
-7.3840556 7.96666 0.22599128 9.096915 11.038735 -2.997923 -7.28184 -10.552958
-0.20552284 -10.188436 -11.54111 5.288832 -3.016681 9.9382925 9.348637 -0.18924275
-9.2122555 -5.81873 1.4702457 -11.689419 0.22616395 -7.8222923 -11.081591 2.470747
4.352202 1.8045988 -0.3755493 7.5137644 -0.25862962 1.6793422 -0.35728183 8.631548
-10.605319 -9.300128 7.6779623 -9.737063 4.344596 10.180085 -11.539935 -7.790631
-1.4098786 9.325573 9.181403 -10.680364 -8.32345 9.673735 5.799023 -10.798939
0.17162076 2.2688913 -2.250668 5.989529 -8.949522 -0.08188993 -8.30434 -8.464224
0.36276773 -0.06481901 0.17996106 -10.018797 0.24948683 -8.709827 -10.647831 4.139309
-0.72576326 0.09430626 -0.07803315 -3.4514353 0.07721284 -5.8538775 -7.0459604 -0.28865698
-6.984815 0.23318502 -4.3473873 -0.9750854 -0.111462235 7.703001 0.038933247 0.623585
3.431968 9.88668 -6.2500744 -0.1816577 7.595401 1.4165684 -11.126085 0.014621317
-1.2586082 6.630022 -1.2857636 0.09050521 -0.2092312 -7.686162 -8.484266 -12.20806
9.201883 9.17334 9.612226 10.239773 -7.876314 -7.519256 0.06933537 -0.5486751
4.8417606 -8.895064 0.15385583 -9.610074 -8.0139475 9.392651 -0.34755707 -2.6995628
0.19517638 0.32410458 5.832554 -9.026647 -9.0594225 -10.708301 -3.1951947 -10.768062
-0.1404212 -9.835789 -0.21070254 7.8952684 -8.762113 -8.93926 -2.609224 -9.3087845
0.29973277 -0.037155747 -0.08681941 -0.25422904 -0.21914442 -0.06264794 -9.467629 9.803467
-7.2083883 0.22217467 0.279233 10.878778 -8.301564 0.33737317 -0.0052576065 0.35503456
0.3514888 4.0553303 1.3177816 -0.21599631 -4.636198 -12.363365 0.2554426 -9.034276
4.0356383 7.2189064 -6.441711 5.796937 10.973339 -7.236163 -11.991333 -8.447039
-10.337343 6.1384254 8.805227 0.13483767 -8.864965 10.501978 0.36783972 -9.968938
0.24536458 2.6236155 -4.423281 -2.896792 -7.0982776 -2.630562 6.4663477 -0.28479195
7.4274945 -4.246873 -10.597482 2.0714548 1.8131013 -9.948446 -11.041857 6.1819043
-0.13274665 -8.740083 10.747 0.035541415 -0.26640296 7.565048 9.641285 -10.051081
00000000: 3e7b 5e3e 8ca5 8140 e0c1 963c 95d6 7bbe
00000010: efc5 4241 506d 0b3d 651b fdc0 c8ac afc0
00000020: f2b4 32c1 aee4 0dc1 49d9 0bc1 cdd7 1dc1
00000030: a407 0241 2099 483d c699 613e ff5d 38c1
00000040: 923b f3c0 796c 24bf 1e58 f040 4f47 1e41
00000050: 6dab 903e 3645 05c0 fc99 b13d 1bd0 fec0
00000060: 6f79 8240 36da 483e 69f7 07c1 de59 3c40
00000070: bdf6 2941 f363 b43f f04d 9e3c c0a4 1ac1
00000080: a764 38c1 a15e 773f 0bd7 dbc0 f288 bf40
00000090: 8fb1 1d41 ee7a 123e 6f5b 3940 d574 e4c0
000000a0: c82e 9fbe 191a 43c1 5c7b eac0 9874 2cc1
000000b0: a798 6cbe 3e37 213e b42d fe3d 0bff c6c0
000000c0: 68bf 45c1 a26f 3f3e b2e5 9040 96cd 0441
000000d0: 2158 0141 cc4d 8ebd d2c5 66bf 50e0 1441
000000e0: b7ac 04be 0d49 f5c0 6c55 14c1 ec2e e23f
000000f0: 751b 41c1 f426 b7be 7ac7 1dc1 3f57 1741
00000100: 2f4a ecc0 e1ee fe40 426a 673e f78c 1141
00000110: a99e 3041 f8dd 3fc0 d504 e9c0 ead8 28c1
00000120: 9474 52be d503 23c1 63a8 38c1 1d3e a940
00000130: 4d11 41c0 3f03 1f41 0494 1541 dac8 41be
00000140: 6665 13c1 0933 bac0 0331 bc3f dc07 3bc1
00000150: 8697 673e 3850 fac0 324e 31c1 b820 1e40
00000160: 3d45 8b40 18fd e63f ff47 c0be c270 f040
00000170: 1a6b 84be aff4 d63f a5ed b6be d21a 0a41
00000180: 63af 29c1 53cd 14c1 deb1 f540 03cb 1bc1
00000190: ee06 8b40 a1e1 2241 93a3 38c1 d94c f9c0
000001a0: e776 b4bf 8c35 1541 07e7 1241 c5e2 2ac1
000001b0: da2c 05c1 9ec7 1a41 9991 b940 74c8 2cc1
000001c0: 5abd 2f3e 8435 1140 f20a 10c0 39aa bf40
000001d0: 3e31 0fc1 e8b5 a7bd 94de 04c1 766d 07c1
000001e0: b1bc b93e d4bf 84bd b647 383e fe4c 20c1
000001f0: 7a79 7f3e 745b 0bc1 845d 2ac1 3875 8440
00000200: 9fcb 39bf a423 c13d d8cf 9fbd 51e4 5cc0
00000210: c421 9e3d f752 bbc0 8278 e1c0 d9ca 93be
00000220: 9b83 dfc0 0ec8 6e3e cc1d 8bc0 329f 79bf
00000230: 5046 e4bd fc7e f640 7878 1f3d 44a3 1f3f
00000240: 5da5 5b40 d72f 1e41 9c00 c8c0 7a04 3abe
00000250: 860d f340 1d52 b53f 7204 32c1 408e 6f3c
00000260: 131a a1bf 2429 d440 e793 a4bf cc5a b93d
00000270: b440 56be 0af5 f5c0 8ebf 07c1 3754 43c1
00000280: ea3a 1341 00c6 1241 adcb 1941 1cd6 2341
00000290: c40a fcc0 bf9d f0c0 b4ff 8d3d f975 0cbf
000002a0: b4ef 9a40 2f52 0ec1 628c 1d3e ddc2 19c1
000002b0: 2139 00c1 4c48 1641 00f3 b1be a3c5 2cc0
000002c0: 51dc 473e 09f1 a53e 48a4 ba40 256d 10c1
000002d0: 65f3 10c1 3355 2bc1 127e 4cc0 fb49 2cc1
000002e0: 93ca 0fbe 645f 1dc1 68c2 57be 0aa6 fc40
000002f0: 9d31 0cc1 3507 0fc1 87fd 26c0 c8f0 14c1
00000300: 9376 993e a030 18bd 60ce b1bd 4f2a 82be
00000310: 6567 60be 904d 80bd 697b 17c1 00db 1c41
00000320: 1eab e6c0 c281 633e a1f7 8e3e 7a0f 2e41
00000330: 35d3 04c1 2dbc ac3e 0048 acbb 17c7 b53e
00000340: 57f6 b33e 44c5 8140 11ad a83f 232e 5dbe
00000350: bc5b 94c0 58d0 45c1 5fc9 823e 658c 10c1
00000360: f323 8140 4801 e740 7f22 cec0 8280 b940
00000370: cc92 2f41 a68e e7c0 80dc 3fc1 1227 07c1
00000380: c265 25c1 fb6d c440 36e2 0c41 e312 0a3e
00000390: e6d6 0dc1 1a08 2841 7d55 bc3e c580 1fc1
000003a0: da40 7b3e 51e9 2740 858b 8dc0 0a65 39c0
000003b0: 1725 e3c0 215b 28c0 52ec ce40 40d0 91be
000003c0: 09ae ed40 62e6 87c0 498f 29c1 b792 0440
000003d0: b413 e83f d62c 1fc1 72ab 30c1 29d2 c540
000003e0: bdee 07be 61d7 0bc1 b6f3 2b41 e093 113d
000003f0: f865 88be e014 f240 b442 1a41 3ad1 20c1

fc2.weight f4 [256, 256]
0.09635752 -0.29418644 0.09044168 -0.039917313 -0.5570383 -0.029036254 -0.15907855 0.26199767
-0.12655315 0.023345705 0.27246907 -0.3408267 -0.22149442 0.051921435 0.07726518 0.042193916
-0.4352569 0.10161472 -0.60351527 -1.3963727 -0.054189354 0.47603536 -0.045410156 0.12989105
-0.27633893 0.049971916 0.18034485 0.21116146 -0.37862644 0.012400737 0.019626714 0.021679811
-0.027184492 -0.0052136774 -0.20902626 -0.08242543 -0.5149721 0.01016058 0.10803434 -0.026687669
-0.09751079 -0.2080614 0.2875072 0.21605276 0.029935874 0.00779444 -0.043612726 0.03037527
0.024858316 -0.031533495 0.013396749 0.18855044 -1.6135659 0.033238225 -0.07895351 0.07321617
-0.100094356 0.33584464 0.19760253 -0.21786329 -0.37835887 -0.045411937 0.36486295 -0.13093324
-0.027714828 -0.074327506 -0.043114394 0.16149195 0.0916237 0.30083427 0.22605985 0.07758381
0.073335 -0.047001265 0.13752493 -0.29967114 0.10901205 0.14254655 -0.020252304 -0.09508036
0.17145315 0.14796747 -0.02094294 0.26751056 0.021310292 -0.5275068 -0.1236949 -0.16988876
-0.122209296 -0.070975915 -0.09103369 0.10980875 0.015471853 -1.0988239 0.047295965 0.08184522
-0.16702591 0.1104482 -0.10395573 0.04644552 -0.24112925 -0.12861778 -0.176196 0.098342545
0.112723574 -0.10914133 0.056073576 -0.59660465 0.05648979 -0.1053331 -0.11676873 0.014242558
-0.036823273 0.31942454 -0.35016316 -0.29369155 0.20120426 -0.09055253 -0.20408797 0.25701922
0.015662698 -0.0814642 -0.053617686 -0.068352416 0.062378444 0.061200388 0.09281753 0.31240383
0.051149923 -0.080398545 0.026079066 -0.033147186 -0.107106015 0.022694815 -0.070471354 -0.38718116
0.13428092 -0.0806079 0.02014175 -0.07896722 0.030825324 -0.21371941 -0.05032969 -0.13785242
0.1165971 -0.46883276 -0.04477141 -0.06916371 -0.26498955 0.39188954 0.050503254 -0.03192167
-0.20638202 0.07350634 0.082510956 -0.029252008 -0.016682714 0.07216581 -0.007834302 -0.050451685
0.024531184 -0.47318164 0.09683201 0.1731909 0.19923055 0.28820074 -0.06787227 0.17129532
-0.10814847 -0.08432215 0.011490263 0.11629906 -0.43549702 -0.22904633 -0.029212855 0.31097323
0.087536626 -0.034370884 0.18944527 -0.20106669 0.050203376 -0.11771052 0.27941394 0.18849778
0.034749012 0.067911305 0.019729234 0.045286827 -0.66649926 0.14352089 0.46994048 0.2648179
-0.05442656 0.05376137 0.06224344 0.05711735 0.85783637 -0.0712707 -0.0006521967 -0.33123496
-0.31039095 0.041044258 -0.10397196 -0.5075255 0.3908999 0.018341683 0.015640415 -0.034616
-0.012951858 0.32540163 -0.5547531 -0.043113 -0.08906975 0.21788634 0.011726864 0.017489905
0.20741421 -0.51468545 0.26158622 0.063360155 0.12023049 0.35812813 -0.024250975 -0.022219766
0.04087064 -0.19833234 -0.692254 -0.09633943 0.30279306 -0.36654595 -0.023273624 0.117146626
-0.07375017 -0.21002682 0.27358973 0.046067525 0.21971133 -0.013060776 0.024797613 0.0056632236
0.047960717 -0.22183499 0.22208072 -0.14285353 -0.13923192 0.05547595 -0.30267745 -0.11177693
-0.0990126 -0.050495937 0.37996194 -0.033529185 0.07080253 -0.12462739 -0.18737997 0.20458922
00000000: 1757 c53d 9b9f 96be 7d39 b93d 5680 23bd
00000010: 109a 0ebf 70dd edbc 7de5 22be 8f24 863e
00000020: 2697 01be 7e3f bf3c 1181 8b3e d680 aebe
00000030: 6fcf 62be 92ab 543d 353d 9e3d 87d3 2c3d
00000040: fed9 debe 611b d03d fa7f 1abf 57bc b2bf
00000050: a8f5 5dbd e8ba f33e 0000 3abd 2902 053e
00000060: 4c7c 8dbe 5aaf 4c3d 52ac 383e b63a 583e
00000070: 53db c1be 762c 4b3c 34c8 a03c dc99 b13c
00000080: 03b2 debc 7fd7 aabb fb0a 56be aace a8bd
00000090: 36d5 03bf 9078 263c 1c41 dd3d 19a0 dabc
000000a0: bdb3 c7bd 0c0e 55be 2534 933e ef3c 5d3e
000000b0: 143c f53c 8068 ff3b 42a3 32bd 8fd5 f83c
000000c0: aba3 cb3c 4429 01bd 0a7e 5b3c 5e13 413e
000000d0: 5489 cebf ce24 083d 61b2 a1bd 5cf2 953d
000000e0: 45fe ccbd d4f3 ab3e 5158 4a3e 8e17 5fbe
000000f0: 41b8 c1be de01 3abd 51cf ba3e 5d13 06be
00000100: 350a e3bc 0539 98bd b898 30bd 255e 253e
00000110: 35a5 bb3d f306 9a3e 3c7c 673e 43e4 9e3d
00000120: a930 963d 6684 40bd 56d3 0c3e 7f6e 99be
00000130: b641 df3d b9f7 113e 29e8 a5bc 7eb9 c2bd
00000140: 6a91 2f3e c984 173e 8790 abbc 25f7 883e
00000150: ec92 ae3c b00a 07bf c053 fdbd 52f7 2dbe
00000160: de48 fabd d25b 91bd df6f babd 69e3 e03d
00000170: a87d 7d3c 43a6 8cbf 6ab9 413d 779e a73d
00000180: d708 2bbe aa32 e23d bee6 d4bd a83d 3e3d
00000190: 96ea 76be 61b4 03be b96c 34be d167 c93d
000001a0: 9edb e63d 7d85 dfbd 68ad 653d 15bb 18bf
000001b0: d761 673d e1b8 d7bd 7224 efbd 9e59 693c
000001c0: 00d4 16bd 9d8b a33e 9648 b3be bd5e 96be
000001d0: 7d08 4e3e 9b73 b9bd 70fc 50be 0698 833e
000001e0: 0f4f 803c b4d6 a6bd 389e 5bbd 5afc 8bbd
000001f0: 8a80 7f3d 42ad 7a3d 1e17 be3d 65f3 9f3e
00000200: 9582 513d fea7 a4bd c4a3 d53c 58c5 07bd
00000210: 665a dbbd 7aea b93c 4953 90bd 9c3c c6be
00000220: f080 093e c115 a5bd 5000 a53c 91b9 a1bd
00000230: 6485 fc3c 43d9 5abe 8126 4ebd 2f29 0dbe
00000240: 76ca ee3d d90a f0be 3a62 37bd b4a5 8dbd
00000250: b6ac 87be bfa5 c83e 80dc 4e3d 4cc0 02bd
00000260: cf55 53be 7e8a 963d 81fb a83d e8a1 efbc
00000270: 30aa 88bc abcb 933d 725b 00bc 6da6 4ebd
00000280: 9ff5 c83c dd44 f2be dc4f c63d f558 313e
00000290: 1803 4c3e 0c8f 933e 9e00 8bbd 0a68 2f3e
000002a0: f27c ddbd 17b1 acbd a841 3c3c 342e ee3d
000002b0: 77f9 debe 1f8b 6abe cc4f efbc e237 9f3e
000002c0: 6746 b33d 7cc8 0cbd f1fd 413e 6de4 4dbe
000002d0: 0ea2 4d3d 3712 f1bd 580f 8f3e 9005 413e
000002e0: fb54 0e3d 1515 8b3d 349f a13c ae7e 393d
000002f0: b29f 2abf 24f7 123e 0a9c f03e 3696 873e
00000300: 62ee 5ebd e234 5c3d faf2 7e3d e2f3 693d
00000310: 2a9b 5b3f 5ff6 91bd 2ef8 2aba a197 a9be
00000320: 90eb 9ebe 061e 283d 40ef d4bd 31ed 01bf
00000330: 0824 c83e 4c41 963c 5420 803c 82c9 0dbd
00000340: 0834 54bc 0b9b a63e 4d04 0ebf 4297 30bd
00000350: 336a b6bd 991d 5f3e 0822 403c fd46 8f3c
00000360: 6464 543e 6dc2 03bf a1ee 853e f8c2 813d
00000370: 673b f63d 925c b73e fba9 c6bc 3a06 b6bc
00000380: f967 273d a217 4bbe 8f37 31bf 9b4d c5bd
00000390: b107 9b3e e9ab bbbe 54a8 bebc 92ea ef3d
000003a0: 540a 97bd 4511 57be f413 8c3e 4db1 3c3d
000003b0: 02fc 603e ddfc 55bc 5d24 cb3c 9092 b93b
000003c0: 7572 443d b628 63be 2169 633e 3248 12be
000003d0: d092 0ebe c03a 633d 8af8 9abe 4eeb e4bd
000003e0: 1ec7 cabd d4d4 4ebd 5f8a c23e e655 09bd
000003f0: eb00 913d a53c ffbd 89e0 3fbe d67f 513e

fc2.bias f4 [256]
-6.5842204 -6.6688814 -0.005288105 -0.4765457 -7.7694817 -0.018884132 -5.4895177 0.47947723
-1.3964254 -0.042275444 -7.170629 5.014833 -0.62071353 0.2900194 5.493813 -7.0274878
-4.049562 -5.1816773 -6.1982884 -4.9457326 -4.2084737 -1.0600727 -0.011524154 1.9903156
-7.0402026 -2.455294 0.1724163 -0.9825624 1.4356462 9.699801 1.0854408 -4.926989
-3.26394 -0.45335293 -6.4581265 3.3095155 -3.0200765 -3.407935 1.3994737 -1.2810745
-3.264203 -1.1676505 -4.691913 -7.161165 -6.371817 2.951506 -8.756172 -6.651442
-3.5229084 -5.081895 0.020442283 -6.254304 -8.584799 -0.30747938 -6.232756 0.67376286
2.3365614 4.715554 3.0873542 -2.512581 -5.838307 1.9437008 -6.418076 -5.0804253
-8.868616 1.7738397 -0.56529176 -6.322841 -0.07200697 4.747497 -0.3986231 -7.115395
4.0259566 -4.5129147 -7.4927063 -0.029397517 1.931946 9.872135 1.3155444 -3.6453695
-7.4482217 1.7329233 -9.362848 -3.0442014 -0.015170098 -0.04031317 4.4923463 2.266927
0.47112966 2.7368639 -5.632049 -7.973019 -5.2583222 -7.6088586 -3.0738122 0.2348359
-2.6918144 -5.6357136 -7.11257 -5.6177864 0.08372125 -5.1748867 0.042331014 5.3718624
-1.7101089 -7.2515087 -7.4934177 -2.5042222 -6.610598 -0.022354035 -3.963079 -2.3784478
-6.3002367 -0.01567574 -0.04476525 -0.593844 -6.3298607 -0.022659373 0.011280065 -8.327439
3.1621072 -1.7342619 -4.2483616 -7.1516185 -3.9860559 -7.5726566 -7.6576333 -0.47841766
0.048928645 -1.8359926 -9.377135 -0.057078045 -0.05665236 0.28608537 1.5452675 2.988816
1.6014364 -0.104468174 -4.301564 0.12019353 -7.5398927 -5.2382293 1.7526467 0.17561433
-1.1650789 -6.759388 -0.03407821 -0.055096567 1.2845968 8.176292 -8.444407 2.3809667
-0.07661471 -1.7238718 -5.3553896 -2.9268534 -1.7766982 -8.186728 0.008108737 -9.792852
-4.6822653 -5.726005 -2.0176978 -0.004564363 -8.023657 2.1799963 -7.638129 -0.019397672
-0.52858776 0.5292543 -5.535085 4.8587255 -5.3935757 -7.5776987 -0.83086735 -0.1724476
-0.042964205 -0.93158954 0.0010977628 -6.4779286 -6.7367735 -0.19912833 -5.529333 1.0343506
-0.07418677 -3.654462 -6.923446 -0.26260594 0.035934374 2.8442504 0.030117182 -0.010638344
1.1897048 -0.016448682 -1.6166303 -5.921585 -7.4491453 -0.47054446 -2.201555 -6.50901
-1.489852 0.026278652 0.40231657 -0.0010314336 -6.949929 -0.8054466 1.0206088 0.21197057
-8.040086 -5.431603 -3.1766665 -0.526776 -1.7817278 -5.777202 -8.411898 -0.042971205
-0.08674626 0.050000668 -6.779383 -1.6707815 -0.075644776 -0.011204352 4.5192122 1.1193422
-7.916856 2.3746984 -5.8696337 -5.5455885 -5.708361 -6.339038 3.635703 -0.078141555
-6.204883 -6.9557676 -2.1988926 0.0010323604 0.5058856 -4.9768577 5.1088214 -1.6725245
1.0647228 -1.1823537 -0.14454786 -8.009303 1.7411109 -8.583945 -0.014401578 -0.062544316
0.05107936 -0.060411587 1.1550542 -0.03622782 -0.04707232 -6.7218194 -0.4917333 -2.7633471
00000000: efb1 d2c0 7a67 d5c0 d747 adbb ccfd f3be
00000010: 989f f8c0 e5b2 9abc 21aa afc0 0a7e f53e
00000020: 11be b2bf 0429 2dbd cb75 e5c0 8379 a040
00000030: 15e7 1ebf 6c7d 943e 51cd af40 2ee1 e0c0
00000040: 0396 81c0 4dd0 a5c0 6158 c6c0 7143 9ec0
00000050: d1ab 86c0 76b0 87bf cecf 3cbc a9c2 fe3f
00000060: 5749 e1c0 8923 1dc0 e68d 303e 3689 7bbf
00000070: 41c3 b73f 6332 1b41 b9ef 8a3f e5a9 9dc0
00000080: 65e4 50c0 e01d e8be f9a8 cec0 1acf 5340
00000090: ef48 41c0 9b1b 5ac0 f421 b33f 40fa a3bf
000000a0: b4e8 50c0 9275 95bf 2724 96c0 4428 e5c0
000000b0: ede5 cbc0 79e5 3c40 4819 0cc1 9dd8 d4c0
000000c0: 5577 61c0 e29e a2c0 9376 a73c 4223 c8c0
000000d0: 565b 09c1 f06d 9dbe bd72 c7c0 b97b 2c3f
000000e0: 398a 1540 d2e5 9640 3697 4540 21ce 20c0
000000f0: 69d3 bac0 30cb f83f e160 cdc0 d892 a2c0
00000100: dae5 0dc1 2e0d e33f f6b6 10bf b754 cac0
00000110: 6478 93bd 7feb 9740 5418 ccbe 51b1 e3c0
00000120: a3d4 8040 cc69 90c0 40c4 efc0 10d3 f0bc
00000130: 024a f73f 44f4 1d41 c263 a83f bc4d 69c0
00000140: d557 eec0 6ed0 dd3f 3ace 15c1 32d4 42c0
00000150: 018c 78bc 6c1f 25bd 4dc1 8f40 5515 1140
00000160: e837 f13e c728 2f40 bf39 b4c0 f922 ffc0
00000170: 2d44 a8c0 c57b f3c0 57b9 44c0 d278 703e
00000180: b046 2cc0 c457 b4c0 2c9a e3c0 e8c4 b3c0
00000190: 0c76 ab3d ac98 a5c0 4963 2d3d 4ce6 ab40
000001a0: d9e4 dabf 5c0c e8c0 14ca efc0 2d45 20c0
000001b0: 058a d3c0 cf1f b7bc 16a3 7dc0 7d38 18c0
000001c0: 8a9b c9c0 696a 80bc c45b 37bd 2906 18bf
000001d0: 388e cac0 26a0 b9bc 06d0 383c 313d 05c1
000001e0: f75f 4a40 4bfc ddbf 94f2 87c0 0fda e4c0
000001f0: 8a1b 7fc0 3453 f2c0 550b f5c0 29f3 f4be
00000200: 6769 483d ce01 ebbf bf08 16c1 abca 69bd
00000210: 4e0c 68bd c879 923e 53cb c53f c348 3f40
00000220: defb cc3f 69f3 d5bd 6aa6 89c0 0728 f63d
00000230: cd46 f1c0 939f a7c0 ba56 e03f 3ed4 333e
00000240: 4e21 95bf e84c d8c0 9895 0bbd f0ac 61bd
00000250: ab6d a43f 18d2 0241 4b1c 07c1 c261 1840
00000260: 2ce8 9cbd d5a7 dcbf 5a5f abc0 9151 3bc0
00000270: d96a e3bf d6fc 02c1 82da 043c 86af 1cc1
00000280: 1ed5 95c0 6f3b b7c0 f621 01c0 a790 95bb
00000290: e660 00c1 0f85 0b40 8e6b f4c0 dee7 9ebc
000002a0: 8751 07bf 367d 073f 6b1f b1c0 ae7a 9b40
000002b0: 2c98 acc0 827c f2c0 b9b3 54bf 1b96 30be
000002c0: 3cfb 2fbd a77c 6ebf cfe2 8f3a 314b cfc0
000002d0: a693 d7c0 4ce8 4bbe 4cf0 b0c0 9a65 843f
000002e0: 3cef 97bd b5e2 69c0 df8c ddc0 4974 86be
000002f0: ec2f 133d 3308 3640 4fb8 f63c 734c 2ebc
00000300: 3f48 983f 63bf 86bc beed cebf a07d bdc0
00000310: 665f eec0 34eb f0be 47e6 0cc0 cf49 d0c0
00000320: 78b3 bebf 5446 d73c 70fc cd3e 2b31 87ba
00000330: d265 dec0 c031 4ebf 4fa3 823f d00e 593e
00000340: 31a4 00c1 b1cf adc0 814e 4bc0 cbda 06bf
00000350: a80f e4bf d7de b8c0 2297 06c1 9302 30bd
00000360: 06a8 b1bd 80cd 4c3d b5f0 d8c0 2bdc d5bf
00000370: a6eb 9abd 7592 37bc 639d 9040 9b46 8f3f
00000380: e256 fdc0 0ffb 1740 0ad4 bbc0 7675 b1c0
00000390: e5aa b6c0 66d9 cac0 5caf 6840 ae08 a0bd
000003a0: 678e c6c0 a695 dec0 a8ba 0cc0 4450 873a
000003b0: b881 013f 6b42 9fc0 777b a340 4815 d6bf
000003c0: d648 883f 5e57 97bf 5b04 14be 1b26 00c1
000003d0: b9dc de3f d757 09c1 99f4 6bbc 3c17 80bd
000003e0: 9738 513d 2472 77bd d1d8 933f 9f63 14bd
000003f0: e8ce 40bd 2519 d7c0 78c4 fbbe aeda 30c0

fc3.weight f4 [101, 256]
-0.15315928 -0.071143955 0.0035167628 -0.47736865 0.21968858 -0.040347125 -0.20884699 -0.10864382
-0.2943574 -0.038102727 -0.24250494 0.028250718 0.12447452 -0.041781142 -0.19632392 0.077771254
-0.09094945 0.22303201 -0.6900792 -0.051419463 -0.53428495 0.48282108 -0.06315942 -0.14928116
0.48675898 1.7719382 -0.10034831 -0.09688537 0.31842145 -0.2668589 0.13947207 -0.051294316
0.24551094 -0.078731626 -0.2682261 0.42125472 -0.22318414 -0.5404342 -0.33228117 0.18176177
-0.36891493 -0.96378237 0.58262247 0.052846465 -0.1178425 0.23226179 0.11475474 -0.15046592
0.4680071 0.032097246 -0.028790861 -0.1553002 0.55413836 0.0933839 0.17221916 -0.19970804
-0.9514853 -0.015486355 0.19413182 -0.11493185 0.01372892 -0.08585059 0.10536431 0.10187455
0.09352271 -0.8962193 -0.15056814 -0.10430566 -0.045253444 -0.048199926 0.016177038 -0.12700878
0.118876554 0.3972801 0.096514985 0.06302737 -0.5232483 -0.024671184 -0.116419256 0.5634046
0.11725008 0.17571329 0.036306296 -0.18169169 0.060644813 0.04698184 0.10919363 0.07001888
0.06709902 -0.62130266 0.20702292 0.10745298 -0.098100185 0.31666696 -0.15945034 0.05431168
0.28169543 0.54344714 0.05207999 -0.47458705 0.42729738 -0.13608572 0.11857088 0.27528393
-0.7101205 -0.07424055 -0.13676076 -0.02631691 0.08610264 0.10108578 -0.12953928 0.24894156
0.34706137 0.038478334 -0.09888195 -0.36199656 -0.09111825 -0.009070471 -0.1770522 0.47024158
-0.5701991 0.046855018 -0.35375586 -0.74414426 -0.24137841 0.15367492 0.08989719 -0.3074676
-0.079156116 -0.013815138 -0.11695056 -0.028784998 0.10456799 -0.32758975 0.004363037 0.205625
-0.10687647 -0.35283166 0.6235978 0.3470778 -0.034891758 -0.21723917 -0.042517122 -0.27213243
0.26448888 -0.31214792 0.11236475 0.067651585 -0.24812664 -1.0060233 0.022593059 0.20487092
0.03999571 -0.34211463 -0.20605531 -0.04846537 -0.14023699 0.58267736 0.16622412 -0.1834073
0.39579743 -0.4489866 0.43275505 0.1070216 -0.12314081 0.0164996 0.52824575 -0.48279977
-0.38586083 0.023465501 -0.0690025 0.05869795 -0.09200037 -0.04251647 -0.8682155 -0.10261797
-0.31131336 -0.14123267 -0.09025983 -0.06267744 -0.28515363 -0.059765376 0.15858787 0.04089509
0.11486463 -0.031292435 -0.114315875 -0.026547872 -0.007138767 -0.53200734 0.023528043 0.0010041909
-0.6715409 0.035758384 0.304189 -0.022765568 -0.2470063 0.17847179 0.09423319 0.15469986
0.16192667 0.22078063 -0.088017836 0.12730257 -0.08311314 -0.058889978 -0.25467944 -0.57683355
-0.0897467 0.34351802 -0.50255096 0.06323011 -0.23035568 0.22144446 0.01621469 0.17770742
0.3591496 -0.21961617 0.9274733 -0.16117616 -0.0962697 -0.09872526 -0.033538748 -0.191137
0.26566786 -0.48627853 0.0398267 0.062036797 -0.29935795 -0.033155955 -0.2823249 0.07016954
0.21245036 -0.17964302 -0.51476824 -0.07533416 -0.12783992 0.38710266 0.034558244 -0.020598883
-0.773577 -0.3786136 0.04288873 -0.226808 0.71270347 0.13438793 0.060826097 -0.104686305
-0.07746937 -0.027334282 0.16310708 0.07316303 0.004526198 0.052159 -0.2473009 0.29138598
00000000: c9d5 1cbe ecb3 91bd 7d79 663b aa69 f4be
00000010: 0bf6 603e 0743 25bd fcdb 55be a780 debd
00000020: 03b6 96be 9b11 1cbd 3753 78be 0d6e e73c
00000030: 7fec fe3d b422 2bbd 2309 49be 8946 9f3d
00000040: b543 babd 8162 643e 08a9 30bf 379d 52bd
00000050: e6c6 08bf 5334 f73e ba59 81bd 29dd 18be
00000060: 7938 f93e dfce e23f 6a83 cdbd d66b c6bd
00000070: 2308 a33e bba1 88be c4d1 0e3e fd19 52bd
00000080: 3867 7b3e 0c3e a1bd ee54 89be b3ae d73e
00000090: 628a 64be e559 0abf c220 aabe c21f 3a3e
000000a0: 6be2 bcbe 71ba 76bf bf26 153f 8975 583d
000000b0: 6957 f1bd 09d6 6d3e 8804 eb3d bd13 1abe
000000c0: a09e ef3e 6778 033d d0da ebbc 0407 1fbe
000000d0: 03dc 0d3f 0f40 bf3d 385a 303e 4480 4cbe
000000e0: 8a94 73bf 7bba 7dbc 7eca 463e 6461 ebbd
000000f0: 44ef 603c 6fd2 afbd 3ec9 d73d 9ba3 d03d
00000100: d688 bf3d a16e 65bf 892e 1abe 359e d5bd
00000110: ad5b 39bd 496d 45bd b585 843c 970e 02be
00000120: 8d75 f33d 4c68 cb3e a6a9 c53d 7e14 813d
00000130: 9af3 05bf 391b cabc 386d eebd 493b 103f
00000140: cf20 f03d 2fee 333e e9b5 143d 630d 3abe
00000150: b266 783d 0870 403d e9a0 df3d 0f66 8f3d
00000160: 366b 893d b10d 1fbf d1fd 533e 4f10 dc3d
00000170: c0e8 c8bd 2c22 a23e f346 23be ed75 5e3d
00000180: 623a 903e 5a1f 0b3f d451 553d 13fd f2be
00000190: b9c6 da3e 0e5a 0bbe 4ad5 f23d 04f2 8c3e
000001a0: 75ca 35bf 6e0b 98bd 030b 0cbe 8f96 d7bc
000001b0: 9556 b03d 1006 cf3d f2a5 04be 89ea 7e3e
000001c0: 07b2 b13e 759b 1d3d 9f82 cabd 9d57 b9be
000001d0: 349c babd 509c 14bc 2c4d 35be 81c3 f03e
000001e0: 91f8 11bf 0ceb 3f3d 7d1f b5be 3d80 3ebf
000001f0: e72b 77be f55c 1d3e 051c b83d 656c 9dbe
00000200: 9a1c a2bd e358 62bc c683 efbd 84ce ebbc
00000210: be27 d63d d8b9 a7be cff7 8e3b 5c8f 523e
00000220: 0de2 dabd 5aa6 b4be 1ba4 1f3f 2eb4 b13e
00000230: a9ea 0ebd f273 5ebe 6f26 2ebd f154 8bbe
00000240: 166b 873e dad1 9fbe 7d1f e63d ea8c 8a3d
00000250: e914 7ebe 5fc5 80bf 1415 b93c afc9 513e
00000260: 8bd2 233d a629 afbe 2a00 53be a083 46bd
00000270: 499a 0fbe 582a 153f a836 2a3e 20cf 3bbe
00000280: f6a5 ca3e 92e1 e5be 1292 dd3e 242e db3d
00000290: 4031 fcbd 2b2a 873c 1d3b 073f 8831 f7be
000002a0: 8d8f c5be b93a c03c 2f51 8dbd 436d 703d
000002b0: b16a bcbd c025 2ebd 5f43 5ebf 5f29 d2bd
000002c0: 7764 9fbe 4c9f 10be 25da b8bd 085d 80bd
000002d0: a8ff 91be 8acc 74bd dc64 223e 9c81 273d
000002e0: 263e eb3d 7f2c 00bd 711e eabd ec7a d9bc
000002f0: 51ec e9bb a231 08bf e2bd c03c 0e9f 833a
00000300: 1bea 2bbf 6277 123d a9be 9b3e db7e babc
00000310: 38ef 7cbe 4fc1 363e 55fd c03d a469 1e3e
00000320: 1bd0 253e 5114 623e b242 b4bd 9b5b 023e
00000330: 3937 aabd 9e36 71bd 5865 82be 5dab 13bf
00000340: 1ecd b7bd 98e1 af3e 2ea7 00bf ca7e 813d
00000350: 5ce2 6bbe 56c2 623e abd4 843c eff8 353e
00000360: 75e2 b73e 10e3 60be e46e 6d3f 5d0b 25be
00000370: 0c29 c5bd 7830 cabd ed5f 09bd 6bb9 43be
00000380: 9e05 883e 80f9 f8be 5221 233d 4c1a 7e3d
00000390: 7245 99be 8ace 07bd e48c 90be 0cb5 8f3d
000003a0: 968c 593e 57f4 37be dac7 03bf cc48 9abd
000003b0: 78e8 02be 5232 c63e f28c 0d3d fdbe a8bc
000003c0: 2409 46bf a4d9 c1be 18ac 2f3d 5b40 68be
000003d0: bc73 363f fd9c 093e c924 793d c665 d6bd
000003e0: 43a8 9ebd 25ec dfbc 8b05 273e 80d6 953d
000003f0: 8050 943b ada4 553d 723c 7dbe 8b30 953e

fc3.bias f4 [101]
-0.03934841 0.3974897 0.42334187 -0.08310466 1.0630034 -0.21647032 0.045715645 0.40632516
0.41929016 -0.34621102 0.631019 0.8588186 0.6235604 0.12988858 0.8608209 0.5793684
0.55020225 -0.13982074 -1.2339717 1.092709 0.84202075 0.058310065 0.9947534 0.38097185
0.52478623 0.57250196 0.05806476 0.4267659 -0.55911463 -0.6013196 -1.1478693 -1.1771598
-1.7587157 -1.2379822 -1.5736845 -1.6456542 -0.74407995 -0.7280735 -2.2794707 -2.0232382
-0.91269076 -1.0320878 1.229741 -0.8569018 -1.2228249 -0.1405896 -0.854397 -0.5616602
-1.4468491 -0.85582227 -0.058019623 -1.2418423 -0.7806839 -0.9954694 -0.27572566 -1.2678585
0.3012995 -0.13190225 -0.21449494 -0.086392164 0.13292393 -0.836337 -0.07711271 -0.43491703
-0.35128114 0.14256649 0.2640094 0.21298665 -0.16941725 -1.7620604 0.4446737 0.27613765
0.7470077 0.22812374 -0.21473669 -0.27417186 0.5033977 -0.8333158 0.12393814 -0.20707029
-0.13316922 0.039707024 0.053524517 0.2743687 0.0038502093 0.4050235 -0.16404724 0.021968324
0.3139412 0.183071 -0.7515794 0.15959343 -0.7886257 0.77468973 0.11064109 0.021022
-0.9141728 0.19197856 0.14529645 -0.96541923 -0.5506737
00000000: cc2b 21bd c583 cb3e 44c0 d83e c732 aabd
00000010: 7f10 883f 65aa 5dbe 5440 3b3d da09 d03e
00000020: 33ad d63e 9242 b1be 768a 213f 89db 5b3f
00000030: a8a1 1f3f 8301 053e c25e 5c3f 7d51 143f
00000040: 0eda 0c3f 2b2d 0fbe c9f2 9dbf e3dd 8b3f
00000050: ac8e 573f 89d6 6e3d 29a8 7e3f be0e c33e
00000060: 6458 063f 7d8f 123f 50d5 6d3d 0f81 da3e
00000070: 2322 0fbf 15f0 19bf 62ed 92bf 2cad 96bf
00000080: 991d e1bf 3376 9ebf 7e6e c9bf cca4 d2bf
00000090: 067c 3ebf 0663 3abf d9e2 11c0 bc7c 01c0
000000a0: 1aa6 69bf 741b 84bf 2768 9d3f eb5d 5bbf
000000b0: 8785 9cbf b8f6 0fbe c3b9 5abf f6c8 0fbf
000000c0: 5a32 b9bf 2b17 5bbf fca5 6dbd b0f4 9ebf
000000d0: e6da 47bf 15d7 7ebf ea2b 8dbe 3049 a2bf
000000e0: ee43 9a3e 6211 07be 90a4 5bbe 60ee b0bd
000000f0: 361d 083e 2e1a 56bf 45ed 9dbd 72ad debe
00000100: 1fdb b3be f3fc 113e 3d2c 873e 2c19 5a3e
00000110: b77b 2dbe 328b e1bf 45ac e33e ea61 8d3e
00000120: e63b 3f3f 4599 693e efe3 5bbe 4160 8cbe
00000130: acde 003f 2f54 55bf 48d3 fd3d 3c0a 54be
00000140: 835d 08be d5a3 223d 863c 5b3d 0e7a 8c3e
00000150: cb53 7c3b 3d5f cf3e 00fc 27be eaf6 b33c
00000160: e7bc a03e f776 3b3e 8267 40bf 766c 233e
00000170: 60e3 49bf 1152 463f cc97 e23d 5436 ac3c
00000180: 3b07 6abf 0796 443e 98c8 143e b725 77bf
00000190: f4f8 0cbf
